results/PokerCheckpoints/PPO_CardGameEnv_2b391_00000_0_2024-05-12_16-27-16/checkpoint_000002/learner/module_state/default_policy/module_state_dir/module_state.pt (torch, 815815 bytes, 11 tensors)

encoder.actor_encoder.net.mlp.0.weight f4 [256, 8]
00000000: 3b2a a03e db3c 503c 362c 54bd 319b 973d
00000010: 4ca0 253d 635d eebd 68c6 833d c990 883d
00000020: 748a 80bd 26ee 1fbb 247c e3bd 650e 3e3e
00000030: 4cf2 4a3e cf7b 723e 839a b13c 9d57 a33c
00000040: e886 c9bd 3658 063e 1046 933e a448 0b3e
00000050: e7fd 93be c5d4 6a3c 3cfb 273e 8db0 8abe
00000060: 2f84 1b3e 83c9 783e 1cca 84be 3d69 743e
00000070: b4b4 c0be add6 773e 50bf fd3d 9869 f13d
00000080: 2b0f 17be 537d bd3e ea8e c53d 5f13 53be
00000090: 9c94 8c3e e494 1abe 2251 103e 2e12 b2be
000000a0: a563 3f3e af2a 44be 8b76 75be 7d93 5cbd
000000b0: 035b a73e 7c6e 32bb fc00 203e 3b57 a43d
000000c0: 51db 623d 13cd 363e 9550 1d3e 8749 9cbe
000000d0: 4ec6 8b3e f420 00bc c739 69be ba7a 94be
000000e0: 2b3c 533d 396b 11bd 9d6b 41bb 6b17 b4be
000000f0: c5a3 e9bb 7589 fc3d d7ba 853e e9d1 a63d
00000100: 9450 0cbe ed3f 68be 549c 883e da23 80be
00000110: 6fae 2f3e 1d3d 80be bd94 83be eb78 993e
00000120: caf2 87be 10bf 8c3e e055 f13d e665 a2bc
00000130: 4f0a 98be 7c47 7ebe 446b cbbd ac7d a33e
00000140: 1c4d 99be fed7 9fbe 8136 753d 079e a43e
00000150: a80d 9c3c 2ef0 b83d 5a93 153e 92ab 51bd
00000160: f4aa 673e 00ab b33e 8b5b 1d3e 90d7 b9bd
00000170: dcba 1f3d 7bfd 61be 617e 373e 49c7 353e
00000180: 1d33 8dbd b6e1 99be 03a3 86be bfdc 3f3e
00000190: 8b64 323d e230 543e d851 da3c d068 b8bd
000001a0: 82a8 603d 3921 603e 01f3 9f3e 5f4f 81be
000001b0: ff2d bbbc 1bc6 88be 880d 17be cce1 1abe
000001c0: 1b05 7abe c652 42be 8fac b63e d87b 58be
000001d0: eb55 13bd 1be5 45be 96de 663e 1543 443e
000001e0: e465 92be 4b65 25be 0098 1abe 6772 0ebe
000001f0: 3f4f 1f3e 5720 cc3d 16dc ebbd 511c 4dbe
00000200: cdbc b33e 1603 b23d d3e0 afbe 26e3 11be
00000210: f14d 97be 48bf 1cbe dc9f 9dbe 37d5 a93e
00000220: 1b7e 623d 2499 533d cebb 51be 8285 513d
00000230: 0104 1abd abd2 093e 1381 92be 6366 673e
00000240: ef7c b13e f383 b8be 7cee 893e 2217 95be
00000250: 5ab1 78be f9dd 633e 7971 9a3e bb6a 7b3e
00000260: 826d 843c 37fb 9bbe e88e 653e 2cff 873e
00000270: ba5b c9bc d18e 243e f010 873e 22aa 93be
00000280: 8137 9c3d bfee 893e d481 d03d 2256 f7bc
00000290: b5c6 1c3e fd0e cd3d aa15 8ebe 66ab 653e
000002a0: b5ce 4abe 485c a13e b678 35bd 4365 02be
000002b0: 08b8 a93e a680 81be 2180 17be 1b28 16be
000002c0: 7f1b 393a 3eba dd3d 7246 d1bd 5ae8 5f3e
000002d0: be8d 9f3e 6bc7 303e 79b6 e93c 61f4 193e
000002e0: b0f8 3cbe ce10 1ebe 7ca5 203e b3aa 513e
000002f0: f3d7 773b 19aa d63c bc11 b0be 0e62 f3bd
00000300: 6821 9cbe 8ede a2be 42b2 893e 4299 543e
00000310: cd29 4ebe 451e 9c3e 20b0 713d 8ffc 51bc
00000320: bba8 bcba 732c 793e 1239 063e 1272 b03c
00000330: e70a b8be fe0a 943c fc90 92be 8c65 e73d
00000340: 46e6 92be 193f af3e 1f1e 10be 61fd b1be
00000350: e17a 63be 550f af3e eb0e 51be 5e46 4cbe
00000360: b116 883e db80 8abe 5794 863e a898 8dbe
00000370: b349 4dbe 722d ebbd b923 b93b c036 b9be
00000380: 3903 0ebe 3292 823d 8f83 bb3d 5706 93be
00000390: 2973 233e 05b1 9e3d 47b0 713e 54b5 87be
000003a0: 2e7d ae3e 875b 503e 036b 43be df6c 3abd
000003b0: cefa 93be d4b6 50be 2d8d 803b b490 9dbd
000003c0: 1405 2e3e 529f c13e efa6 3dbe c24a 713c
000003d0: ba27 7b3d 4119 d13c eae1 803e 893c 303d
000003e0: 83bd 723e ae58 eb3d cdb7 803e 5b47 42be
000003f0: 9e05 a63e 5018 c33b d5fa a33e ace3 a53d
0.3128222 0.012709822 -0.051799975 0.07402647 0.040436074 -0.11638906 0.06434327 0.066682406
-0.06276408 -0.0024403422 -0.11107662 0.18560179 0.19818991 0.23680042 0.021680122 0.019939238
-0.098401845 0.13119587 0.2876439 0.13601929 -0.2890465 0.014332955 0.16404432 -0.27087823
0.15187143 0.2429562 -0.25935447 0.2386827 -0.37637866 0.24202986 0.123900056 0.117877185
-0.1475188 0.37009677 0.09646399 -0.20612858 0.2745713 -0.1509586 0.1409345 -0.34779495
0.18690355 -0.19156907 -0.23971002 -0.053851593 0.32686624 -0.0027226498 0.15625376 0.080244504
0.055384938 0.17851667 0.15362771 -0.30524847 0.27299732 -0.007820357 -0.22775947 -0.28999883
0.051571053 -0.035502646 -0.0029513605 -0.35174116 -0.0071301186 0.12330905 0.2611911 0.08145506
-0.13702613 -0.22680636 0.2668177 -0.25027353 0.17156385 -0.25046626 -0.25699416 0.29975066
-0.2655242 0.2748952 0.117839575 -0.01982398 -0.29695365 -0.24831957 -0.09932569 0.31931818
-0.29941642 -0.31219476 0.059866432 0.32151815 0.01904948 0.09030186 0.14606991 -0.051189013
0.22623807 0.350914 0.15366952 -0.090743184 0.038996562 -0.22069351 0.17919303 0.17751803
-0.06894515 -0.30055016 -0.26296243 0.18736552 0.043552916 0.20721772 0.026650354 -0.090043664
0.0548482 0.21887673 0.31240085 -0.25255868 -0.022849081 -0.26713642 -0.14751256 -0.15125197
-0.2441601 -0.18976888 0.35678527 -0.21140993 -0.03597061 -0.19325678 0.22545847 0.19166215
-0.2859336 -0.16151921 -0.15097046 -0.13910829 0.15557574 0.09967106 -0.115165874 -0.20030333
0.3510498 0.08691995 -0.34351215 -0.14246807 -0.29551652 -0.15307343 -0.30786026 0.33170483
0.055296045 0.05165972 -0.20481798 0.051152714 -0.037601475 0.1345927 -0.286141 0.22597651
0.3466563 -0.3603817 0.26939762 -0.2911921 -0.24286404 0.22252645 0.30164698 0.24552433
0.016165499 -0.304651 0.22417796 0.26561868 -0.024579871 0.16070105 0.2638011 -0.2884074
0.07627774 0.2693996 0.10181013 -0.030192439 0.15310176 0.100126244 -0.27750903 0.22428665
-0.19805415 0.31515718 -0.044304572 -0.12733941 0.33148217 -0.25293463 -0.14794971 -0.14663737
0.0007061287 0.108265385 -0.102185145 0.21865979 0.31162828 0.17263572 0.028529393 0.1503463
-0.18454242 -0.15436098 0.15688127 0.20475273 0.0037817925 0.026204156 -0.3438853 -0.11883937
-0.30494237 -0.3181042 0.26893812 0.20761588 -0.20133133 0.30491844 0.059005857 -0.012816562
-0.0014393547 0.24333362 0.13107708 0.021538768 -0.35945818 0.018071648 -0.2862624 0.112986654
-0.2869131 0.34227827 -0.1407399 -0.34763625 -0.22214843 0.34191385 -0.20415847 -0.19948718
0.26579812 -0.27051434 0.2628505 -0.2765553 -0.20047645 -0.114832774 0.0056500104 -0.36174583
-0.13868417 0.06375541 0.09155952 -0.28715774 0.15961899 0.077486075 0.236024 -0.2650553
0.3407988 0.20347415 -0.1908379 -0.045513984 -0.28902286 -0.20382243 0.0039230795 -0.076936156
0.16994125 0.37816864 -0.18520711 0.014727296 0.061317183 0.025524737 0.2517236 0.04302648
0.23705105 0.11491524 0.2514023 -0.18972532 0.3242616 0.005953826 0.32027307 0.081000656

encoder.actor_encoder.net.mlp.0.bias f4 [256]
00000000: 11c7 81be 76f9 613e 6dab 54bd ec73 063e
00000010: dfa4 7e3e 38de 99be 8ec4 3d3c d0ee 11be
00000020: 4570 e3bc bf6a 413e cbae d6bd 9222 ecbd
00000030: 69f2 5abd c380 61be 1456 36be 9d8b 90bc
00000040: 3c2e 15bd 25cb aebe a794 f6bd 27ea 9f3e
00000050: 98a8 76be 4e97 64bd 3612 1f3d 11dd 1dbe
00000060: 87e2 84be 0731 c13d 6396 7dbe b085 95be
00000070: 49bf 593e 7369 e73d bbe5 103e 7cad 9c3d
00000080: 466c 3bbd 6f7b 503e 5c57 98bd 8dd3 f2bd
00000090: 3b5c 863d 2447 1dbe 3dfa 86be bbdd e4bc
000000a0: 8a40 17be c5c0 c4bd cc8b 713e fe87 0fbd
000000b0: 2006 4fbe 0b4e e4bd a52a c3bd 5d0a 4a3d
000000c0: 68b6 de3d 1854 a83e 08ff 323d 2038 37be
000000d0: 6099 e9bb e4ca a2be 12ae 1dbe 8970 fa3c
000000e0: e249 9abe 4d8e 17be edfe 35be fdec 16be
000000f0: 7a80 f1bd 7df9 023d 50dd 803d 0afe ab3c
00000100: 15ee 663c 4b04 16bd ca03 01be 7fc5 f5bd
00000110: 3bfd ab3c 81de b43d 4a25 2fbe 0ec0 213e
00000120: 0b76 603e 3249 783d 74cc 18be 8c96 883e
00000130: af47 2d3e e16a 62bd 388e 8bbe 1ec8 5c3e
00000140: b7b6 9b3d 414b 68bd 57e9 2dbe fe4c a7be
00000150: 8258 03bd e853 7dbe 88c9 813d 5db8 af3e
00000160: 77f9 b03e e6c3 da3d 393e a23e 53e3 3a3e
00000170: 82cd 7dbd 9558 a4bd 8020 29bd 3231 34be
00000180: 83f8 bf3d 3df4 07be 8886 c73b 4898 2b3d
00000190: b0f6 f43d dd19 003e 383a 27be 0d65 e3bc
000001a0: 8097 1abe 25ab a93b 4114 aa3e a029 553d
000001b0: 8793 8dbe 8d73 b13e 9391 ac3e dd4c 6d3e
000001c0: 62ed 9d3d 3ec0 b0bd 1c97 87be f7ba 9cbe
000001d0: 4296 3abe 25cb 09be 5373 afbe 87cd 0fbe
000001e0: e70c a4be acfd 8e3e 3bde 2c3d 53a8 31be
000001f0: 4132 5e3e d473 3e3e e692 a13d d2a1 113e
00000200: bc67 843d c444 3a3e 8f41 9cbe aa44 013e
00000210: a86c 763e bb35 8fbd 87a7 833d 3dac 9e3e
00000220: 0af1 0fbe 66ea 713e 5e87 e73d d6e2 e03c
00000230: 9b38 ac3e 9e42 8bbe 4dd2 92be 9f91 c7bd
00000240: fbb4 53bc 1921 82be ffe6 46be 2478 1bbc
00000250: d5e5 6d3d 9246 9cbe 4901 f8bd 7e1c 293e
00000260: cf18 9b3d 7287 173d 8ea3 00bc b039 33bd
00000270: d352 043e 6037 a7be 7eff 913e f74e be3d
00000280: b11a 58be 25ca 15bc e0d8 c2bd 6e9d ae3d
00000290: d063 0d3e 223e c33d 2bd4 0cbe c3d4 98be
000002a0: c53e 62be c8c1 eebd bd55 6abe 9e1d e0bd
000002b0: 7a7a 9d3e 2f48 853e d291 debc 8383 993e
000002c0: c090 6dbe ef82 18be 9820 3bbe 9d00 aabe
000002d0: f722 a6be bf72 31bd 0451 7cbe b59f 013e
000002e0: 8beb 353e 33ad 903e 6d61 b03e 93bf ab3e
000002f0: 53b4 083e de67 64be 2f89 fb3d f4dc 9d3e
00000300: e738 b73d 32da 853e f7fb 4dbc f877 093d
00000310: 2a6e 9cbe f693 e53d 29ee 5e3e 3cb8 8cbe
00000320: a603 f33d 58a5 b93b b59d 9a3e 7c94 ee3d
00000330: 1164 5dbe 973a 2dbe 5c98 b0be 25b1 9e3c
00000340: dd7c 02be 9ea0 923e f498 7fbe 7059 563e
00000350: 7a91 53bd 01b9 8a3e 0c1e af3e e65f b03e
00000360: 5b1a 0e3e 5a2a e43d d40d 713e 698e b2bd
00000370: 9c83 993e 8b34 85bb dd6e 083e 35e8 d53d
00000380: d2d4 093d 6141 b7bd e409 93bd 9588 a5be
00000390: 699a 0ebe c723 aebe 1377 07be 1349 67bd
000003a0: 6e45 a63e b2ef 833e a465 3f3e 64d0 c5bd
000003b0: f393 a6bd ddfb 8fbe 5a6f 903d 20e0 9a3e
000003c0: cbb3 a5be fbe8 543e 276a 6b3e 13ec 963e
000003d0: 2db5 ab3d 7216 9ebd 789a cebd 39ed 683d
000003e0: bf0e ae3e 7a8d 51be 2d4a 8ebd 38c4 0fbe
000003f0: 2c13 81bd 8910 aabc c321 883e d678 813e
-0.25347188 0.22067818 -0.051921297 0.13130158 0.24867581 -0.30052352 0.011582507 -0.14251256
-0.027763495 0.18888377 -0.10482558 -0.11530031 -0.053453837 -0.22021775 -0.17806274 -0.017644698
-0.036421046 -0.34139362 -0.12040072 0.31233332 -0.24087751 -0.055808358 0.038835727 -0.15416361
-0.25954077 0.09433179 -0.24764399 -0.29203558 0.21264376 0.1129941 0.14150135 0.07650277
-0.045757554 0.20359586 -0.074385375 -0.11856756 0.0656056 -0.15359169 -0.26362792 -0.02793776
-0.14770713 -0.0960708 0.23588485 -0.0350418 -0.2021718 -0.11147698 -0.09529618 0.04932629
0.10874635 0.32876658 0.043700248 -0.17892504 -0.0071288794 -0.31795418 -0.15398434 0.03057124
-0.30134493 -0.14800377 -0.17773028 -0.14738841 -0.11792083 0.03197621 0.06292212 0.020995159
0.014094849 -0.036625188 -0.12599102 -0.1200056 0.020994773 0.08831502 -0.17104068 0.1579592
0.2192003 0.06061668 -0.14921743 0.26677358 0.16921876 -0.05527771 -0.27256942 0.21560714
0.076032095 -0.056712393 -0.16983543 -0.32675928 -0.03206683 -0.24739039 0.06337267 0.34320346
0.34565327 0.10681896 0.31688097 0.1825078 -0.061963566 -0.08024708 -0.04129076 -0.17596892
0.09373572 -0.13276763 0.0060890354 0.041893274 0.119611144 0.12509866 -0.16330802 -0.027758146
-0.15096855 0.0051778727 0.33218578 0.05204165 -0.27651617 0.3465847 0.33704814 0.23173852
0.07711293 -0.08630417 -0.26482475 -0.30611393 -0.18221381 -0.134564 -0.34267673 -0.14043246
-0.32041094 0.2792791 0.042204123 -0.17349367 0.21698858 0.18598872 0.07889347 0.14221886
0.06465098 0.18190295 -0.30518767 0.1262385 0.24064887 -0.0699267 0.06428438 0.30990782
-0.14056793 0.23624572 0.11305116 0.027451914 0.33636937 -0.27199262 -0.28676072 -0.09744572
-0.012921567 -0.25415877 -0.19424056 -0.009489093 0.058080513 -0.3052259 -0.1210962 0.16514775
0.07573091 0.036994405 -0.0078514945 -0.043756187 0.1292222 -0.32659435 0.28515238 0.09292405
-0.21103932 -0.009142433 -0.09514022 0.08526121 0.13807607 0.09533335 -0.1375281 -0.29849824
-0.22094257 -0.116580546 -0.22884269 -0.10943149 0.30757505 0.26031634 -0.027169142 0.29983148
-0.23199749 -0.14893697 -0.18274152 -0.33203593 -0.3244855 -0.04332232 -0.2464028 0.1265858
0.17765634 0.2825714 0.3444933 0.33544597 0.13350038 -0.22305247 0.12282025 0.30832636
0.089464 0.26143032 -0.01257228 0.033561677 -0.30552799 0.11209862 0.21770538 -0.2748431
0.1186593 0.0056654625 0.30198446 0.11649415 -0.21620204 -0.16916882 -0.3449124 0.019371578
-0.12742944 0.28638166 -0.2496069 0.20932555 -0.05165241 0.27094272 0.3420261 0.34448165
0.13877241 0.111408904 0.23540431 -0.08718569 0.29983222 -0.0040651015 0.13323541 0.104446806
0.033650227 -0.08948017 -0.07179621 -0.32330766 -0.1392609 -0.3401167 -0.13229017 -0.056466173
0.32474846 0.2576881 0.18691117 -0.09658888 -0.08133688 -0.28121844 0.070524886 0.3024912
-0.32363734 0.20792 0.22989713 0.29476985 0.08384166 -0.07719125 -0.10088056 0.05686686
0.33995625 -0.20464125 -0.06947742 -0.14039695 -0.06302485 -0.020759838 0.26588258 0.25287503

encoder.actor_encoder.net.mlp.2.weight f4 [256, 256]
00000000: 53bf 12bd fb68 25bd fb59 0ebd 0f01 1f3c
00000010: cc5c a6bc dbb3 283d 186a a83c e1a7 b93b
00000020: 46e4 d13c 277c 9abd 6942 a8bb 0730 b63c
00000030: 5e83 b2bc dbe9 edbc a169 a4bd 4252 2e3d
00000040: d09e 7d3d 6a09 a0bd 3718 833c 9069 823d
00000050: 626e 503d d7a5 87bc aced fdbc c9df 0fbd
00000060: 351c 8cbd f4cf 3cbd faed 42bd f053 babc
00000070: 5b23 f4bb b228 7e3d 25cb 52bd 3e33 883d
00000080: 0aa5 9c3c 012f df3c 1748 3a3d df4a 6f3d
00000090: 1c8d 003d a8b9 17bd 25a6 85bd 15bf 12bd
000000a0: 3399 4fbd 2070 afbd b576 fbbb 335f 853d
000000b0: c727 433d 30e3 c3bb dbaf 093b 47a3 f83c
000000c0: 4f6c cabc 1f39 313c 5125 96bd bd3c 24bd
000000d0: 5cab 8f3c bc43 323c 4113 9d3d 6480 3cbd
000000e0: 73a3 2cbd 4912 df3d ad95 fabc c442 d53a
000000f0: 1e01 8e3c 7ef0 4fbd 866d be3c 8ef3 c2bc
00000100: f7ee 5a3d 1b75 02bd 02ed 47bb af58 86bc
00000110: df5f 83ba b261 e33c 98b9 59bd adcf 45bd
00000120: b3c9 f7bc 78d9 a23b 0086 b43b 12e3 473d
00000130: 5654 063c 32b4 d4bc 2a2e c1bc f85d 6bbd
00000140: 35f0 9e3c 6211 06bc 13df 5ebc db09 9dbd
00000150: d174 82bc 0f6d 913d b6de ac3d 4646 b93c
00000160: 207d 0abd a75a 523d f30b c73b ffd9 6cbd
00000170: c0c5 743d 5151 7bbd 4ee6 5e3c 1d0d 623d
00000180: 11d8 673d 1695 af3c 0858 d23c fec6 3dbd
00000190: 9744 f33c 72a9 d63c 61dd 9a3c 7138 68bc
000001a0: d696 18bc 714b 223b ad34 0ebd 2384 d0bc
000001b0: 0cde c2bb d17c 8bbd 4ff8 8bbd d409 3b3c
000001c0: cc0c 1abc 4544 193d 487c 46bd b4b9 743d
000001d0: 6875 ecbc a34a eebb ca68 0b3d 607c 44bd
000001e0: 5b25 5dbd ef8a 81bd 2e67 293c af46 02bb
000001f0: dd2e 26bd 09ab 63bd 0985 3bbd cf37 00bd
00000200: c75f 323d 3360 343d 5a93 2b3d dc8d 6dbd
00000210: ce98 2cbd 865b 98bc 9897 ae3d bc07 143c
00000220: 68a2 4b3d a21b 13bd 7037 29bd 9a61 60bd
00000230: 18ec 083c 686e 303d f00c f13c 3ebb 333c
00000240: edae 1ebd ecf8 883b 6e4d 04bd c5c7 02bb
00000250: 14d4 c83c 31d4 1bbd 97d7 353c 7635 e2bc
00000260: afce 7ebd 8805 46bd ddc7 86bd cb0b 5cbd
00000270: 7f76 73bd c625 6abb 5e92 99bc 482a 27bd
00000280: 1b58 453d 4152 3bbc 9cf5 953d 6863 553d
00000290: 30fd c3bc 6c51 0bbd 2f98 cdbc 530c 12bc
000002a0: 9559 5dbd a0b4 2ebd c703 41ba ecf1 3ebd
000002b0: 188a 77bd f4cf 513c 178d 93bc d9e2 b0bd
000002c0: 58f7 de3c 45ed ab3d f5d4 2bbc e895 17bc
000002d0: 291c 163d 231d 46bd 5a2a 5ebc f78b debd
000002e0: 94c5 2cbc 8629 20bd 2814 a13c 377b 54bc
000002f0: bd3e a0bd 6a46 13bc 7759 72ba 85b9 f23a
00000300: 30d5 943d b419 98bd 5302 0bbd 3fd8 93bd
00000310: 0e5c 0e3d f812 693d afc4 88bc d5ce a4bc
00000320: ee90 5c3d 7d55 65bd 9da2 bd3c b38f 623d
00000330: 74b0 953c 53c9 bd3c d44a 2a3c 0e9f 323c
00000340: a4d3 01bd 68d7 d13c 18b6 bebc 8bb5 213d
00000350: 6d75 2ebc da32 8a3d 5663 a43d f5f1 193d
00000360: 3b7d 2e3d 02c4 46bc fdd9 713d 90b8 833d
00000370: 5921 7ebc 0754 663d 54f7 85bd 236d 6a3d
00000380: f0e8 71bd 0d69 e1bc 7ad0 473c 3fbb a2bc
00000390: 56c7 43bd 3418 243c 1326 8d3d ee24 25bc
000003a0: 7698 03bc 5f9d 6b3d cd91 ddba 070e 15bd
000003b0: f24a 14bd 8fb0 993c 3cb6 f13c 0288 ffbb
000003c0: 66d4 c73b d7d0 4abd 2d28 973c 9871 d63a
000003d0: 751d 0f3d 8212 78bc aece 04bd 9ef0 1fb9
000003e0: 8053 153d de95 603d 9cf1 35bc 5a68 74bc
000003f0: 79a2 64bc 81c1 49bd 5f02 29bc 8e06 663d
-0.035826992 -0.04038332 -0.03475378 0.009704842 -0.02030792 0.04118715 0.020558402 0.0056657647
0.025621545 -0.075432114 -0.00513487 0.022239698 -0.021791156 -0.029042175 -0.080279596 0.042558916
0.061919034 -0.078142956 0.016002757 0.06367791 0.05088652 -0.01655857 -0.03099712 -0.035125528
-0.068413176 -0.046096757 -0.047590233 -0.022745103 -0.0074505038 0.06205053 -0.051463265 0.06650399
0.019121666 0.027244093 0.045478906 0.058421012 0.031384572 -0.03704229 -0.0652583 -0.03582676
-0.05068321 -0.08566308 -0.007674063 0.065122984 0.047645357 -0.0059780106 0.002100936 0.030351294
-0.024709849 0.010816841 -0.07331336 -0.040096987 0.017537765 0.010880407 0.07669688 -0.04602088
-0.042148065 0.108921595 -0.03058895 0.0016270508 0.017334517 -0.05076646 0.023245584 -0.023797777
0.05345055 -0.03184996 -0.0030506258 -0.01639971 -0.0010023079 0.027756546 -0.05315551 -0.04829376
-0.030247545 0.004969772 0.005509138 0.048800536 0.008198818 -0.02596483 -0.023581583 -0.057462662
0.019401649 -0.008182855 -0.01360299 -0.076678954 -0.015924843 0.071008794 0.08440916 0.022616517
-0.033810735 0.051355984 0.0060744225 -0.057825085 0.0597589 -0.061356846 0.013604714 0.055188287
0.05660254 0.021433394 0.025676742 -0.046332352 0.029695792 0.026203845 0.01890439 -0.014173613
-0.009313306 0.0024764205 -0.034718204 -0.025453633 -0.00594688 -0.06810916 -0.068344705 0.011415917
-0.009402465 0.037418623 -0.048458368 0.059747413 -0.028864577 -0.007272081 0.03403548 -0.047970176
-0.053990703 -0.063253276 0.010339541 -0.0019878556 -0.040572036 -0.055583034 -0.04578117 -0.031303223
0.04354837 0.044037055 0.041888572 -0.057996616 -0.042137913 -0.01859833 0.08525008 0.009035047
0.04971543 -0.035915025 -0.041312635 -0.05478058 0.00835707 0.04307404 0.029425114 0.010969935
-0.03874104 0.0041800644 -0.032300405 -0.0019955498 0.02451519 -0.03804416 0.011098764 -0.027613383
-0.062208828 -0.04834512 -0.0658109 -0.053722184 -0.05943918 -0.003572808 -0.018746551 -0.040811807
0.048179727 -0.011433185 0.07322237 0.052096754 -0.02392444 -0.034013197 -0.02509698 -0.008914071
-0.05404051 -0.042652726 -0.00073629286 -0.046617433 -0.06043443 0.012805928 -0.018011613 -0.08637018
0.027217552 0.08394865 -0.010487785 -0.009252049 0.03664795 -0.04836763 -0.013559902 -0.1086654
-0.010545153 -0.0391021 0.019662932 -0.01296883 -0.078244664 -0.008988956 -0.00092448987 0.0018518424
0.07267225 -0.074267775 -0.033937763 -0.0721898 0.03475576 0.056902856 -0.016695349 -0.020118156
0.053849153 -0.05598973 0.02314883 0.055312824 0.018272616 0.023167288 0.010393817 0.010902179
-0.031695977 0.025615409 -0.023280188 0.039479773 -0.010648114 0.067479804 0.08026759 0.037584264
0.042599898 -0.012131693 0.05904578 0.06431687 -0.01551088 0.05623248 -0.06541315 0.057232987
-0.059060037 -0.027515912 0.012195701 -0.019864677 -0.047797523 0.010015536 0.06892028 -0.0100796055
-0.008031955 0.057523128 -0.0016904414 -0.03639033 -0.036204286 0.018760948 0.029505841 -0.007798196
0.006098318 -0.04951557 0.018451774 0.0016360758 0.0349402 -0.015141131 -0.032423668 -0.00015253059
0.036456585 0.054830424 -0.011104967 -0.0149174575 -0.013954752 -0.049256805 -0.010315507 0.056158595

encoder.actor_encoder.net.mlp.2.bias f4 [256]
00000000: 6db8 623d 531c a73c 5442 3a3c 0be2 4dbc
00000010: b12b 9b3c 1c89 b73c baaa 773c 44f7 433d
00000020: 7fb6 d03c 7d42 23bc 43f5 713c ae51 573d
00000030: 9bd6 41bb cfed 363c 8a96 4cbd f9e6 65bd
00000040: 0efe 3dbb 5a3e 613c ee70 903d 4403 633d
00000050: e3c8 54bd f311 d13b 7a01 01bd 742b cd3b
00000060: 1df8 adbc f6f4 85bd 4f0c 803d f7e2 163d
00000070: 47be 0d3d 2842 f5bc be3f 0d3d 606d 98bc
00000080: 32c0 76bd 3cd4 11bd ecc9 533c 5b25 9fbc
00000090: e428 8fbc 44d1 c4bc 5414 a23c 0588 173d
000000a0: b0f3 24bd 185c 87bc 10f8 633d 20e6 69bb
000000b0: 0a73 c3bc e832 11bd 3f91 2fbd 9749 103c
000000c0: 7793 66bc bed3 08bd eb85 1fbd 073c c33b
000000d0: 4bdd 0cbd 5864 63bd 4043 c63b cf0b 86bd
000000e0: 8147 8e3a 5e24 bebc bd11 473d e0b3 bdbc
000000f0: e453 72bc 52da 883d c1d0 a7bb b959 3e3c
00000100: 5bfe f93c 1c0d 583d 5439 153c d439 5e3d
00000110: 6e58 0e3d 2556 f5bc 3a68 6d3b 181b 113d
00000120: 918e 8f3b 492d 793b d01b 283d 2be1 73bd
00000130: 21b5 7cbd 2691 72bd a912 5c3d f874 033c
00000140: 6875 3ebd 39bf 29b9 f642 66bd 7df7 62bd
00000150: 44b4 323d 9c95 40bd 73e1 9f3c d062 843d
00000160: eb8c 173d 0de2 2dbd bcb0 233d ae0c 0f3d
00000170: 584f fe3c 9951 a53c a582 0dbc 1ddf 453d
00000180: b355 603d 5fec 363d 71e1 f1bc 6ffd 383d
00000190: 8c39 f7bc 9e40 9f3c 186b 663d 8895 a13c
000001a0: 933d debb 6705 143d c7b7 3d3c 9185 9dbb
000001b0: 8746 11bc 76c3 193d f21e 3a3d b1e3 cbbc
000001c0: a840 5b3c ba6e 123d 3305 063d ce76 8b3d
000001d0: 61ef 13bd a762 28bc d11a efbc 655a 5b3d
000001e0: 2a1e 09bd c1df 483c 7a74 15bd 208f 233d
000001f0: 835e 993c 9dc3 6e3c 8bc0 71bd 2504 56bd
00000200: 467a 5abc ec8f 493d 42fe 483d 7ae6 4cbd
00000210: 695b 2e3d ca00 c53c 1092 e83c 4b56 833a
00000220: 7f08 5c3d 65e3 ae3b 4396 793d 02d8 4ebd
00000230: ee1a 2b3d 8ed1 773d 7a55 273d 34dc 033d
00000240: dc54 13bc 9cb6 6bbd ed70 a93c ed0e e0bc
00000250: ab5f e53b 6cbb 813d 7bba 46bd c140 aab8
00000260: 1e19 18bd 6877 7bbc cd04 bebc 632a f8bc
00000270: 82d3 c739 578a acbc 916b 47bb 1bcd dcbc
00000280: f985 563d cf1e f2bc efa2 68bb c6c8 c2bb
00000290: acf4 1c3c 0aad d63b 0f67 7c3c d8bc 763d
000002a0: dee1 653c e7ab 51bc cf00 243d 4d88 0cbd
000002b0: 30b4 1f3b 7e2b dc3c bd19 67bd 9981 25bd
000002c0: 9aed 78bc a25a 513d afc6 283c 5ec2 87bb
000002d0: 2b9c 34bd 437e 82bd 3615 f7bc 9999 4d3d
000002e0: 95e7 38bb 49fb 24bc a214 52bd 943a 51bd
000002f0: 6ae1 9fbc ec86 563d de6f 503d 4e3e 26bd
00000300: 7030 37bc db3a 413c 6c3c 0f3c a310 50bd
00000310: 43b5 2fbd 5cd8 78bc c896 e33b 9a54 35bd
00000320: c15f 60bc 3a9d 643c 2fbd a03c 325d 68bc
00000330: d669 4f3d 1e4a d43b 7244 2c3d d319 34bd
00000340: a025 843d c9f9 0bbd 6df5 913c 1f98 ccbc
00000350: 135f 8dbc ce2e f73c c1df 813c 9a0b 03bd
00000360: 46f3 323d 81a0 c1ba a3cb 6dbd 51e4 aabc
00000370: 0596 323c f1be 85bc 1106 78bb 31ab e23c
00000380: d718 48bd a452 17bd 2921 0a3d be8e 2c3d
00000390: 8ed9 553c be2a 6a3a 0804 67bd 5568 573d
000003a0: d8b4 6f3d e879 4ebd 272a 83bc 67f3 84bb
000003b0: 4ebd 10bd d975 31bc 4218 b6bb 3a32 833c
000003c0: 1961 e63b 8edc 05bc 4642 ccbc 8947 15bd
000003d0: eda9 41bd 8db4 bd3b 9eb5 ef3c 427e 81bd
000003e0: 117d 783d 20b0 343d 1b29 57bd e4ad 63bd
000003f0: 8f72 41bd 37bd d3bb afd2 ecbc 0cbc b7bc
0.055351663 0.020399248 0.011368353 -0.0125661 0.018941732 0.022404246 0.015116388 0.047843233
0.025477646 -0.0099645825 0.014767948 0.05256813 -0.0029577378 0.011165096 -0.049948253 -0.056128476
-0.002899054 0.013747776 0.0705279 0.055423036 -0.051949393 0.0063803135 -0.03149555 0.0062612835
-0.021236474 -0.06540863 0.06252348 0.036837544 0.03460529 -0.029938772 0.034484617 -0.018606842
-0.060241885 -0.035602793 0.01292656 -0.019426992 -0.017475553 -0.024025567 0.019785084 0.036994953
-0.04027146 -0.016523406 0.055656493 -0.0035690144 -0.023858566 -0.03544894 -0.042863127 0.008806608
-0.014073244 -0.033405058 -0.038946074 0.0059580836 -0.03439073 -0.055515617 0.0060504973 -0.06545221
0.001085505 -0.0232107 0.0486009 -0.02315706 -0.014790509 0.06682266 -0.005121321 0.011618071
0.030516794 0.052746877 0.009107906 0.054254368 0.034752302 -0.029948303 0.0036225454 0.03542623
0.004381009 0.0038021377 0.04104215 -0.05954091 -0.061696175 -0.059220456 0.053728733 0.008023493
-0.046498686 -0.00016188332 -0.056216203 -0.055411804 0.043628946 -0.04701768 0.019516682 0.064641595
0.036999624 -0.042451907 0.03996347 0.0349242 0.031043693 0.02018051 -0.008637105 0.04830848
0.05476923 0.044659015 -0.029526444 0.045163568 -0.030178808 0.019439992 0.056254476 0.019724622
-0.0067822426 0.036137965 0.01157946 -0.004807182 -0.008866913 0.03753992 0.045439668 -0.024888845
0.0133821145 0.03575013 0.032719802 0.068097696 -0.03611696 -0.010277427 -0.029187592 0.053553004
-0.033476032 0.012260378 -0.036488034 0.039931417 0.018721825 0.014573005 -0.059021514 -0.052250046
-0.013334816 0.04920952 0.049070604 -0.050024487 0.042567644 0.024048228 0.02838996 0.0010020224
0.05371904 0.005337166 0.060934316 -0.05049897 0.04177373 0.06050258 0.040853 0.032192424
-0.0089924 -0.057547197 0.02068373 -0.027350867 0.00699993 0.06334576 -0.048517685 -8.118293e-05
-0.03713333 -0.015348293 -0.023195649 -0.030293649 0.00038113823 -0.02106206 -0.0030429105 -0.02695327
0.05237386 -0.029555706 -0.0035497507 -0.005944344 0.009579819 0.0065513896 0.01540543 0.06023869
0.014030902 -0.012797332 0.040039834 -0.034309674 0.0024368875 0.026876207 -0.05642103 -0.040406797
-0.015193367 0.051111825 0.010301276 -0.0041430434 -0.044094246 -0.06371739 -0.030161481 0.05019531
-0.0028214206 -0.010069677 -0.05128921 -0.051081255 -0.019516665 0.052374765 0.050887935 -0.040586762
-0.011180982 0.011793817 0.008742433 -0.050797116 -0.042897474 -0.015188303 0.0069454648 -0.044270135
-0.0136947045 0.013953501 0.01962146 -0.014182376 0.050638042 0.006478562 0.042057462 -0.04396994
0.06452489 -0.03417376 0.017817223 -0.02497488 -0.017257249 0.030173685 0.015853764 -0.031993486
0.043689035 -0.0014772565 -0.05805553 -0.020860823 0.010900025 -0.0163264 -0.0037845413 0.027669521
-0.048851814 -0.036944047 0.03372303 0.042128317 0.013052357 0.00089327607 -0.05640033 0.052589733
0.058522075 -0.050409228 -0.01601131 -0.004057336 -0.035336785 -0.01083132 -0.005557091 0.01601516
0.007030618 -0.00817026 -0.024933945 -0.036445174 -0.047281194 0.0057893456 0.029261407 -0.0632291
0.060666148 0.04411328 -0.052529436 -0.055585757 -0.047228392 -0.006461765 -0.028909056 -0.022428535

encoder.critic_encoder.net.mlp.0.weight f4 [256, 8]
00000000: ce54 673e 7c3d a3bd 357b 9abe 7e5d a13e
00000010: 05e6 6a3e a599 90bd ac43 51be 6beb 333e
00000020: 1bc0 a53e 4dd3 86be 4d16 56bd 5bbc 7a3e
00000030: 62b1 b2be bdcf ef3d 5502 763e bc21 213e
00000040: a152 293d 71b1 ce3d a1f6 223e 2d82 8fbd
00000050: 769e 633e a0b4 9bbd 559d 16be c7c1 b63d
00000060: 7ac5 04bd d065 653e 58c1 493e e440 2d3e
00000070: ebff 76be 59dd 6ebe 0c29 353e db07 1a3e
00000080: 85fb 5f3e 1f4d c5bd 1eb5 763e 0f30 6abe
00000090: d702 893e 90b1 1b3d 73a5 55bd 2674 11bd
000000a0: 511b 6c3e d57b c7bd e289 ae3d d8c4 61be
000000b0: b973 1cbe e98e 2b3e 85bf 163e afc5 6fbe
000000c0: 12b7 dd3c ba5a 55be b10e 3abe ded6 423e
000000d0: 4356 cd3d 11c3 513d 4951 0abc e1a2 9fbe
000000e0: 20da d63c 2368 6b3e ede7 5ebe e751 903e
000000f0: c8fe 0fbe 9316 b03e 13ef e63c 19a6 6b3e
00000100: 60a2 813e 48c9 053e 7b41 59be e313 50be
00000110: 5dd3 0ebe c993 3a3e 4795 41be a8ca 08be
00000120: 8c5e 9bbe 06e6 97be 0a23 c73c aa9a 773e
00000130: 15da b33e 5fcf 973e 76c4 213d 7cd9 9d3e
00000140: 9ff8 40be 9f9a e5bd a898 a7be a46e d1bb
00000150: fe72 1cbe aa4a 0abd 1ce4 29bd 3c37 6d3e
00000160: b517 80be 53e2 c8bd 359f 2a3e e226 0fbe
00000170: 5b06 2e3e 4f8d a63d c825 58be b5d3 bf3d
00000180: db9b dc3d f2e4 a2be 76e1 1ebe 4242 8a3e
00000190: 62c4 903d b90f 8abe ad92 7f3e 3132 4b3e
000001a0: 85b1 00bd e7ce ff3d cf9e 2b3e a816 debc
000001b0: 7420 8c3e 78e1 963e 35e2 df3d 24e4 073e
000001c0: 1707 86bd e3c1 ae3e 84d5 2d3d b75f a0be
000001d0: ad79 87be a62a a33e 7c8d 883e 6881 95bd
000001e0: b504 d1bd 3fae ee3d 64d5 77bd 46bc 763e
000001f0: 96dd 933d 0f9e 86bd 2d4f acbe 081a 00be
00000200: 8019 db3d 301f 42be 0f59 97bd e0d7 9cbd
00000210: a217 02be ab40 61be f978 4e3e 77e9 8ebe
00000220: b10e 853e 48de 12bc 1f69 253e f094 73bd
00000230: cd74 333e 3d19 86be 493b 043e e574 2e3a
00000240: 7e23 9c3e e5eb 87be cc72 46be e29b 1ebe
00000250: 1046 9c3e a691 4fbe 45ab 9b3e 9171 d1bc
00000260: 692e d3bd 0074 a43e 3fce 7e3e c011 25bd
00000270: a8ae 2ebe 4c57 2abd 0b13 85be 00ad 49be
00000280: 4965 c33d a057 423e e69f 39be b3ea 50be
00000290: 9155 9cbe 80c7 a0bd ecd0 f23d cca1 f1bd
000002a0: 764b 9d3e 39c9 e53d 900b b03d f7cd 923e
000002b0: d6b1 7bbe 3371 9b3d 7957 c7bd 5d5c cd3d
000002c0: c560 9d3d 940b 26be 5bcd 383c 7acd 9abd
000002d0: cc7c 93be 62a2 fcbc da9c f03d 2f42 913d
000002e0: 30e6 bdbd 9d07 fe3d 53bc a03c c8f8 a93e
000002f0: f5af b73c 5217 853e d971 26bd c93e aebd
00000300: 1522 523e 10e1 de3d 8330 12bd cdf2 6e3e
00000310: 040a c7bd 6cfb 633e 9364 093e 8af5 29be
00000320: f5fd 91be 509d 67be 3a68 213e 48c1 b03d
00000330: 8baa 8cbe 087e 4ebe 48cd e93d bdb6 163e
00000340: 552c 973e e7a7 fdbd 993b 2a3e 734b 463c
00000350: 04ed 09be b41d 693d bb21 c7bc 601f 71bc
00000360: 5d49 2abe a296 a43e b09a 8e3e 0a0d d63d
00000370: 2731 123e 3b9d 80be 616b a8be 2536 b2be
00000380: a68e a03e bb66 9b3e e8d3 a6bd 299d af3e
00000390: 3ff9 58be b5dd 783e 503d 77be 6632 103e
000003a0: 4b02 4b3e b968 493e c238 943e f6f7 353e
000003b0: 95d9 823e 3fa4 483e aa08 823d 2798 6bbe
000003c0: 0f0b 7c3e bba4 e83d 3b6c b7bc 8e07 48be
000003d0: 3f70 68be 54aa 073e 9629 1e3e 6c1b 4b3e
000003e0: 11a3 973e c9cb 163b 4496 b03e 22f0 9f3e
000003f0: dc1c cabc 23e7 3b3e 0166 c9bd 32ad 313e
0.22590944 -0.079707116 -0.30172125 0.3151664 0.22939308 -0.07060555 -0.20435971 0.17570274
0.32373127 -0.26333085 -0.05226736 0.24485914 -0.34900957 0.11709545 0.24024327 0.15735525
0.041338567 0.10092438 0.15914394 -0.07007251 0.22228417 -0.07602811 -0.14708455 0.08923679
-0.03241489 0.2240212 0.19702661 0.16919285 -0.24121062 -0.23326625 0.1769144 0.15042059
0.21873291 -0.0963385 0.24092528 -0.22869895 0.2675998 0.038011134 -0.052159738 -0.03551116
0.23057295 -0.09740416 0.08522393 -0.22047746 -0.1527852 0.16753735 0.14721496 -0.23415254
0.027064834 -0.2083539 -0.18169667 0.19027278 0.10026219 0.05121142 -0.008442231 -0.31178954
0.026227057 0.22988944 -0.2176816 0.28187487 -0.14062035 0.34392223 0.028190171 0.2301258
0.25319195 0.13065064 -0.21216385 -0.20320086 -0.13947816 0.18220438 -0.18904601 -0.13358557
-0.3034557 -0.2966768 0.0243087 0.24180093 0.3512732 0.296504 0.039494 0.3082999
-0.18844841 -0.11211132 -0.32733655 -0.006391363 -0.15278241 -0.03376261 -0.041477308 0.23165601
-0.25018087 -0.09808793 0.16662295 -0.13979676 0.16994612 0.08132421 -0.21108162 0.09366552
0.107719146 -0.31815296 -0.15515694 0.27003676 0.07068707 -0.2696512 0.24958296 0.19843365
-0.031419296 0.12490635 0.167598 -0.027110413 0.2736851 0.29468894 0.109318174 0.13270622
-0.06544321 0.341323 0.042439952 -0.31323025 -0.2646002 0.31868476 0.26670444 -0.07300073
-0.10205976 0.116543286 -0.06050624 0.24095258 0.072199985 -0.06573116 -0.33654156 -0.1250993
0.10698223 -0.1895721 -0.073900335 -0.076583624 -0.12704328 -0.21997325 0.20163335 -0.27912495
0.2598777 -0.008964129 0.16153382 -0.05946821 0.17525025 -0.2619113 0.1291324 0.0006654992
0.30495828 -0.2654716 -0.19379729 -0.15489152 0.30522203 -0.20270404 0.30404106 -0.025566848
-0.103115864 0.3211975 0.24883364 -0.04030013 -0.17058814 -0.04158716 -0.2599109 -0.196949
0.09540803 0.18978739 -0.18127403 -0.2040203 -0.30534032 -0.078505516 0.11856255 -0.117984384
0.30721635 0.11220021 0.08595955 0.28672764 -0.24579558 0.075899504 -0.09733481 0.100273825
0.07684473 -0.16215354 0.011279429 -0.07558723 -0.2880615 -0.030839149 0.11748667 0.07092702
-0.092724204 0.12403796 0.01962105 0.33197618 0.02242277 0.25994354 -0.040635917 -0.08508069
0.20520814 0.10882771 -0.035690796 0.23334809 -0.09718707 0.22263879 0.13417272 -0.16597572
-0.28514066 -0.22618604 0.15762416 0.086306155 -0.27473864 -0.20165265 0.114161074 0.14718147
0.2952601 -0.123855405 0.16624297 0.012102949 -0.1346932 0.056913093 -0.024308076 -0.014716953
-0.16629548 0.32146174 0.27852392 0.10451706 0.14276563 -0.25119957 -0.32894424 -0.34806934
0.31358832 0.30351815 -0.08145887 0.3429959 -0.2118883 0.24303325 -0.24144483 0.14081725
0.19825093 0.19668855 0.28949553 0.17770371 0.25556627 0.19593905 0.06349309 -0.2300726
0.24613594 0.11359545 -0.022390475 -0.19534132 -0.22699068 0.13248569 0.15445551 0.1983468
0.29616597 0.002300965 0.34489644 0.31237894 -0.024671964 0.1834989 -0.09833909 0.17351225

encoder.critic_encoder.net.mlp.0.bias f4 [256]
00000000: 6157 213e b903 613e 4ffe f83d cb67 883e
00000010: 9f14 b4bd f0a4 6f3d eaf5 f3bd bf7c b3be
00000020: d60a 5dbd c549 16bd 546d ab3d 4b18 283e
00000030: cff5 91be 85f8 04be b3c4 adbe 91ac 8bbe
00000040: 7132 b4bd 17f4 373e ba87 773e b047 b2be
00000050: 2d41 79be 83ea 0b3d 7922 b0bd da43 76be
00000060: a023 013e afc7 12be bccc 4bbe ef08 7abe
00000070: 8f4e c83d ac70 b0be 0589 97be 1732 82be
00000080: dda4 3abe c530 073e fd73 19be 2757 9a3e
00000090: 0fd7 afbe c3b2 b03e ec16 0dbd 6406 4fbd
000000a0: 2b46 af38 3144 23be 5549 3ebe 9574 2cbe
000000b0: d662 903e 2b6b 2dbc 6fb5 3b3e 0506 70bd
000000c0: 80ee 8d3e 4419 6abe 12fe 9b3d 6b50 e9bd
000000d0: 2109 d2bd f59f ad3e b458 183d 570a 9abe
000000e0: 548a 813e 1323 2a3e 623f 5bbe 4ea6 b7bd
000000f0: b28d 90bd 8a24 84be 4d10 8d3e 7ff0 08be
00000100: e5af 5c3d 4574 44bd e902 a53c 8234 97be
00000110: cd5d 8c3d b59c 47bd 1d65 b83d df25 8dbe
00000120: 7880 153e 1fe2 19be e4a1 52be 1137 8abe
00000130: c24a 25be 8ad7 843e 2700 c53d 5ae3 f33d
00000140: ba3f d93d b1c5 50bd cf45 9dbb 2f32 a73e
00000150: 3aaa 5e3e e19a 983e fc5b 3bbd b5e6 783e
00000160: e1aa 5cbe b251 963e 5c83 ab3c ef40 513e
00000170: f559 3d3e cf75 443e ac6d 93bd 6836 123e
00000180: 51d2 54bd 6634 8ebe 89ba f33d c183 8cbe
00000190: 5535 3abd 2064 303e 6bca 203d 705a 5e3e
000001a0: 4202 4bbe 1a10 8c3e 94cb 69be 1c31 b3bc
000001b0: 226c 1a3d c125 3c3e 228f 6abe f1d8 32be
000001c0: ead3 6e3e 9939 fb3d 7fa1 98be 8513 233e
000001d0: 7882 76be cf5c 043d 948c 89bd 62e2 37be
000001e0: 2e52 5e3e e22c a7be e20c c03d 88ba 8dbe
000001f0: 4004 a63e 6972 f03d 4940 8dbe 925f 30bc
00000200: 2a06 4c3e f949 2dbe 1fd3 9cbd 2269 91bb
00000210: 1e17 04bd 774f 413e 7bec b43e d526 94bd
00000220: b4c2 84bd 8d92 1ebe 03a2 04bd 6008 883d
00000230: 895c a13d 0fe7 353e adb6 1cbe 8bcf 8c3e
00000240: ec3f 233e 22e9 093e 0a0c 61be 3ac5 a23e
00000250: 8a4c ad3e 32e9 55be c33d 17be c53a cf3d
00000260: 8159 7abe 5d53 28be ea0f 833e 3671 383e
00000270: 8e77 693c f66f d33d 6da5 fa3d 072d 90be
00000280: 16bd d9bd 49ba bd3d e7d8 9dbe 01bd 06be
00000290: 3499 943e 49f6 1a3b a20d a1be 8a1f a6be
000002a0: 99ab aabd f052 913d aeba 163e 2c74 f73b
000002b0: 00b3 943e db5a b2bd 93e9 fcbd 985a 3b3e
000002c0: f5d5 6fbe 2a24 aabd 7002 ac3e 059b 8fbe
000002d0: 08db 74bd e6e8 efbd 475b f0bd 2591 e5bd
000002e0: 9e55 8a3e 78c3 89be b6ee b33e 57b6 d83d
000002f0: dc3e b13e 3abc 803e 8ec3 3dbe c1a7 f83d
00000300: eeeb 96be f0a0 98be a7c8 3f3e 2381 96be
00000310: a4c5 95be 7009 c7bd aad1 b83d 68dc 4e3e
00000320: 63b4 1f3e 8e19 a73e f747 6e3d 7845 7cbe
00000330: ce7b a63d 8c99 82be 14ee 0c3e 1222 ab3d
00000340: a430 643e e58b d3bd 090d b33d 4f39 9b3e
00000350: 1a1c 663e 92df febd 6385 883e 39dc 12bd
00000360: 90b3 65be b68d 943e f89d 5bbe da6c 6c3e
00000370: 9898 4b3e 8b3e 053e d4d7 24be b7fd 82be
00000380: 2273 64be ca57 62be 526a a0be ff4b 413d
00000390: 0f6b dd3d da6c 45be 2010 cf3d 5e30 a53e
000003a0: af70 b3be 875a 6abe 90fe b4be 9ef6 a73d
000003b0: 9586 abbc d786 e0bd babd f53d a996 0a3e
000003c0: d695 4bbd d05c 9c3d 501b 46be a113 02be
000003d0: 1c6d e4bd a8e8 fcbd 92c3 2c3e 7095 773e
000003e0: 039c 2dbe 49a4 8dbd c50e 683e 1bd1 80be
000003f0: 7597 363e a190 9c3d 7871 90be 0f71 723c
0.15755989 0.21974076 0.121578805 0.26641688 -0.08792996 0.058506906 -0.11912139 -0.3505611
-0.053965412 -0.036691446 0.08370462 0.16415517 -0.2850785 -0.12985428 -0.33939132 -0.27280095
-0.087986834 0.17964207 0.2417287 -0.34820318 -0.24341269 0.034159195 -0.08600325 -0.24049321
0.12611246 -0.14333986 -0.19902319 -0.2441747 0.09780609 -0.34460962 -0.29596725 -0.2542884
-0.18226953 0.13202198 -0.14985652 0.30144617 -0.34343764 0.34511384 -0.034445688 -0.050543204
8.35772e-05 -0.15943982 -0.18582661 -0.16841348 0.28200406 -0.010584633 0.1833093 -0.05859949
0.27721024 -0.228612 0.076168194 -0.11392292 -0.102556475 0.339111 0.03719397 -0.30086014
0.25300848 0.16614942 -0.21410897 -0.08967267 -0.07058276 -0.25809127 0.275515 -0.13372992
0.053878684 -0.047962446 0.02014299 -0.29532248 0.068538286 -0.04873343 0.09003661 -0.27567956
0.14599788 -0.15027665 -0.20569569 -0.26995137 -0.16141799 0.25945693 0.0961917 0.11908598
0.10607858 -0.050969783 -0.0047995816 0.32655475 0.21744624 0.29805663 -0.04574202 0.24306758
-0.2154956 0.29359204 0.02093666 0.20434926 0.18491347 0.19185565 -0.071986526 0.14278567
-0.051958386 -0.27774352 0.11900813 -0.2744427 -0.045461018 0.17225695 0.03925554 0.21714187
-0.1982508 0.27356035 -0.22831565 -0.021874003 0.03770078 0.18373777 -0.22906163 -0.17465569
0.23323026 0.12266845 -0.29810712 0.15925415 -0.24073207 0.03231507 -0.06716266 -0.17957452
0.21711037 -0.3265143 0.09377457 -0.27681375 0.32425117 0.11740572 -0.27588108 -0.010764973
0.19924226 -0.1692275 -0.07657456 -0.0044375816 -0.03224861 0.1887797 0.3533667 -0.07233969
-0.06482449 -0.15485592 -0.03238107 0.066422224 0.07878978 0.17763923 -0.1530406 0.27502093
0.15942353 0.1346784 -0.21977249 0.31791097 0.33847457 -0.20889738 -0.14769654 0.10118631
-0.24448206 -0.1643805 0.2559808 0.18011937 0.014249695 0.10324089 0.12238584 -0.28159353
-0.106317684 0.09264047 -0.30829546 -0.13158037 0.29023135 0.0023645333 -0.31455714 -0.32445937
-0.08333511 0.07095897 0.1471965 0.0075516906 0.29042816 -0.087087356 -0.12349238 0.18296278
-0.23421462 -0.08307679 0.3359561 -0.28047958 -0.059779197 -0.11714344 -0.1173616 -0.11209325
0.27018446 -0.26906943 0.3514306 0.105816536 0.3461827 0.25143605 -0.1853163 0.121413715
-0.29476875 -0.29810286 0.18728887 -0.29395398 -0.2925235 -0.09718597 0.09024365 0.20201266
0.15596156 0.32636684 0.0581741 -0.24635875 0.081290826 -0.25507772 0.13762695 0.08356108
0.2228418 -0.10329417 0.08742721 0.3031716 0.22471657 -0.124449864 0.26664266 -0.035854552
-0.22431779 0.29014367 -0.21446979 0.23088399 0.19882429 0.1301214 -0.16097957 -0.25584194
-0.22309545 -0.22103801 -0.31331116 0.047191616 0.108114354 -0.19279805 0.101104975 0.32263464
-0.35046908 -0.22886096 -0.35350466 0.08201335 -0.020938197 -0.10963219 0.11999078 0.13534035
-0.04970344 0.0763489 -0.19346356 -0.127028 -0.111536235 -0.12349063 0.16871479 0.241781
-0.16954045 -0.069161005 0.22661884 -0.25159535 0.17831214 0.07644773 -0.2821157 0.014797463

encoder.critic_encoder.net.mlp.2.weight f4 [256, 256]
00000000: e29f cfbc f4cf 473c 7a8a 3c3c adbd 28bd
00000010: 8ea3 00bc ef45 5f3d 4b43 023d c338 ebbc
00000020: f4cc b3bc e535 5c3d cda0 3b3d 8587 873c
00000030: eb92 b43c 5f37 afbc 69cc e0bb 847a 613d
00000040: 2074 2ebd 64e0 943c 54c5 58bd d3dd 75bd
00000050: d4ae 4fbc 09ba 57bd 5c52 48bd 02df 00bb
00000060: 96df 9cbb 1468 05bd 53a2 663b b83f 90bb
00000070: 2155 5c3d b595 5ebd 467f e83c 3355 49bd
00000080: 995d 4a3d f4fb 5abc 4467 8aba a71e e7bb
00000090: 3084 9d3c 45d4 97bc dae8 48bd 747c 00bd
000000a0: e431 4c3c 0eb3 333c 047b d53c 4d52 443d
000000b0: 50e5 2a3d f18b f4bc 6ab5 6ebd 3f80 57bd
000000c0: 073f 3ebd b99a 083c 25ac e43b dbf9 c1bb
000000d0: a6b1 bdbb db47 133d 03e9 493d c2e9 51bc
000000e0: eaad 5dbc b04f 423b ac06 2abd d830 d53c
000000f0: 04a4 20bb 93d4 14bd 8853 7d3b 2339 3c3d
00000100: eec6 e13c 6585 413d 5f93 4fbd a2d0 483d
00000110: 2141 743c f768 533d 4d3d 77bd 86cd 333c
00000120: 2532 553d e545 673d ee42 3ebd 75e9 20bd
00000130: 4b6a 7f3c 78a9 4b3d 0df9 62bd df45 fbbc
00000140: ac05 0dbd c3e8 573d 8349 d8bc d7eb 463c
00000150: f168 b33c a227 e4bb 68c2 7ebd fb21 ea3c
00000160: 64f8 2cbc 6214 7c3d c954 073c 7ae7 30bc
00000170: 8db9 353d ab69 1cbd fa50 62bc 1241 6cbd
00000180: ad3b 8fbc ef50 2d3d 2997 d93c 7bc2 0a3d
00000190: a0fe fa3b d289 303d 3d30 2fbd 6fba 60bd
000001a0: 42e1 61bd a739 713d 0051 d43c 2550 663d
000001b0: 700d 71bd 1122 2ebd 36da 603c e176 8b3c
000001c0: 1d8d 5fbd d040 21bc a228 a63c cbd1 4c3d
000001d0: e836 3bbd d782 81ba 011c 90bc 86c6 7137
000001e0: 8b45 27bd eae7 e3bc de48 ecbb 1be0 c1bc
000001f0: 7325 2a3d 1701 0abc 93b0 3a3d 2f72 833c
00000200: 2319 db3c 219e b0bb 2787 8bbc 42b5 53bd
00000210: aa23 013b 4963 023d b702 b6bc 41c1 2dbd
00000220: 3a03 abbb c914 133c 5304 1abd d15a f83c
00000230: 5a2f 25bd dd3b a33b a35b 363b 1690 0c3d
00000240: d1cd 4a3d 30f9 18bb 65cc 973b f26d 543c
00000250: 3efa 353d 5ed5 8bbb 8db1 71bd d77b e23c
00000260: 8ec9 7f3d 77ea 45bd ef4e 0ebd 500b 9f3c
00000270: 4c27 49bd 3442 593c ca9c 70bd e933 47bd
00000280: 51f0 44bc 5eea 083d c43a 003c de1f 873c
00000290: 8d55 00bd cbe0 10bd 0cab 873c c0d3 773c
000002a0: 210f c33c d700 343d c974 853c 6169 ad3c
000002b0: de80 ea3c 43dd 41bd 7fdd 113b 0d64 17bb
000002c0: f1fd 08bb 7969 3e3d c327 7bbc cd69 f2bc
000002d0: b8d0 3ebc 5b09 0a3d e257 e53c 5a85 aa3a
000002e0: 1f45 36bd 1ba2 173d 3db3 533d f482 023d
000002f0: 7708 acbc ab13 6abd 4e82 eb3c 70e9 923b
00000300: 0e75 793d 3c40 243c 9d4d 6a3d 0ca6 343c
00000310: a019 673d 6551 a5bb 75dd 4ebd 7c32 19bc
00000320: d4f8 4b3d eb6a 3cbd 47f0 173d 63d1 a53c
00000330: 4ffa 6abd 87d2 e23c 5c82 31bc 6141 75bd
00000340: 2d14 46bd 94a4 59bc b92e fc3c 561b 273d
00000350: 8e2d 3dbd 416b 16bd 4b08 29bd f071 79bb
00000360: 5d99 2cbb af1c dcbc dfd4 f33c 17f5 6ebd
00000370: 355c fe3b f1ca b73a c84f 96bc f54c 32bd
00000380: 0fd2 bc3c 6eb4 443c 97ef aabc 653e 793c
00000390: 4e26 26bd 460b 323d 5fa1 cbba aff3 693d
000003a0: 16ee f83b 9472 65bc 2cc5 68bd 771a fe3b
000003b0: ef68 c93c 3dfe 58bd 1c85 02bd ba5f b23b
000003c0: 6475 263c 22dc 153b 9553 133d 74d9 7cbd
000003d0: 73b4 7b3d d3d5 5ebd 393d 40bd 4152 2b3d
000003e0: 5e3d af3c 5df4 7a3d 7cd8 c2bc 1c85 1a3d
000003f0: 39e4 e2bc be20 52bd 87fa 56bc 6982 3c3d
-0.025344793 0.012195576 0.011507625 -0.041196514 -0.0078514945 0.054510053 0.031802457 -0.02871359
-0.021948315 0.053762335 0.04580765 0.016544113 0.022042712 -0.021388708 -0.006860305 0.05504848
-0.042591214 0.018173404 -0.05292256 -0.060026 -0.01267596 -0.05266765 -0.04890667 -0.0019664173
-0.0047873957 -0.03256996 0.0035191968 -0.004402127 0.053792123 -0.05434199 0.028381001 -0.049153518
0.049405668 -0.013365734 -0.001055934 -0.0070532146 0.019228071 -0.018533835 -0.04905019 -0.031368688
0.012463067 0.010967983 0.026059635 0.04793005 0.041722596 -0.029851886 -0.05827848 -0.05261254
-0.046446826 0.00833767 0.006978529 -0.0059196777 -0.0057889996 0.0359572 0.049294483 -0.01281208
-0.013530234 0.0029649548 -0.04151027 0.026024267 -0.0024511823 -0.03633554 0.0038654525 0.045952927
0.027560677 0.047246356 -0.050677653 0.049027093 0.014908106 0.051613774 -0.060361195 0.010974294
0.052049775 0.05646314 -0.046450548 -0.039285142 0.015589307 0.049722165 -0.055413295 -0.030672966
-0.034429237 0.052712213 -0.02640224 0.01214119 0.021900626 -0.0069627324 -0.06219712 0.028580656
-0.010557268 0.061542876 0.00825996 -0.010797376 0.04436641 -0.03818671 -0.013813252 -0.057679243
-0.01748451 0.042313512 0.026561337 0.033876877 0.007659748 0.043100186 -0.042770613 -0.054865297
-0.055146463 0.058892872 0.02591753 0.056228776 -0.058850706 -0.042512957 0.013723901 0.01702446
-0.054577935 -0.009842113 0.020283047 0.05000476 -0.04570666 -0.0009880912 -0.017591478 1.4410942e-05
-0.040837806 -0.027820546 -0.007210835 -0.023666432 0.04153962 -0.008423111 0.04557855 0.016045658
0.026745385 -0.005389944 -0.01703222 -0.051686533 0.0019705095 0.031832967 -0.022218091 -0.04242063
-0.0052188905 0.008977124 -0.03760178 0.030316742 -0.04032836 0.0049815015 0.0027825616 0.0343171
0.049512688 -0.0023341887 0.00463252 0.012965666 0.044428103 -0.0042673787 -0.059007216 0.027646942
0.062448077 -0.048319306 -0.034743246 0.019414574 -0.049109742 0.013260413 -0.058743276 -0.04863349
-0.0120201865 0.033426635 0.007826511 0.016494688 -0.031331588 -0.03537063 0.016561054 0.015126169
0.023810925 0.043946113 0.016291039 0.021168413 0.028625902 -0.047330152 0.0022257266 -0.0023100406
-0.0020903314 0.046487305 -0.015329304 -0.029591465 -0.011646442 0.03370033 0.027996007 0.0013009713
-0.044499513 0.03701983 0.051684607 0.031863168 -0.02100013 -0.057147663 0.028748658 0.0044833943
0.060902648 0.01002508 0.057202924 0.011025917 0.056420922 -0.0050451034 -0.050504167 -0.009350415
0.049797848 -0.046000402 0.03709438 0.020241445 -0.05736762 0.027688278 -0.010834303 -0.059876803
-0.048359085 -0.013283867 0.030783998 0.040797554 -0.046186022 -0.03672338 -0.041267674 -0.0038062297
-0.0026336529 -0.026869146 0.02976459 -0.058339205 0.007762457 0.0014022273 -0.01834859 -0.043530423
0.023049382 0.012005908 -0.020866198 0.01521263 -0.040563874 0.043467782 -0.0015535763 0.05711716
0.0075967414 -0.014004368 -0.056828663 0.0077546197 0.024586169 -0.052976836 -0.031865224 0.0054435404
0.010159824 0.0022866805 0.035968382 -0.061730817 0.061451387 -0.054403137 -0.046933386 0.04182649
0.021391567 0.0612682 -0.023784868 0.0377246 -0.027696716 -0.051300757 -0.013121254 0.046022806
