results/PokerCheckpoints/PPO_CardGameEnv_2b391_00000_0_2024-05-12_16-27-16/checkpoint_000000/learner/module_state/default_policy/module_state_dir/module_state.pt (torch, 815815 bytes, 11 tensors)

encoder.actor_encoder.net.mlp.0.weight f4 [256, 8]
0.30211398 0.0068276464 -0.057048164 0.061122425 0.025053822 -0.12671499 0.052816816 0.06780789
-0.02674677 0.046544664 -0.07454527 0.19410609 0.22077614 0.2634097 0.060578182 0.06127786
-0.091864586 0.15511689 0.28556988 0.1631142 -0.27749047 0.0238131 0.16484667 -0.25952387
0.165398 0.2503839 -0.23961192 0.25523362 -0.35387126 0.27619544 0.14627393 0.12855081
-0.16289145 0.35216507 0.10136035 -0.22667232 0.2605672 -0.15315755 0.12468707 -0.35830903
0.17276031 -0.18908668 -0.2376644 -0.06409358 0.33254194 -0.011260523 0.16278252 0.08254278
0.06654327 0.17759681 0.14913936 -0.29454896 0.27364072 0.0046685264 -0.2283323 -0.29772085
0.07172802 -0.023747155 0.0012974284 -0.34739769 0.009259028 0.13575268 0.25890175 0.074936375
-0.15102932 -0.23948382 0.27207816 -0.26276422 0.17776357 -0.22644874 -0.2314016 0.2986911
-0.29690784 0.2555059 0.10003966 -0.035755794 -0.30857563 -0.2547789 -0.11104498 0.30040833
-0.2934999 -0.29575557 0.058674213 0.3294934 0.032967284 0.08410178 0.16686317 -0.05167398
0.25607398 0.34918165 0.12304824 -0.09469265 0.022210607 -0.22507918 0.18121226 0.15972018
-0.059791595 -0.30675125 -0.24887858 0.18191572 0.046338882 0.21423905 0.025696516 -0.093026064
0.04914301 0.2104226 0.3021617 -0.26247337 -0.043810062 -0.26939398 -0.1623649 -0.15577863
-0.24605669 -0.19646281 0.34914464 -0.22210295 -0.03904199 -0.1996551 0.21455888 0.18690184
-0.27428943 -0.15319405 -0.09400176 -0.11800307 0.18246835 0.11534903 -0.10506454 -0.19289874
0.353149 0.08329528 -0.34374422 -0.15264152 -0.29527876 -0.16210604 -0.32628897 0.30828217
0.050691143 0.033367835 -0.20666116 0.044941552 -0.040493824 0.117402494 -0.29175952 0.22977002
0.33508572 -0.35759896 0.2729885 -0.2900575 -0.25035584 0.22912812 0.31101102 0.23192964
0.02628095 -0.2804349 0.2424253 0.28528884 -0.011301389 0.18520819 0.25217813 -0.28346363
0.097726 0.26814538 0.10721115 -0.02849378 0.15958783 0.13147168 -0.25636205 0.25367865
-0.20757492 0.2994501 -0.050768718 -0.10892596 0.3298684 -0.26139718 -0.16031148 -0.16080765
-0.012186103 0.09622494 -0.12190449 0.19377343 0.30465302 0.14122659 0.014090601 0.14490293
-0.20597991 -0.1569368 0.14176598 0.20310403 0.0004414701 0.0022573068 -0.3331453 -0.1374332
-0.3115985 -0.31406468 0.27035928 0.20500633 -0.19568406 0.29792288 0.06930908 -0.012135633
-0.021065969 0.23158441 0.15080376 0.022030061 -0.3555283 0.019798145 -0.28872883 0.111007005
-0.2851952 0.31828025 -0.14716016 -0.3548225 -0.25805178 0.3311066 -0.21915242 -0.23089844
0.27202684 -0.26267478 0.2641041 -0.27841488 -0.199591 -0.10713945 -0.004144726 -0.35758165
-0.12835106 0.063475356 0.08309393 -0.30076247 0.15730211 0.06696146 0.23567031 -0.25924832
0.3299426 0.18576996 -0.21542309 -0.06306574 -0.29444104 -0.2042981 -0.018839538 -0.10079808
0.15561701 0.3647056 -0.18625562 0.0011843314 0.08291985 0.06000075 0.23946483 0.047627654
0.26254973 0.1385882 0.25593758 -0.18096776 0.33351645 0.010942373 0.31295946 0.079300515
00000000: afae 9a3e 73ba df3b 56ab 69bd 825b 7a3d
00000010: ac3d cd3c 93c1 01be 7256 583d ddde 8a3d
00000020: 0b1c dbbc 9ea5 3e3d 31ab 98bd bfc3 463e
00000030: 2413 623e a3dd 863e d420 783d 7efe 7a3d
00000040: 8023 bcbd f6d6 1e3e 3736 923e 6907 273e
00000050: 3b13 8ebe b113 c33c 91cd 283e 50e0 84be
00000060: 185e 293e 5232 803e d45c 75be fbad 823e
00000070: 9d2e b5be 7d69 8d3e d5c8 153e d3a2 033e
00000080: 04cd 26be fb4e b43e 0496 cf3d ca1c 68be
00000090: 1069 853e 55d5 1cbe ef5b ff3d 4874 b7be
000000a0: 14e8 303e f09f 41be 4c5e 73be 7f43 83bd
000000b0: f042 aa3e 0f7e 38bc 76b0 263e 300c a93d
000000c0: d747 883d f0db 353e fdb7 183e 1fcf 96be
000000d0: a31a 8c3e 70fa 983b f1cf 69be de6e 98be
000000e0: 24e6 923d 6589 c2bc 790e aa3a 1cde b1be
000000f0: 2eb3 173c c002 0b3e c58e 843e 3e78 993d
00000100: 6ea7 1abe 3f3b 75be d44d 8b3e 0889 86be
00000110: a707 363e 2ee2 67be 8bf4 6cbe 0aee 983e
00000120: 4e04 98be abd1 823e 98e1 cc3d ab74 12bd
00000130: a0fd 9dbe 6172 82be 8d6b e3bd 1fcf 993e
00000140: 9e45 96be 466d 97be 5f54 703d 5cb3 a83e
00000150: b408 073d 8e3d ac3d 2ede 2a3e 18a8 53bd
00000160: 211c 833e f0c7 b23e b700 fc3d 38ee c1bd
00000170: 05f3 b53c 287b 66be b58f 393e b08d 233e
00000180: 08e8 74bd 800e 9dbe 07da 7ebe 1d48 3a3e
00000190: d7cd 3d3d 7b61 5b3e 8081 d23c 7384 bebd
000001a0: 2e4a 493d 0679 573e f0b4 9a3e e962 86be
000001b0: 2e72 33bd 02ee 89be fc42 26be 6f84 1fbe
000001c0: 49f6 7bbe 8c2d 49be 16c3 b23e f56e 63be
000001d0: 7eea 1fbd 6372 4cbe 53b5 5b3e 3263 3f3e
000001e0: aa6f 8cbe e7de 1cbe ff83 c0bd 98ab f1bd
000001f0: fcd8 3a3e 1d3c ec3d 142c d7bd 3f87 45be
00000200: f2cf b43e b796 aa3d 3eff afbe 0f4e 1cbe
00000210: c72e 97be 20ff 25be 590f a7be 29d7 9d3e
00000220: 84a1 4f3d b6ac 083d fc9e 53be a214 383d
00000230: dadc 25bd b870 f03d 8161 95be d548 6b3e
00000240: 5b90 ab3e 3617 b7be 26c5 8b3e 6b82 94be
00000250: a42e 80be 90a0 6a3e d63c 9f3e f77e 6d3e
00000260: 264b d73c 2a95 8fbe 563e 783e 6111 923e
00000270: 7629 39bc 37a7 3d3e 7e1d 813e 2522 91be
00000280: 9224 c83d 5a4a 893e 8591 db3d ca6b e9bc
00000290: fe6a 233e 83a0 063e e341 83be 2be2 813e
000002a0: 858e 54be 8651 993e dcf2 4fbd 9314 dfbd
000002b0: 83e4 a83e dad5 85be b128 24be c3aa 24be
000002c0: 38a8 47bc 9511 c53d 10a9 f9bd 8b6c 463e
000002d0: 7bfb 9b3e b49d 103e 44dc 663c 6f61 143e
000002e0: 66ec 52be 0ab4 20be 1a2b 113e 81fa 4f3e
000002f0: 1d75 e739 53ef 133b 0592 aabe 4abb 0cbe
00000300: d789 9fbe 16cd a0be 886c 8a3e 2eed 513e
00000310: 6761 48be 5989 983e ebf1 8d3d 89d4 46bc
00000320: 8a92 acbc 7724 6d3e 4d6c 1a3e 6378 b43c
00000330: ce07 b6be b82f a23c 44d4 93be a457 e33d
00000340: 1b05 92be a1f5 a23e 27b1 16be 4bab b5be
00000350: 5d1f 84be ce86 a93e 7e69 60be a470 6cbe
00000360: 1a47 8b3e 4f7d 86be a738 873e 658c 8ebe
00000370: 9561 4cbe ee6b dbbd 7bd0 87bb f114 b7be
00000380: 766e 03be 5eff 813d 262d aa3d 8afd 99be
00000390: ce13 213e 1723 893d 8f53 713e 32bc 84be
000003a0: 3dee a83e 7b3a 3e3e df97 5cbe 9c28 81bd
000003b0: fac0 96be 8533 51be 6055 9abc 396f cebd
000003c0: 115a 1f3e b1ba ba3e cbb9 3ebe 913b 9b3a
000003d0: e2d1 a93d 59c3 753d 4536 753e 3715 433d
000003e0: eb6c 863e 11ea 0d3e 400a 833e 9d4f 39be
000003f0: abc2 aa3e a447 333c 393c a03e 4f68 a23d

encoder.actor_encoder.net.mlp.0.bias f4 [256]
-0.2646662 0.24089856 -0.04877038 0.15388775 0.23285532 -0.30003265 0.008813648 -0.13862269
-0.027439617 0.16439636 -0.099486746 -0.12071538 -0.047005598 -0.22786298 -0.18090461 0.0058942395
-0.04242109 -0.34167376 -0.12545533 0.3283739 -0.21840858 -0.06246648 0.02080119 -0.16496865
-0.26528966 0.08349186 -0.26635748 -0.28948858 0.21028443 0.095270455 0.14337769 0.085516
-0.054158796 0.21581924 -0.053247385 -0.12100192 0.07518677 -0.16412808 -0.25590852 -0.044776794
-0.17781341 -0.099050984 0.23677227 -0.015553801 -0.18903838 -0.11135197 -0.09529618 0.06985998
0.10569123 0.32051283 0.033175033 -0.16277285 -0.015775802 -0.3404388 -0.1642714 0.010379201
-0.3089527 -0.14434741 -0.17970121 -0.12633039 -0.12636024 0.024885511 0.05312891 0.040664334
0.008711579 -0.028423866 -0.115306355 -0.122622065 0.04895789 0.07434507 -0.14826275 0.15574718
0.22870888 0.064549334 -0.13697311 0.2776932 0.13907479 -0.04803536 -0.2722038 0.2114059
0.06716692 -0.06771961 -0.1629202 -0.3132399 -0.045795765 -0.242793 0.05585604 0.3146007
0.3322568 0.12081379 0.33294943 0.18514088 -0.059866473 -0.08215705 -0.035841398 -0.16848767
0.09927609 -0.14290315 -0.035382863 0.028958235 0.119330026 0.10335573 -0.15411443 -0.017149478
-0.14822087 0.009935516 0.33136788 0.043966103 -0.30099198 0.34213126 0.33319214 0.20548412
0.05224086 -0.079400524 -0.2719718 -0.2598516 -0.21545544 -0.12832925 -0.3319152 -0.14854579
-0.32271174 0.27200896 0.05093082 -0.174821 0.22291693 0.20764278 0.0850437 0.13378182
0.06899086 0.1881831 -0.31602192 0.12472048 0.2418858 -0.06336959 0.06119367 0.31597108
-0.14105827 0.23385878 0.11305116 0.027510803 0.29694253 -0.3127028 -0.29392138 -0.07536329
-0.0042662513 -0.24845207 -0.17254932 -0.0067093344 0.081686325 -0.31188682 -0.11368967 0.15415972
0.08484781 0.04067034 -0.012849472 -0.04966777 0.113092035 -0.3344665 0.30879056 0.07291232
-0.18434837 -0.034344133 -0.10537629 0.10682608 0.11284217 0.07829496 -0.16319622 -0.29068005
-0.22200073 -0.12207031 -0.2262348 -0.09531472 0.29416195 0.2568827 0.0064196484 0.30294904
-0.25916973 -0.15724258 -0.16359128 -0.3262135 -0.31136966 -0.05537128 -0.22705337 0.1440865
0.18505368 0.2814887 0.3571724 0.3224547 0.14615141 -0.22345448 0.14416485 0.31970647
0.089661285 0.2539841 -0.020037817 0.030957326 -0.30247754 0.11352128 0.24270093 -0.25612673
0.093689434 0.00084834464 0.3018883 0.12997702 -0.20064303 -0.16756131 -0.33977795 0.027973862
-0.12291222 0.28331512 -0.24452041 0.2289125 -0.067548804 0.27779105 0.33199713 0.34849572
0.1632227 0.09142372 0.21776064 -0.10129304 0.29854292 0.011899772 0.13323541 0.1164396
0.0505256 -0.08714527 -0.09051759 -0.3094863 -0.15235561 -0.34064078 -0.13356626 -0.06924489
0.3459824 0.24128154 0.2018331 -0.098626204 -0.08865912 -0.2923329 0.07027454 0.28970858
-0.34164077 0.23237565 0.22229375 0.2930014 0.07435331 -0.07292457 -0.111918665 0.05954512
0.3317978 -0.20906948 -0.035142336 -0.16161057 -0.04698591 -0.0072244364 0.25777972 0.26632115
00000000: 5482 87be 1dae 763e 73c3 47bd c094 1d3e
00000010: a071 6e3e e19d 99be 1e67 103c 1bf3 0dbe
00000020: 0cc9 e0bc 8557 283e b5bf cbbd a039 f7bd
00000030: f188 40bd ea54 69be 0f3f 39be 7724 c13b
00000040: bdc1 2dbd ddef aebe 5d77 00be a020 a83e
00000050: 80a6 5fbe dadc 7fbd 4267 aa3c 8bed 28be
00000060: 0cd4 87be c8fd aa3d 0260 88be d937 94be
00000070: cd54 573e 281d c33d 9ad1 123e 0323 af3d
00000080: 9dd5 5dbd b8ff 5c3e ee19 5abd dbcf f7bd
00000090: 85fb 993d 3111 28be 7106 83be df67 37bd
000000a0: b814 36be 3edb cabd 6e74 723e 5fd5 7ebc
000000b0: 4793 41be 800c e4bd a52a c3bd c012 8f3d
000000c0: a574 d83d 421a a43e 8be2 073d edad 26be
000000d0: 413c 81bc ff4d aebe c336 28be 860d 2a3c
000000e0: 0c2f 9ebe cfcf 13be 9803 38be c15c 01be
000000f0: 9464 01be b3dc cb3c b39d 593d a58f 263d
00000100: 03bb 0e3c 2bd9 e8bc bd25 ecbd 4721 fbbd
00000110: 1288 483d 3a42 983d 31d2 17be 307c 1f3e
00000120: a932 6a3e 7132 843d ae42 0cbe ce2d 8e3e
00000130: 9f69 0e3e bac0 44bd 4c5e 8bbe ca7a 583e
00000140: cf8e 893d 94b0 8abd 8ed4 26be fb60 a0be
00000150: 5794 3bbd ba9e 78be 4ec9 643d 5813 a13e
00000160: 901d aa3e 386d f73d 5978 aa3e 9295 3d3e
00000170: 8c36 75bd f541 a8bd 6ece 12bd 0888 2cbe
00000180: 4351 cb3d 3455 12be 9fed 10bd d239 ed3c
00000190: 4d63 f43d 2bac d33d 2cd0 1dbe 107d 8cbc
000001a0: 36c7 17be 93c8 223c 0da9 a93e cd15 343d
000001b0: 9f1b 9abe d42b af3e 2998 aa3e 6e6a 523e
000001c0: 83fa 553d be9c a2bd e33f 8bbe 450b 85be
000001d0: 5aa0 5cbe be68 03be caf0 a9be 631c 18be
000001e0: 793a a5be c244 8b3e d69c 503d 4704 33be
000001f0: 5644 643e 4fa0 543e 642b ae3d 1afe 083e
00000200: 144b 8d3d 12b3 403e a0cd a1be 736d ff3d
00000210: e9b0 773e eac7 81bd 37a6 7a3d f6c6 a13e
00000220: 9471 10be ad78 6f3e 5e87 e73d 565e e13c
00000230: da08 983e 951a a0be dd7c 96be 1258 9abd
00000240: e9cb 8bbb 386a 7ebe c5b0 30be fad9 dbbb
00000250: 294b a73d a1af 9fbe 21d6 e8bd 0cdc 1d3e
00000260: b0c4 ad3d f195 263d 9886 52bc 6e70 4bbd
00000270: cc9c e73d 313f abbe cc19 9e3e 0e53 953d
00000280: d2c5 3cbe 6fac 0cbd 86cf d7bd a2c7 da3d
00000290: cc19 e73d 1c59 a03d e91c 27be 04d4 94be
000002a0: 2954 63be 0000 fabd 18aa 67be 5d34 c3bd
000002b0: 659c 963e 2186 833e ea5b d23b 231c 9b3e
000002c0: e5b1 84be 3304 21be 7984 27be 7505 a7be
000002d0: d86b 9fbe ffcc 62bd ae80 68be 698b 133e
000002e0: b67e 3d3e 491f 903e 4ddf b63e c818 a53e
000002f0: b7a8 153e 40d1 64be f39f 133e 91b0 a33e
00000300: 56a0 b73d 340a 823e 5926 a4bc 389a fd3c
00000310: 56de 9abe d87d e83d 9886 783e 0b23 83be
00000320: 3fe0 bf3d 7263 5e3a 1a91 9a3e b218 053e
00000330: 5e75 4dbe 3195 2bbe 60f7 adbe 7129 e53c
00000340: 67b9 fbbd ae0e 913e 8f63 7abe 0a68 6a3e
00000350: 0757 8abd a13a 8e3e 87fb a93e 086e b23e
00000360: da23 273e 5c3c bb3d a5fc 5e3e ba72 cfbd
00000370: 9eda 983e 43f7 423c dd6e 083e e377 ee3d
00000380: eef3 4e3d 3879 b2bd 4961 b9bd fd74 9ebe
00000390: 1c03 1cbe 7868 aebe 98c5 08be 44d0 8dbd
000003a0: 9b24 b13e 8212 773e 56ad 4e3e 89fc c9bd
000003b0: ea92 b5bd a8ac 95be 19ec 8f3d af54 943e
000003c0: 8aeb aebe e2f3 6d3e f9a0 633e 4804 963e
000003d0: 8c46 983d 7a59 95bd 9d35 e5bd 95e5 733d
000003e0: 67e1 a93e 4f16 56be 69f1 0fbd 3e7d 25be
000003f0: 4c74 40bd f7ba ecbb b4fb 833e 3f5b 883e

encoder.actor_encoder.net.mlp.2.weight f4 [256, 256]
-0.037155334 -0.046982307 -0.051165346 0.018125579 -0.0075564636 0.032902464 0.009422941 0.016157847
0.03216443 -0.033349108 -0.027384708 0.02068618 -0.015632877 -0.042272076 -0.069106966 0.04594077
0.057605628 -0.06125825 0.01800777 0.043700065 0.049073968 -0.03950778 -0.034282316 -0.054589912
-0.051940132 -0.009111236 -0.036898553 -0.023293361 -0.0066777305 0.046796165 -0.05357711 0.06275288
0.01667273 0.029036047 0.027803367 0.05528576 0.030544896 -0.043723036 -0.066287614 -0.04116477
-0.055320892 -0.05294136 0.005265168 0.056984264 0.020099489 -0.002351205 -0.0015263096 0.015317184
-0.029653419 0.043439217 -0.0555392 -0.063365325 0.012836447 0.020630097 0.053782996 -0.033913795
-0.039741658 0.046424475 -0.030234654 0.018146528 0.0013377819 -0.031902898 0.019556629 -0.04711165
0.056854017 -0.015380352 0.0047170753 -0.01331332 0.010932804 0.0404097 -0.047600083 -0.04553823
-0.033452675 0.009401367 0.018633977 0.052227676 0.00847329 -0.027822815 -0.028927544 -0.05695474
0.03439476 -0.005411851 -0.018559411 -0.06731015 -0.00477535 0.05548948 0.06492386 0.010802757
-0.04496971 0.046367034 0.0017672118 -0.05323144 0.033704072 -0.057379488 0.010417621 0.046188887
0.039290067 0.02676427 0.033296853 -0.050133355 0.023353389 0.01987328 0.0155854635 -0.017633384
0.02101724 -0.0006118667 -0.0350487 -0.031194232 -0.0033235275 -0.057776667 -0.06341931 0.0066154078
-0.012061421 0.04014561 -0.054598283 0.048583902 -0.023723688 -0.0038138367 0.02855607 -0.03306535
-0.030105306 -0.04866284 0.014851215 -0.0068096397 -0.05374766 -0.04124321 -0.045190044 -0.03311933
0.038258363 0.050931104 0.029703977 -0.055729277 -0.037830148 -0.03874938 0.07145105 0.025614012
0.04600982 -0.042913344 -0.0376854 -0.051153347 0.012005979 0.041077316 0.048662607 0.011470702
-0.041731667 -6.465691e-05 -0.028249374 -0.00017630294 0.03444891 -0.039686855 0.007577419 -0.020774644
-0.041462198 -0.05114633 -0.051788997 -0.04387469 -0.056464583 0.0018848917 -0.022506954 -0.04097238
0.04081516 -0.0058801314 0.05975893 0.05592105 -0.019767638 -0.037827007 -0.019915435 -0.008072167
-0.04920659 -0.029884854 -0.005697258 -0.025226658 -0.05153506 0.0065767057 -0.016872255 -0.072345376
0.025297489 0.051020816 -0.007975763 0.013418829 0.04334484 -0.041459538 -0.024305694 -0.06752581
-0.026530063 -0.021063786 0.03154346 -0.028956821 -0.06754977 -0.014798623 0.008502905 0.023180636
0.04635089 -0.06180791 -0.027807673 -0.05951898 0.018708963 0.051586248 -0.027132848 -0.01137215
0.056980334 -0.071063444 0.013488845 0.054715544 0.022228824 0.025779659 0.010671537 0.017499845
-0.033372056 0.018767422 -0.027804188 0.035921633 0.00037094852 0.051451534 0.07561028 0.040970527
0.039101407 -0.019161705 0.055464596 0.04393996 0.020455046 0.061146703 -0.06178587 0.062489316
-0.06330635 -0.020533338 -0.008947104 -0.0021504206 -0.03583793 0.01601837 0.048663992 -0.019147076
-0.013425193 0.05466592 0.042045306 -0.036953084 -0.0045836777 0.013877217 0.03635278 -0.037141062
0.00020853423 -0.045839358 -0.0061547095 0.018996771 0.033758696 -0.021765422 -0.028240087 -0.017151536
0.039848983 0.054456145 -0.03601147 -0.011026683 -0.0043936437 -0.05532455 -0.029422747 0.059340578
00000000: 3130 18bd 8570 40bd c192 51bd 187c 943c
00000010: 369c f7bb bcc4 063d ae62 1a3c 765d 843c
00000020: d9be 033d 1399 08bd e555 e0bc 1076 a93c
00000030: 8510 80bc 7c25 2dbd f487 8dbd 642c 3c3d
00000040: e1f3 6b3d eee9 7abd 0885 933c d7fe 323d
00000050: c901 493d e9d2 21bd 9d6b 0cbd ac99 5fbd
00000060: 2dbf 54bd 4b47 15bc f022 17bd b8d1 bebc
00000070: ddd0 dabb 56ad 3f3d ac73 5bbd 9584 803d
00000080: 4095 883c 01dd ed3c e3c3 e33c 5273 623d
00000090: 4a39 fa3c ed16 33bd cdc1 87bd 649c 28bd
000000a0: 2998 62bd 0ad9 58bd 6e87 ac3b 5568 693d
000000b0: afa7 a43c ad16 1abb 740e c8ba edf4 7a3c
000000c0: baeb f2bc 52ed 313d 127d 63bd aec5 81bd
000000d0: f64f 523c 7300 a93c 8f4b 5c3d 31e9 0abd
000000e0: 26c8 22bd 9727 3e3d aaae f7bc 07a8 943c
000000f0: 8358 af3a 9dac 02bd 3935 a03c 25f8 40bd
00000100: c2df 683d dffd 7bbc b291 9a3b 1d20 5abc
00000110: 811f 333c a484 253d 4ef8 42bd 4c86 3abd
00000120: ac05 09bd 3108 1a3c 48a6 983c b0ec 553d
00000130: 8ed3 0a3c acec e3bc 75f9 ecbc 6049 69bd
00000140: 85e1 0c3d e655 b1bb e809 98bc e7d9 89bd
00000150: 8a7a 9cbb f048 633d cdf6 843d 0cfe 303c
00000160: 2932 38bd 5ceb 3d3d caa1 e73a 3609 5abd
00000170: 480d 0a3d c106 6bbd abae 2a3c 8f30 3d3d
00000180: 9fee 203d be40 db3c 4862 083d a258 4dbd
00000190: 9b4f bf3c 4acd a23c 2c5a 7f3c e373 90bc
000001a0: 592c ac3c ae65 20ba 3a8f 0fbd 0c8b ffbc
000001b0: 8acf 59bb 3aa7 6cbd fce1 81bd 10c6 d83b
000001c0: 449d 45bc b96f 243d 73a2 5fbd eaff 463d
000001d0: 2e58 c2bc 90f1 79bb 6bee e93c 886f 07bd
000001e0: 679f f6bc b052 47bd 8352 733c 6623 dfbb
000001f0: 8226 5cbd a4ee 28bd 3219 39bd 22a8 07bd
00000200: cdb4 1c3d 229d 503d c155 f33c 6244 64bd
00000210: c9f3 1abd abb7 1ebd ee54 923d 7ad4 d13c
00000220: cb74 3c3d e7c5 2fbd 025c 1abd 2c86 51bd
00000230: bab4 443c b040 283d 7152 473d 9cef 3b3c
00000240: d3ee 2abd 6a98 87b8 3b6b e7bc f6dd 38b9
00000250: 4d1a 0d3d af8e 22bd ff4b f83b 962f aabc
00000260: 44d4 29bd d07e 51bd b320 54bd f2b5 33bd
00000270: 6847 67bd 780e f73a 8160 b8bc a8d2 27bd
00000280: cc2d 273d 1eae c0bb c8c5 743d 790d 653d
00000290: beef a1bc 7ef0 1abd b225 a3bc 1f41 04bc
000002a0: d98c 49bd 15d1 f4bc 10b0 babb 23a8 cebc
000002b0: 6d16 53bd 6881 d73b af37 8abc d029 94bd
000002c0: ae3c cf3c 34fb 503d c6ac 02bc a6da 5b3c
000002d0: 5c8a 313d 7ad1 29bd bc1c c7bc f94a 8abd
000002e0: 9355 d9bc f68d acbc b733 013d db36 edbc
000002f0: 8957 8abd ec75 72bc c54f 0b3c 51e5 bd3c
00000300: 6eda 3d3d 4b2a 7dbd ebcc e3bc 2dca 73bd
00000310: 8a43 993c 1a4c 533d b545 debc 4152 3abc
00000320: 3664 693d b689 91bd 5100 5d3c 681d 603d
00000330: 3919 b63c dd2f d33c acd7 2e3c d65b 8f3c
00000340: 23b1 08bd 23be 993c 9cc5 e3bc 9022 133d
00000350: de7b c239 d8be 523d 90d9 9a3d b6d0 273d
00000360: cc28 203d 02f9 9cbc d82e 633d 63fa 333d
00000370: 5791 a73c f774 7a3d 2e13 7dbd ccf4 7f3d
00000380: c2a6 81bd 8835 a8bc e096 12bc 12ee 0cbb
00000390: cbca 12bd f538 833c e553 473d 54da 9cbc
000003a0: 57f5 5bbc 5fe9 5f3d b337 2c3d 1e5c 17bd
000003b0: ad32 96bb 445d 633c a7e6 143d 3a21 18bd
000003c0: fba9 5a39 0dc2 3bbd 72ad c9bb 1e9f 9b3c
000003d0: 8f46 0a3d 664d b2bc c157 e7bc 6181 8cbc
000003e0: b038 233d 680d 5f3d c380 13bd 43a9 34bc
000003f0: 8ef8 8fbb ff9b 62bd f907 f1bc 1b0f 733d

encoder.actor_encoder.net.mlp.2.bias f4 [256]
0.05172443 0.017842626 0.008437698 -0.009975149 0.020838013 0.027689535 0.0193476 0.05007892
0.028996922 -0.007014286 0.013316793 0.052415643 0.0020161413 0.013118694 -0.046529617 -0.051936734
-0.0010649092 0.016958475 0.06414913 0.056423597 -0.04701252 0.007380205 -0.032976218 0.0078075537
-0.019354807 -0.062484596 0.06148853 0.03955242 0.0397616 -0.029954784 0.033475835 -0.011782977
-0.05520535 -0.03992655 0.014411069 -0.007563347 -0.018898914 -0.022377163 0.020537663 0.035639618
-0.036854386 -0.015435822 0.056635406 -0.0006979051 -0.023838263 -0.032997422 -0.048733205 0.008294929
-0.014921692 -0.0320468 -0.031884883 0.00328779 -0.03799014 -0.052591935 0.0055615883 -0.05968534
-0.00019293005 -0.024412872 0.047364943 -0.025363881 -0.01778137 0.06422086 -0.009787599 0.0067870556
0.02718015 0.05106756 0.009275275 0.048869103 0.030923774 -0.028306527 0.00011322247 0.033083033
0.0062964754 -0.002102564 0.043689065 -0.060629245 -0.061365798 -0.053515274 0.054510728 0.010280515
-0.048470516 0.0033953367 -0.05721057 -0.050194845 0.047523685 -0.051396057 0.0160616 0.06261977
0.030377325 -0.0390048 0.03907493 0.034279484 0.032437928 0.018039476 -0.007890432 0.046415288
0.054686356 0.050816026 -0.02904379 0.04465693 -0.030080251 0.018507183 0.05507994 0.020360706
-0.0060979966 0.044645317 0.0104763955 -0.00470489 -0.003760174 0.036509156 0.043492388 -0.024074534
0.012590613 0.039573513 0.035611987 0.06584645 -0.036824163 -0.007150729 -0.021883428 0.048240628
-0.032348506 0.014562216 -0.037338667 0.038636208 0.021314682 0.017570142 -0.05805294 -0.051443443
-0.013797937 0.050441127 0.048192102 -0.046904273 0.04578809 0.019677304 0.029250558 0.0024520003
0.057205763 0.010420117 0.057129946 -0.046973065 0.039841697 0.05462625 0.04118089 0.03327521
-0.010995651 -0.055158403 0.024586698 -0.029013153 0.0059183375 0.060686443 -0.045218784 -0.0042659217
-0.03879483 -0.02035359 -0.021719435 -0.031848628 -0.0045595504 -0.021444423 -0.0016172925 -0.025353674
0.0556361 -0.024429956 -0.00060779613 -0.00913288 0.007310695 0.0070265154 0.02028756 0.05753979
0.012566059 -0.011383726 0.039447326 -0.027867902 -0.0013941994 0.028589865 -0.057016253 -0.037169322
-0.013823002 0.05045778 0.010341729 0.0012853413 -0.040831704 -0.059800494 -0.029804064 0.053888492
-0.0011696924 -0.010935708 -0.05625944 -0.054719698 -0.016035454 0.056862812 0.053962875 -0.040384818
-0.0074456166 0.010697231 0.0013824777 -0.05207454 -0.04075476 -0.01303336 0.015428074 -0.042824894
-0.012163167 0.011656399 0.022819858 -0.011921308 0.054552995 0.0073620775 0.04166773 -0.03833962
0.060225945 -0.032690313 0.018454932 -0.02025566 -0.0119448835 0.030750787 0.014494923 -0.03638453
0.04332586 -0.001401136 -0.05735599 -0.01639878 0.010428195 -0.015340484 -0.004604233 0.026305543
-0.04391311 -0.04115927 0.037369944 0.04112025 0.014182739 -0.0023819536 -0.055119067 0.05314017
0.057680607 -0.05264241 -0.017897975 -0.003863193 -0.027159683 -0.010948813 -0.0041197506 0.008511758
0.0063604065 -0.00698682 -0.024647987 -0.036108386 -0.05019094 0.0055482774 0.026559392 -0.06302642
0.06089216 0.04543051 -0.051449846 -0.055862263 -0.054471605 -0.006990918 -0.0319163 -0.019029599
00000000: ffdc 533d b32a 923c 453e 0a3c cf6e 23bc
00000010: 7bb4 aa3c 2ad5 e23c dc7e 9e3c 8e1f 4d3d
00000020: f48a ed3c 18d8 e5bb ae2e 5a3c c9b1 563d
00000030: 3d21 043b caef 563c d795 3ebd 9dbb 54bd
00000040: 6c94 8bba 80ec 8a3c 9e60 833d 6e1c 673d
00000050: 3390 40bd a6d5 f13b 1212 07bd 82d6 ff3b
00000060: f98d 9ebc d9ef 7fbd 66db 7b3d b801 223d
00000070: 0fdd 223d bc63 f5bc f51d 093d 630d 41bc
00000080: 011f 62bd 068a 23bd 681c 6c3c f4d5 f7bb
00000090: e5d1 9abc 5050 b7bc 9a3e a83c d9fa 113d
000000a0: a0f4 16bd 88e6 7cbc 87fa 673d 9ef3 36ba
000000b0: 7648 c3bc 4e28 07bd 789c 47bd 74e7 073c
000000c0: 1d7a 74bc 8143 03bd b999 02bd f777 573b
000000d0: 8d9b 1bbd a46a 57bd fc3d b63b 9d78 74bd
000000e0: 444d 4ab9 81fd c7bc be01 423d eac7 cfbc
000000f0: 3caa 91bc 3a86 833d 2a5c 20bc f365 de3b
00000100: e8a8 de3c 382c 513d 53f7 173c f82a 483d
00000110: db53 fd3c 17e3 e7bc da71 ed38 1382 073d
00000120: aa52 ce3b 2ccb 09bb 4ef3 323d 5f56 78bd
00000130: b45a 7bbd d532 5bbd a446 5f3d 9b6f 283c
00000140: 0589 46bd 4c84 5e3b a155 6abd 1c99 4dbd
00000150: 32a8 423d ac84 52bd 9e93 833c cb3e 803d
00000160: ded9 f83c 7fc3 1fbd 090d 203d a568 0c3d
00000170: a2dd 043d 86c7 933c df46 01bc f51d 3e3d
00000180: cdfe 5f3d 7724 503d 3eed edbc 2fea 363d
00000190: dc6a f6bc 609c 973c 819b 613d 7fcb a63c
000001a0: b4d1 c7bb 02de 363d 30a5 2b3c 7a2b 9abb
000001b0: 406d 76bb a08a 153d 1325 323d f537 c5bc
000001c0: dc48 4e3c d617 223d e0dd 113d 81da 863d
000001d0: efd4 16bd aa50 eabb e044 b3bc f797 453d
000001e0: de7f 04bd 5c96 6e3c 6ef0 18bd 0041 1e3d
000001f0: 219c ae3c 42ef 8f3c ebc8 6dbd 5cb6 52bd
00000200: be10 62bc 5b9b 4e3d 1565 453d b21e 40bd
00000210: 4b8c 3b3d 4c32 a13c de9e ef3c bdb1 203b
00000220: 9750 6a3d 23b9 2a3c 1701 6a3d d466 40bd
00000230: 0c31 233d c6bf 5f3d 4bad 283d 964b 083d
00000240: 1a27 34bc c7ed 61bd 0b6a c93c feac edbc
00000250: 9dee c13b 5992 783d 5537 39bd 25c9 8bbb
00000260: 54e7 1ebd 92bc a6bc f5ec b1bc b573 02bd
00000270: 4868 95bb 37ac afbc 55fb d3ba 82b2 cfbc
00000280: aee2 633d 5521 c8bc 8254 1fba 13a2 15bc
00000290: 8e8e ef3b af3e e63b 1932 a63c d8ae 6b3d
000002a0: dfe1 4d3c cf82 3abc 8593 213d 3a4b e4bc
000002b0: 92bd b6ba 4b35 ea3c e089 69bd dc3e 18bd
000002c0: df79 62bc d1ac 4e3d 5b70 293c e678 a83a
000002d0: 253f 27bd 5df1 74bd a727 f4bc 2eba 5c3d
000002e0: 5d50 99ba af2b 33bc 4c70 66bd c321 60bd
000002f0: c95c 83bc fbe8 683d 2d08 5d3d 8d6a 25bd
00000300: 5cfa f3bb 7043 2f3c 4134 b53a 1d4c 55bd
00000310: 77ee 26bd e089 55bc 08c6 7c3c 2869 2fbd
00000320: 0548 47bc 7bfa 3e3c b6f0 ba3c 9751 43bc
00000330: f672 5f3d 953d f13b c8ab 2a3d 010a 1dbd
00000340: 7baf 763d 47e6 05bd cc2e 973c 33ef a5bc
00000350: 79b4 43bc 13e9 fb3c 1d7c 6d3c f207 15bd
00000360: 7576 313d 53a6 b7ba 1dee 6abd bc56 86bc
00000370: 05db 2a3c a756 7bbc 1bdf 96bb b97e d73c
00000380: 3cde 33bd 9f96 28bd 3a11 193d b56d 283d
00000390: b85e 683c 8d1a 1cbb 88c4 61bd 82a9 593d
000003a0: 8042 6c3d 919f 57bd c69e 92bc a02d 7dbb
000003b0: fc7d debc a662 33bc f9fe 86bb e774 0b3c
000003c0: f56a d03b b2f1 e4bb 93ea c9bc 63e6 13bd
000003d0: 0495 4dbd 53ce b53b 1593 d93c ff13 81bd
000003e0: 0f6a 793d 5815 3a3d 13bd 52bd d4cf 64bd
000003f0: 9e1d 5fbd 1214 e5bb abba 02bd f6e3 9bbc

encoder.critic_encoder.net.mlp.0.weight f4 [256, 8]
0.22588128 -0.079806924 -0.3017449 0.31516182 0.22929357 -0.07066817 -0.20435971 0.17566694
0.32373127 -0.26333085 -0.05226736 0.24485914 -0.34900957 0.11709545 0.24024327 0.15735525
0.041338567 0.10092438 0.15914394 -0.07007251 0.22228417 -0.07602811 -0.14708455 0.08923679
-0.032784335 0.22334589 0.19663693 0.16909683 -0.24196763 -0.23396365 0.1769144 0.15009339
0.21873291 -0.0963385 0.24092528 -0.22869895 0.2675998 0.038011134 -0.052159738 -0.03551116
0.22924165 -0.09825556 0.08378225 -0.22089423 -0.15389027 0.1661556 0.14720757 -0.23562048
0.027049497 -0.20837736 -0.18170038 0.19027212 0.10024625 0.051202923 -0.008442231 -0.3117953
0.026227057 0.22988944 -0.2176816 0.28187487 -0.14062035 0.34392223 0.028190171 0.2301258
0.2542488 0.13180263 -0.21109733 -0.20245863 -0.13831185 0.18336044 -0.18904601 -0.13255246
-0.3034557 -0.2966768 0.0243087 0.24180093 0.3512732 0.296504 0.039494 0.3082999
-0.18844841 -0.11211132 -0.32733655 -0.006391363 -0.15278241 -0.03376261 -0.041477308 0.23165601
-0.2504766 -0.098232456 0.1663798 -0.1399794 0.16970766 0.08135006 -0.21141687 0.0933485
0.107719146 -0.31815296 -0.15515694 0.27003676 0.07068707 -0.2696512 0.24958296 0.19843365
-0.031419296 0.12490635 0.167598 -0.027110413 0.2736851 0.29468894 0.109318174 0.13270622
-0.065172054 0.34159377 0.042711042 -0.31295964 -0.26432905 0.31895438 0.26697552 -0.072729535
-0.101278506 0.11733062 -0.05972103 0.24164201 0.07298788 -0.06494341 -0.33654156 -0.124318704
0.10698223 -0.1895721 -0.073900335 -0.076583624 -0.12704328 -0.21997325 0.20163335 -0.27912495
0.25964287 -0.0089756 0.16131388 -0.05980058 0.17529249 -0.2619081 0.1291324 0.00039923846
0.30538622 -0.2658934 -0.19332105 -0.15444748 0.30488208 -0.2027408 0.30404106 -0.025727112
-0.100792035 0.32353106 0.25115862 -0.038033538 -0.16825327 -0.03925325 -0.2599109 -0.19462779
0.09540803 0.18978739 -0.18127403 -0.2040203 -0.30534032 -0.078505516 0.11856255 -0.117984384
0.3095015 0.11501184 0.08829169 0.28783682 -0.2428807 0.07873974 -0.09733481 0.10245013
0.076808766 -0.16215469 0.01127906 -0.07558738 -0.28806236 -0.030839236 0.117486455 0.0709259
-0.09026704 0.12612946 0.021895371 0.33378783 0.024947774 0.26103318 -0.038215432 -0.08257195
0.20520997 0.10883188 -0.03568894 0.2333485 -0.097181946 0.22264326 0.13417272 -0.16597416
-0.28514066 -0.22618604 0.15762416 0.086306155 -0.27473864 -0.20165265 0.114161074 0.14718147
0.29485092 -0.12442145 0.16568053 0.011693071 -0.13525963 0.056346003 -0.024307746 -0.015279919
-0.1659009 0.32226562 0.27894238 0.10461163 0.1436988 -0.2503619 -0.32894424 -0.34772444
0.31358832 0.30351815 -0.08145887 0.3429959 -0.2118883 0.24303325 -0.24144483 0.14081725
0.19825093 0.19668855 0.28949553 0.17770371 0.25556627 0.19593905 0.06349309 -0.2300726
0.24540484 0.112775914 -0.023086352 -0.19539246 -0.22782154 0.13167194 0.15445551 0.19765195
0.29616597 0.002300965 0.34489644 0.31237894 -0.024671964 0.1834989 -0.09833909 0.17351225
00000000: 6c4d 673e d071 a3bd 4f7e 9abe e45c a13e
00000010: efcb 6a3e 79ba 90bd ac43 51be 09e2 333e
00000020: 1bc0 a53e 4dd3 86be 4d16 56bd 5bbc 7a3e
00000030: 62b1 b2be bdcf ef3d 5502 763e bc21 213e
00000040: a152 293d 71b1 ce3d a1f6 223e 2d82 8fbd
00000050: 769e 633e a0b4 9bbd 559d 16be c7c1 b63d
00000060: de48 06bd c9b4 643e 315b 493e b827 2d3e
00000070: 5dc6 77be 2b94 6fbe 0c29 353e 15b2 193e
00000080: 85fb 5f3e 1f4d c5bd 1eb5 763e 0f30 6abe
00000090: d702 893e 90b1 1b3d 73a5 55bd 2674 11bd
000000a0: 53be 6a3e 363a c9bd 0796 ab3d 1932 62be
000000b0: 6995 1dbe b224 2a3e 95bd 163e 7f46 71be
000000c0: e896 dd3c e060 55be aa0f 3abe b2d6 423e
000000d0: e84d cd3d 28ba 513d 4951 0abc a2a3 9fbe
000000e0: 20da d63c 2368 6b3e ede7 5ebe e751 903e
000000f0: c8fe 0fbe 9316 b03e 13ef e63c 19a6 6b3e
00000100: e62c 823e 45f7 063e e629 58be 5151 4fbe
00000110: 9fa1 0dbe d7c2 3b3e 4795 41be d5bb 07be
00000120: 8c5e 9bbe 06e6 97be 0a23 c73c aa9a 773e
00000130: 15da b33e 5fcf 973e 76c4 213d 7cd9 9d3e
00000140: 9ff8 40be 9f9a e5bd a898 a7be a46e d1bb
00000150: fe72 1cbe aa4a 0abd 1ce4 29bd 3c37 6d3e
00000160: 783e 80be 192e c9bd 775f 2a3e c356 0fbe
00000170: d8c7 2d3e dc9a a63d aa7d 58be 802d bf3d
00000180: db9b dc3d f2e4 a2be 76e1 1ebe 4242 8a3e
00000190: 62c4 903d b90f 8abe ad92 7f3e 3132 4b3e
000001a0: 85b1 00bd e7ce ff3d cf9e 2b3e a816 debc
000001b0: 7420 8c3e 78e1 963e 35e2 df3d 24e4 073e
000001c0: ed78 85bd 61e5 ae3e c6f1 2e3d 3f3c a0be
000001d0: 2356 87be fd4d a33e 04b1 883e 39f3 94bd
000001e0: 1b6b cfbd 094b f03d 0a9e 74bd 0171 773e
000001f0: ab7a 953d 0d01 85bd 2d4f acbe ce9a febd
00000200: 8019 db3d 301f 42be 0f59 97bd e0d7 9cbd
00000210: a217 02be ab40 61be f978 4e3e 77e9 8ebe
00000220: e9ef 843e 650e 13bc 772f 253e 74f1 74bd
00000230: e07f 333e d218 86be 493b 043e e150 d139
00000240: 955b 9c3e 2e23 88be f4f5 45be 7b27 1ebe
00000250: 8119 9c3e 499b 4fbe 45ab 9b3e aac1 d2bc
00000260: 0e6c cebd dda5 a53e dd97 803e 0ec9 1bbd
00000270: 964a 2cbe 04c8 20bd 0b13 85be 824c 47be
00000280: 4965 c33d a057 423e e69f 39be b3ea 50be
00000290: 9155 9cbe 80c7 a0bd ecd0 f23d cca1 f1bd
000002a0: fb76 9e3e 548b eb3d 46d2 b43d 595f 933e
000002b0: b8b5 78be 4d42 a13d 7957 c7bd 60d1 d13d
000002c0: ea4d 9d3d e10b 26be cecb 383c 8ecd 9abd
000002d0: e97c 93be 91a2 fcbc bd9c f03d 9941 913d
000002e0: eddd b8bd 1528 013e ec5d b33c 3de6 aa3e
000002f0: 465f cc3c 24a6 853e c987 1cbd 7c1b a9bd
00000300: 9022 523e 40e3 de3d 912e 12bd e9f2 6e3e
00000310: 5407 c7bd 98fc 633e 9364 093e 21f5 29be
00000320: f5fd 91be 509d 67be 3a68 213e 48c1 b03d
00000330: 8baa 8cbe 087e 4ebe 48cd e93d bdb6 163e
00000340: b3f6 963e acd0 febd 28a8 293e 4b94 3f3c
00000350: 8081 0abe 11cb 663d 0a21 c7bc a058 7abc
00000360: ede1 29be 0000 a53e 89d1 8e3e 9f3e d63d
00000370: c725 133e 6f2f 80be 616b a8be f008 b2be
00000380: a68e a03e bb66 9b3e e8d3 a6bd 299d af3e
00000390: 3ff9 58be b5dd 783e 503d 77be 6632 103e
000003a0: 4b02 4b3e b968 493e c238 943e f6f7 353e
000003b0: 95d9 823e 3fa4 483e aa08 823d 2798 6bbe
000003c0: 684b 7b3e 0ff7 e63d 971f bdbc f614 48be
000003d0: 0d4a 69be 02d5 063e 9629 1e3e 4665 4a3e
000003e0: 11a3 973e c9cb 163b 4496 b03e 22f0 9f3e
000003f0: dc1c cabc 23e7 3b3e 0166 c9bd 32ad 313e

encoder.critic_encoder.net.mlp.0.bias f4 [256]
0.15755564 0.21974076 0.121578805 0.26638362 -0.08792996 0.057298567 -0.119122945 -0.3505611
-0.053442523 -0.036691446 0.08370462 0.16414732 -0.2850785 -0.12985428 -0.33913267 -0.27207136
-0.087986834 0.17944768 0.24174663 -0.34605983 -0.24341269 0.034644086 -0.086003415 -0.2402947
0.12611255 -0.14333986 -0.199553 -0.24414253 0.09780609 -0.34460962 -0.29608795 -0.2542884
-0.18226953 0.13204473 -0.14991337 0.30144617 -0.34762785 0.3451126 -0.03475998 -0.050543204
8.35772e-05 -0.15945683 -0.18577622 -0.16841805 0.2850628 -0.010584633 0.18330877 -0.05859949
0.2774323 -0.228612 0.07616809 -0.11392292 -0.102556475 0.339111 0.037206937 -0.30093372
0.25306514 0.16566615 -0.21389954 -0.089703545 -0.07058276 -0.25809127 0.27546036 -0.13372992
0.05408674 -0.047962446 0.02014299 -0.29532248 0.06911008 -0.04873343 0.088028766 -0.2756765
0.14593706 -0.1497175 -0.20606096 -0.26995575 -0.16141799 0.25945672 0.0961917 0.11942254
0.10607883 -0.050969783 -0.0048004836 0.3263931 0.21744624 0.29756647 -0.045429327 0.24306707
-0.21560784 0.29359204 0.020957682 0.20682617 0.18461065 0.19185565 -0.071986526 0.14278539
-0.051719043 -0.27441055 0.11900845 -0.2744427 -0.04537278 0.17282711 0.03925554 0.21714187
-0.19824111 0.27356035 -0.22814336 -0.021874003 0.03833416 0.18373777 -0.22906163 -0.17460653
0.23335652 0.12238363 -0.29810712 0.15925431 -0.24073207 0.03234771 -0.06721079 -0.17957452
0.21711074 -0.32669497 0.09652564 -0.27680823 0.326138 0.117048115 -0.27587733 -0.010765082
0.19924226 -0.16920787 -0.07657456 -0.0044375816 -0.032341763 0.1887797 0.3533667 -0.07172374
-0.06451471 -0.15551443 -0.03237089 0.065728866 0.078922525 0.17769568 -0.1530406 0.2750228
0.15942353 0.13451211 -0.21898204 0.31769687 0.3376062 -0.20889738 -0.14529003 0.10125337
-0.24355812 -0.1643805 0.25577188 0.18011937 0.015039501 0.10324089 0.12235941 -0.28159353
-0.10646112 0.092691876 -0.30829546 -0.13158822 0.29028708 0.0023702544 -0.31455714 -0.32445937
-0.08333511 0.0733838 0.1478571 0.0072539803 0.29025456 -0.08616252 -0.12349238 0.18296053
-0.23853882 -0.08307679 0.3360201 -0.28047958 -0.059574995 -0.11723429 -0.1173616 -0.112077065
0.27050555 -0.26906952 0.35158122 0.104315095 0.34617612 0.25211108 -0.18604553 0.12172605
-0.29476875 -0.29810286 0.18851544 -0.29395398 -0.29239708 -0.09718944 0.09024365 0.20201266
0.1559638 0.32592848 0.058155466 -0.24635948 0.081857584 -0.25507772 0.13762695 0.083401404
0.22331701 -0.10329379 0.08839467 0.3031716 0.22592005 -0.12444472 0.26664266 -0.03585347
-0.22431779 0.29098693 -0.21730004 0.2308853 0.19882114 0.12725267 -0.16097957 -0.25584194
-0.22309545 -0.21777578 -0.31331116 0.047191616 0.108114354 -0.19268979 0.10110505 0.32265186
-0.35046953 -0.22886096 -0.35312787 0.08201335 -0.020938197 -0.109439224 0.11998926 0.13542962
-0.04970344 0.0763489 -0.19343054 -0.12730998 -0.111536235 -0.123490304 0.16871479 0.241781
-0.16954045 -0.07135233 0.22685044 -0.25172403 0.17853951 0.07643499 -0.28182903 0.014797463
00000000: 4456 213e b903 613e 4ffe f83d 6f63 883e
00000010: 9f14 b4bd e7b1 6a3d bbf6 f3bd bf7c b3be
00000020: 8ce6 5abd c549 16bd 546d ab3d 3c16 283e
00000030: cff5 91be 85f8 04be cca2 adbe f04c 8bbe
00000040: 7132 b4bd 22c1 373e 6e8c 773e c12e b1be
00000050: 2d41 79be f5e6 0d3d 8f22 b0bd d00f 76be
00000060: a623 013e afc7 12be 9f57 4cbe 8000 7abe
00000070: 8f4e c83d ac70 b0be d798 97be 1732 82be
00000080: dda4 3abe bc36 073e e482 19be 2757 9a3e
00000090: 47fc b1be 99b2 b03e 7b60 0ebd 6406 4fbd
000000a0: 2b46 af38 a748 23be 1f3c 3ebe c875 2cbe
000000b0: c0f3 913e 2b6b 2dbc 4bb5 3b3e 0506 70bd
000000c0: 9b0b 8e3e 4419 6abe 04fe 9b3d 6b50 e9bd
000000d0: 2109 d2bd f59f ad3e 4d66 183d fc13 9abe
000000e0: c191 813e 63a4 293e 7b08 5bbe 7eb6 b7bd
000000f0: b28d 90bd 8a24 84be 2409 8d3e 7ff0 08be
00000100: 0f8a 5d3d 4574 44bd e902 a53c 8234 97be
00000110: 9689 8d3d b59c 47bd 6d48 b43d 7825 8dbe
00000120: 8670 153e 8b4f 19be a501 53be a437 8abe
00000130: c24a 25be 83d7 843e 2700 c53d ce93 f43d
00000140: dc3f d93d b1c5 50bd 604d 9dbb ff1c a73e
00000150: 3aaa 5e3e a25a 983e 1a14 3abd 93e6 783e
00000160: 4dc8 5cbe b251 963e 72af ab3c 3dca 533e
00000170: 930a 3d3e cf75 443e ac6d 93bd 5536 123e
00000180: 59d7 53bd 8a7f 8cbe b4ba f33d c183 8cbe
00000190: cfd8 39bd 97f9 303e 6bca 203d 705a 5e3e
000001a0: b8ff 4abe 1a10 8c3e 6a9e 69be 1c31 b3bc
000001b0: 4804 1d3d c125 3c3e 228f 6abe 0ecc 32be
000001c0: 03f5 6e3e 45a4 fa3d 7fa1 98be 9013 233e
000001d0: 7882 76be 087f 043d d0a5 89bd 62e2 37be
000001e0: 4752 5e3e 9044 a7be 3caf c53d cfb9 8dbe
000001f0: 8ffb a63e ecb6 ef3d cb3f 8dbe 0760 30bc
00000200: 2a06 4c3e d444 2dbe 1fd3 9cbd 2269 91bb
00000210: cc78 04bd 774f 413e 7bec b43e e5e3 92bd
00000220: 4a20 84bd 2d3f 1fbe 5797 04bd db9c 863d
00000230: 22a2 a13d dbf5 353e adb6 1cbe cacf 8c3e
00000240: ec3f 233e 8bbd 093e d43c 60be 2aa9 a23e
00000250: b8da ac3e 32e9 55be e9c6 14be ed5d cf3d
00000260: 4d67 79be 5d53 28be 88f4 823e 3671 383e
00000270: 3d68 763c f66f d33d 9297 fa3d 072d 90be
00000280: 4a08 dabd 3dd5 bd3d e7d8 9dbe 10bf 06be
00000290: 82a0 943e 4556 1b3b a20d a1be 8a1f a6be
000002a0: 99ab aabd 3f4a 963d da67 173e ccb2 ed3b
000002b0: 3f9c 943e fa75 b0bd 93e9 fcbd 015a 3b3e
000002c0: 8543 74be 2a24 aabd d40a ac3e 059b 8fbe
000002d0: e904 74bd 8818 f0bd 475b f0bd a988 e5bd
000002e0: b47f 8a3e 7bc3 89be 7402 b43e 27a3 d53d
000002f0: ff3d b13e b414 813e b882 3ebe 824b f93d
00000300: eeeb 96be f0a0 98be 310a 413e 2381 96be
00000310: 12b5 95be 420b c7bd aad1 b83d 68dc 4e3e
00000320: f9b4 1f3e 19e0 a63e 6d34 6e3d a945 7cbe
00000330: f3a4 a73d 8c99 82be 14ee 0c3e 5bce aa3d
00000340: 37ad 643e b28b d3bd 4408 b53d 4f39 9b3e
00000350: 9657 673e e0dc febd 6385 883e 17db 12bd
00000360: 90b3 65be 3dfc 943e e783 5ebe 326d 6c3e
00000370: c597 4b3e 864e 023e d4d7 24be b7fd 82be
00000380: 2273 64be 9d00 5fbe 526a a0be ff4b 413d
00000390: 0f6b dd3d 7950 45be 2a10 cf3d a032 a53e
000003a0: be70 b3be 875a 6abe 2dcd b4be 9ef6 a73d
000003b0: 9586 abbc ac21 e0bd eebc f53d 10ae 0a3e
000003c0: d695 4bbd d05c 9c3d a812 46be 8c5d 02be
000003d0: 1c6d e4bd 7ce8 fcbd 92c3 2c3e 7095 773e
000003e0: 039c 2dbe 2c21 92bd 7b4b 683e f9e1 80be
000003f0: 10d3 363e f389 9c3d e54b 90be 0f71 723c

encoder.critic_encoder.net.mlp.2.weight f4 [256, 256]
-0.0253357 0.012226969 0.011516949 -0.041165087 -0.00784574 0.054627784 0.031802062 -0.028704103
-0.021979695 0.053771827 0.045798156 0.016512703 0.022069741 -0.021379221 -0.0069289426 0.055033248
-0.042600695 0.018183095 -0.052941553 -0.06005595 -0.01268547 -0.052657958 -0.0489122 -0.0019569679
-0.004777896 -0.03257922 0.0035437157 -0.0044335085 0.05380151 -0.0543325 0.02839139 -0.049144026
0.049396176 -0.013356216 -0.0009378605 -0.0070627155 0.01899837 -0.018420512 -0.04908136 -0.031359226
0.012453556 0.010999362 0.026050065 0.047920562 0.041814774 -0.029861372 -0.05828779 -0.052706182
-0.046507377 0.00833601 0.0069758142 -0.005910268 -0.0057795 0.035947707 0.049389992 -0.01268892
-0.013539755 0.0029670387 -0.041509423 0.026115645 -0.0024561367 -0.03634503 0.004109216 0.045956112
0.02768361 0.04725583 -0.050687145 0.04903658 0.015239235 0.051623266 -0.060241695 0.011091976
0.05195405 0.05534212 -0.047822054 -0.039189916 0.015597234 0.04973165 -0.055403803 -0.030718135
-0.03446066 0.052721705 -0.026370827 0.012120663 0.021910094 -0.006971784 -0.062187523 0.028574388
-0.010653806 0.06153349 0.008291345 -0.010773478 0.04439756 -0.038196202 -0.013822042 -0.057685703
-0.016962035 0.042296007 0.026465835 0.03388637 0.00786614 0.042873487 -0.042762693 -0.05487479
-0.05513839 0.058902364 0.025886226 0.056219283 -0.05888768 -0.042503502 0.01371439 0.016990548
-0.05457268 -0.009813098 0.02027356 0.050014254 -0.04569717 -0.0011057835 -0.017566811 4.9146797e-06
-0.04084703 -0.02792487 -0.0071615637 -0.023678578 0.041554492 -0.008444561 0.045539465 0.01605439
0.026735898 -0.0055076894 -0.017022738 -0.051695995 0.0019609765 0.031842407 -0.022208605 -0.042554606
-0.005194734 0.008974506 -0.03760232 0.03027487 -0.040380344 0.0049357736 0.002773067 0.03432659
0.049503196 -0.002216578 0.004335117 0.0136432545 0.04444673 -0.004258077 -0.0589556 0.027615631
0.062413074 -0.048309814 -0.034820706 0.01942406 -0.049342673 0.013269924 -0.058686 -0.048623998
-0.012010664 0.03343616 0.007944253 0.016590182 -0.031322088 -0.035361137 0.016551565 0.015135675
0.023820411 0.04389588 0.016377252 0.0211591 0.028615955 -0.04732276 0.0022275534 -0.0023134223
-0.002014083 0.046477854 -0.015409797 -0.029582324 -0.011741391 0.0336704 0.02796062 0.0013103578
-0.04405718 0.03701034 0.05158909 0.0318978 -0.021095667 -0.05719888 0.028781606 0.004481261
0.060911875 0.01001557 0.057209 0.011055594 0.05632628 -0.004927865 -0.050494675 -0.009359926
0.04976689 -0.045969237 0.037051413 0.02024877 -0.05734132 0.027685205 -0.010824792 -0.059867267
-0.04838727 -0.01331526 0.030902388 0.040788066 -0.04627287 -0.036732893 -0.041258182 -0.003796735
-0.0026431475 -0.02687807 0.029908724 -0.058329586 0.007771958 0.0015613211 -0.018327422 -0.04352093
0.023166355 0.013403303 -0.020856712 0.01509495 -0.040573362 0.043516703 -0.0016711622 0.05700423
0.0075872415 -0.013994858 -0.056861807 0.007784213 0.024576716 -0.05222902 -0.03187468 0.005593859
0.010169335 0.0022961744 0.035996936 -0.0618088 0.061441895 -0.054408576 -0.046923894 0.041817
0.021382423 0.061284553 -0.023755288 0.037782703 -0.029958878 -0.051332165 -0.013076658 0.0460323
00000000: d08c cfbc a053 483c 96b1 3c3c b99c 28bd
00000010: 6b8b 00bc 62c1 5f3d e142 023d de24 ebbc
00000020: c30e b4bc d93f 5c3d d996 3b3d a645 873c
00000030: 9acb b43c 7a23 afbc 2f0c e3bb 8b6a 613d
00000040: 117e 2ebd b7f4 943c 3ed9 58bd 3afd 75bd
00000050: b8d6 4fbc dfaf 57bd 2958 48bd 7940 00bb
00000060: e68f 9cbb ca71 05bd af3d 683b f746 91bb
00000070: f95e 5c3d c18b 5ebd 0f95 e83c 3f4b 49bd
00000080: a553 4a3d 08d4 5abc c1da 75ba 5a6e e7bb
00000090: 78a2 9b3c 9de6 96bc 8909 49bd 8872 00bd
000000a0: 000a 4c3c ab36 343c f266 d53c 5a48 443d
000000b0: f845 2b3d d69f f4bc 2dbf 6ebd 70e2 57bd
000000c0: 857e 3ebd c393 083c 5f95 e43b ecaa c1bb
000000d0: f661 bdbb e73d 133d 294d 4a3d 30e5 4fbc
000000e0: d9d5 5dbc a672 423b c905 2abd 7af0 d53c
000000f0: 23f7 20bb 87de 14bd 9aa6 863b 7a3c 3c3d
00000100: bdc8 e23c 548f 413d 539d 4fbd 95da 483d
00000110: fcad 793c eb72 533d ffbf 76bd 1fbb 353c
00000120: c5cd 543d 6bae 623d 0fe1 43bd 9b85 20bd
00000130: 8a8b 7f3c 6ab3 4b3d 19ef 62bd 99a4 fbbc
00000140: 9f26 0dbd b7f2 573d a207 d8bc bf95 463c
00000150: cc7c b33c 9073 e4bb 58b8 7ebd d614 ea3c
00000160: 4d8d 2ebc 8a0a 7c3d 6cd8 073c 3e83 30bc
00000170: 37da 353d 9f73 1cbd d975 62bc d847 6cbd
00000180: f7f3 8abc 943e 2d3d e1ce d83c 6fcc 0a3d
00000190: fce0 003c 1c9c 2f3d ef27 2fbd 63c4 60bd
000001a0: cbd8 61bd 9b43 713d 5a0f d43c 3146 663d
000001b0: 3534 71bd 2718 2ebd 52b2 603c c32f 8b3c
000001c0: 9a87 5fbd 1ec7 20bc bd14 a63c bfdb 4c3d
000001d0: f52c 3bbd f0ef 90ba 46e8 8fbc c7e8 a436
000001e0: 374f 27bd b2c2 e4bc 8dab eabb 94f9 c1bc
000001f0: 0b35 2a3d 0e5b 0abc 9787 3a3d 7f84 833c
00000200: 3e05 db3c d979 b4bb 4573 8bbc 2ebf 53bd
00000210: ba83 003b 2f6d 023d d2ee b5bc bd4d 2ebd
00000220: 9638 aabb ce09 133c e404 1abd 0103 f83c
00000230: dc65 25bd 45bc a13b 58bc 353b 0a9a 0c3d
00000240: ddc3 4a3d 0244 11bb 990d 8e3b f587 5f3c
00000250: c60d 363d 5787 8bbb 6d7b 71bd 2d3a e23c
00000260: daa4 7f3d 83e0 45bd 28a0 0ebd 351f 9f3c
00000270: 8b1b 4abd 186a 593c bb60 70bd f529 47bd
00000280: 60c8 44bc 5bf4 083d 9d28 023c 22e8 873c
00000290: 974b 00bd d7d6 10bd 2697 873c 9ffb 773c
000002a0: 0623 c33c 2bcc 333d 9629 863c d955 ad3c
000002b0: 026c ea3c 83d5 41bd 25fc 113b c99c 17bb
000002c0: b5fe 03bb 905f 3e3d 6079 7cbc a156 f2bc
000002d0: f75e 40bc f9e9 093d ac0d e53c 50c0 ab3a
000002e0: 4d75 34bd 2798 173d 154f 533d 44a7 023d
000002f0: d2d0 acbc 5f49 6abd 67c7 eb3c 8bd7 923b
00000300: bb7e 793d 5818 243c fc53 6a3d 8622 353c
00000310: 63b6 663d ee79 a1bb 81d3 4ebd 605a 19bc
00000320: 5ed8 4b3d 3d4a 3cbd 39c3 173d c0e0 a53c
00000330: bbde 6abd 15cc e23c 785a 31bc 6137 75bd
00000340: bb31 46bd 4028 5abc 0127 fd3c 6311 273d
00000350: 9f88 3dbd 3b75 16bd 57fe 28bd a5d2 78bb
00000360: a838 2dbb 662f dcbc 2403 f53c 01eb 6ebd
00000370: e9ab fe3b 3ea5 cc3a 6423 96bc 0143 32bd
00000380: 5ec7 bd3c 8799 5b3c b2db aabc cf50 773c
00000390: 4130 26bd 923e 323d e60a dbba 447d 693d
000003a0: 659e f83b b04a 65bc ede7 68bd b612 ff3b
000003b0: 1c55 c93c 19ee 55bd 068f 02bd b14c b73b
000003c0: 489d 263c 6a7b 163b 8671 133d 392b 7dbd
000003d0: 7faa 7b3d 87db 5ebd 4533 40bd 4d48 2b3d
000003e0: 312a af3c 8305 7b3d 739a c2bc 09c2 1a3d
000003f0: 526c f5bc ad41 52bd 7b3f 56bc 5d8c 3c3d
