results/PokerCheckpoints/PPO_CardGameEnv_2b391_00000_0_2024-05-12_16-27-16/checkpoint_000001/learner/module_state/default_policy/module_state_dir/module_state.pt (torch, 815815 bytes, 11 tensors)

encoder.actor_encoder.net.mlp.0.weight f4 [256, 8]
000000 e4 1a 95 3e 94 f4 0a bb ef a5 94 bd fb 35 54 3d
       0.29122078 -0.0021202909 -0.07258212 0.051809292
000010 5e d8 ce 3c 6a a3 0c be f1 cc 4a 3d 24 87 62 3d
       0.025249656 -0.13734213 0.049511854 0.05530466
000020 8a 1f 78 bd 47 5f 19 3c 2c cc d8 bd ea ef 39 3e
       -0.060576953 0.009361095 -0.10585818 0.18157926
000030 39 de 55 3e dc 51 72 3e 3f ab e0 3c c7 38 62 3c
       0.20885552 0.2366404 0.027425407 0.013807482
000040 b4 c1 bd bd f2 98 15 3e db d6 91 3e f7 3a 16 3e
       -0.092654616 0.14609125 0.28484234 0.14670931
000050 fe ea 91 be 8a 2a 8f 3c d3 4b 23 3e 9b df 88 be
       -0.28499597 0.017476339 0.15946893 -0.26733097
000060 48 63 26 3e bb e7 7b 3e c2 97 81 be a6 f6 7c 3e
       0.1624881 0.24600117 -0.25311095 0.24703464
000070 a0 89 bb be 68 2a 80 3e ed 20 07 3e 3a ca fb 3d
       -0.36628437 0.25032353 0.13196154 0.12294431
000080 d0 f9 24 be 0d 57 b6 3e ed 0c c2 3d 30 0c 64 be
       -0.16110921 0.3561329 0.09475122 -0.22270274
000090 9b ce 88 3e 1d 0c 1d be 24 99 07 3e 2b 56 b4 be
       0.26720127 -0.15336652 0.13242012 -0.3522199
0000a0 63 3a 3b 3e 3d 7c 40 be 7a c5 74 be 30 36 51 bd
       0.18283992 -0.18797393 -0.23903456 -0.051077068
0000b0 5c 61 aa 3e 98 77 1a bb 0c cb 25 3e b1 1c a3 3d
       0.33277404 -0.0023569819 0.16190737 0.07964457
0000c0 f2 d2 62 3d 83 50 38 3e 73 72 1d 3e a5 1a 9a be
       0.055376954 0.17999463 0.1537569 -0.30098453
0000d0 7c 27 87 3e 9c d1 bd 39 13 6d 72 be a6 a9 96 be
       0.26397312 0.0003620506 -0.23674421 -0.29426306
0000e0 2b f2 91 3d f8 ca cc bc 6b d0 c5 3b f3 0e ad be
       0.07126268 -0.024999127 0.0060368082 -0.33800468
0000f0 26 76 17 3c fb 6d 0c 3e df 90 89 3e 89 92 cb 3d
       0.009244477 0.13713829 0.2686834 0.09940059
000100 22 c7 05 be b9 39 7b be 76 da 89 3e ad 56 83 be
       -0.13064244 -0.24533738 0.26924485 -0.25652066
000110 64 f9 2c 3e 1a 41 71 be 81 08 78 be 33 11 9b 3e
       0.1689201 -0.2355999 -0.24221994 0.3028656
000120 eb a9 8c be 32 33 85 3e 69 78 ef 3d 06 18 cc bc
       -0.27473387 0.2601562 0.11692888 -0.024913799
000130 39 22 98 be 2a e3 83 be 14 a8 d9 bd 20 33 a1 3e
       -0.2971361 -0.2575925 -0.106277615 0.31484318
000140 a0 ed 9c be 56 2f 9c be 7e 67 81 3d 9a e7 a2 3e
       -0.30650043 -0.30504864 0.06318568 0.31817323
000150 fe dc c1 3c 46 9c a7 3d ac 01 1d 3e 83 be 6b bd
       0.023664948 0.08184104 0.15332669 -0.057554733
000160 37 b9 6e 3e a2 3b b0 3e cf c8 10 3e 7d bd bd bd
       0.23312841 0.34420496 0.14139102 -0.09264658
000170 24 1f c0 3c 11 ba 67 be 1f 79 3b 3e 3b ef 2b 3e
       0.023452349 -0.22629572 0.18307923 0.16790478
000180 30 bd 82 bd b4 15 9f be 87 60 84 be ae 42 33 3e
       -0.06383741 -0.31071246 -0.25854895 0.17505905
000190 8a 37 34 3d 48 53 54 3e 0e e1 8b 3c 4d ed d7 bd
       0.04399828 0.20734894 0.017075088 -0.105433084
0001a0 e3 34 51 3d d4 45 5c 3e ee f4 9e 3e cd 91 81 be
       0.051075827 0.21511012 0.31046242 -0.2530655
0001b0 f4 fb 19 bd 61 0f 8c be 90 01 17 be f1 b8 1a be
       -0.037593797 -0.27355483 -0.1474669 -0.15109612
0001c0 de 46 71 be f9 0f 44 be b3 50 b7 3e ef 8d 54 be
       -0.2356219 -0.19146718 0.35803756 -0.20757268
0001d0 00 3b a6 bc 7f da 48 be 4a 19 65 3e b6 40 4c 3e
       -0.020291805 -0.196146 0.22372928 0.1994656
0001e0 98 6e 91 be 1f 9a 1f be 8d 44 02 be af 52 01 be
       -0.2840469 -0.15586136 -0.12721463 -0.12629198
0001f0 b2 49 31 3e 9d 3c e5 3d dd b1 e8 bd 9f e1 35 be
       0.17313269 0.11193202 -0.1136205 -0.17761849
000200 b7 d2 b4 3e f5 5e bc 3d f6 24 ae be 16 53 1f be
       0.35317013 0.09197799 -0.34012574 -0.15559039
000210 45 25 96 be e0 aa 11 be 64 72 a0 be 18 e0 a6 3e
       -0.2932531 -0.1422534 -0.31337273 0.32592845
000220 1e 5a 6e 3d 04 34 36 3d 89 e9 5a be 81 54 42 3d
       0.05819141 0.0444832 -0.21378149 0.04744387
000230 9f ca 16 bd 99 42 04 3e af 05 94 be 67 71 5f 3e
       -0.03681433 0.1291603 -0.28910586 0.21820603
000240 e7 36 b0 3e 83 17 b9 be 68 91 8d 3e 88 a9 95 be
       0.34416887 -0.3615075 0.2765 -0.29230905
000250 cc 6b 80 be 78 6d 66 3e 8e 1d 95 3e 1d 75 6e 3e
       -0.25082242 0.22502697 0.2912411 0.23286863
000260 fc f2 0b 3c 9b 4d 9d be 5c 7d 68 3e 45 7f 89 3e
       0.008541819 -0.3072327 0.22704071 0.2685491
000270 ff b9 fc bc f1 e4 27 3e ab 2c 7e 3e d1 90 93 be
       -0.030850409 0.16395928 0.24821727 -0.28821424
000280 e4 7b 9f 3d 7c 5c 8e 3e 10 fc b6 3d ed e0 1c bd
       0.07787302 0.27804935 0.08934796 -0.038300443
000290 63 22 1c 3e e4 04 d0 3d 4c 32 8e be e3 56 63 3e
       0.15247492 0.10157183 -0.27772748 0.22201113
0002a0 22 5a 45 be a7 03 9d 3e 52 c1 5d bd 6f cd de bd
       -0.19272664 0.3066685 -0.054139443 -0.10879027
0002b0 d9 0f ae 3e 56 d3 81 be 6f 0a 25 be 65 38 15 be
       0.33996466 -0.2535655 -0.16117261 -0.14572294
0002c0 f6 ad a2 b9 26 fe e5 3d 34 88 d7 bd 7a 75 59 3e
       -0.0003102866 0.112301156 -0.105240256 0.2123622
0002d0 7f f5 9e 3e dd 27 29 3e 0d 54 c4 3c df 00 21 3e
       0.31046674 0.16519113 0.02396586 0.15722989
0002e0 db 85 3b be a5 67 1a be bb 05 22 3e ee 98 53 3e
       -0.1831278 -0.150786 0.15822499 0.20663807
0002f0 a4 4e b6 3b ae fb b5 3c 51 d6 ad be a3 ea 01 be
       0.005563574 0.022214737 -0.33952573 -0.12687163
000300 4f 05 a2 be f1 fc a5 be 10 fd 88 3e d8 fa 4f 3e
       -0.31644675 -0.3241954 0.2675557 0.20310533
000310 89 19 4e be 33 ec 93 3e 71 81 55 3d 40 cc b6 bc
       -0.20126928 0.28891143 0.052125398 -0.02231419
000320 b6 09 50 bc e5 74 72 3e ca ca 05 3e ca a5 83 3c
       -0.012697628 0.23677404 0.13065639 0.016070265
000330 35 28 b6 be 83 2d af 3c 9f 27 98 be ed af e3 3d
       -0.3557755 0.021384006 -0.29717728 0.111175396
000340 76 62 90 be de dc a7 3e 73 62 0e be d0 0b b6 be
       -0.2820012 0.32785696 -0.13904743 -0.35555887
000350 ad 17 73 be 56 86 ad 3e 66 d5 61 be 92 a3 58 be
       -0.237395 0.33891553 -0.22054061 -0.21156147
000360 c8 d4 8a 3e e3 cd 83 be a9 d6 88 3e 08 b9 89 be
       0.27115464 -0.25743017 0.26726273 -0.2689898
000370 16 6f 4e be 43 ca d3 bd 94 79 6c 3b ea d3 bb be
       -0.20159563 -0.10341313 0.0036083208 -0.36685115
000380 48 1f 18 be f5 40 84 3d 27 2e a9 3d f2 dd 97 be
       -0.14855683 0.06457702 0.08260756 -0.29661518
000390 3c 72 20 3e f0 58 7d 3d 25 09 65 3e d6 24 8b be
       0.15668577 0.061852396 0.2236677 -0.2717654
0003a0 76 ee af 3e d3 97 42 3e 53 0c 4a be d8 5b 7a bd
       0.3436162 0.19003229 -0.19731264 -0.061122745
0003b0 36 50 94 be 19 76 48 be 66 52 b6 bb e8 4d b5 bd
       -0.28967446 -0.195763 -0.005564022 -0.0885275
0003c0 66 de 1f 3e 3a 6b b6 3e b4 6a 46 be 3d b4 a5 3b
       0.15612182 0.35628682 -0.19376642 0.0050568865
0003d0 ff ab 89 3d 0c f9 2a 3d 06 c3 77 3e 40 f6 26 3d
       0.06722259 0.041741416 0.2419549 0.040762186
0003e0 c5 35 80 3e 3d 64 01 3e b0 02 84 3e 57 0f 37 be
       0.25041023 0.12635894 0.257833 -0.17876945
0003f0 cb cd a9 3e fc da 87 3c 83 96 a8 3e 25 a2 bf 3d
       0.3316482 0.016583912 0.3292733 0.093570985

encoder.actor_encoder.net.mlp.0.bias f4 [256]
000000 cb 56 8c be 2e 4f 5d 3e 09 3c 53 bd 4f 4d 11 3e
       -0.27409968 0.21612236 -0.051570926 0.14189647
000010 43 d2 72 3e 2b 05 99 be 46 50 0d 3c 23 c6 05 be
       0.23713021 -0.29886755 0.008625096 -0.13063864
000020 1b c9 eb bc 02 64 34 3e f5 07 db bd 59 01 f6 bd
       -0.028782418 0.17616275 -0.10694877 -0.12011976
000030 7d af 71 bd 6e 37 64 be ac da 30 be 64 6a 8d ba
       -0.05900525 -0.2228677 -0.17270917 -0.0010789153
000040 32 48 0a bd df 5b af be 93 87 03 be 1b cc 9d 3e
       -0.033760257 -0.3424978 -0.12844686 0.30819783
000050 ba fd 75 be a5 fe 5a bd ce 23 17 3d 8d 08 1f be
       -0.2402257 -0.053465504 0.03689938 -0.15530606
000060 e6 f8 89 be 42 69 a9 3d 77 1c 84 be 95 ef 93 be
       -0.26947707 0.082720295 -0.25802967 -0.28893724
000070 7b 56 51 3e 21 5d db 3d d2 fe 08 3e 18 30 b4 3d
       0.20443146 0.10711122 0.13378456 0.08798236
000080 cc f1 40 bd 51 dc 4f 3e 6f 12 89 bd 1e c9 e8 bd
       -0.047105595 0.20298888 -0.06692969 -0.11366485
000090 9d 76 95 3d 58 db 26 be 4b e6 87 be 44 d8 33 bd
       0.07298014 -0.1629461 -0.26542887 -0.04390742
0000a0 e9 b3 21 be d3 14 d4 bd 9c 60 6b 3e 7a f2 e9 bc
       -0.15791287 -0.103555344 0.22986072 -0.028558005
0000b0 f5 ed 49 be 95 b7 e1 bd a5 2a c3 bd 44 22 53 3d
       -0.1971968 -0.110213436 -0.09529618 0.05154635
0000c0 0e ce e6 3d a9 53 a7 3e 7c 02 35 3d 8f db 32 be
       0.112697706 0.32681015 0.044191822 -0.17466567
0000d0 5e d1 4a bc 95 84 a6 be 55 fd 22 be 82 bc 63 3c
       -0.012379019 -0.32523027 -0.15916951 0.013899924
0000e0 6e 9d 95 be 02 c8 11 be 5a 53 39 be 9e b9 13 be
       -0.29221672 -0.14236453 -0.18098202 -0.14426276
0000f0 55 1c f3 bd e4 94 09 3d 18 9e 72 3d 91 cd f9 3c
       -0.11870638 0.03358926 0.0592328 0.03049353
000100 19 ef 64 3c cd 47 0d bd 5a 4b f7 bd 41 ee f0 bd
       0.013973021 -0.034492303 -0.12074919 -0.11764193
000110 66 ef d5 3c a7 bb a8 3d 4d dd 1e be e2 43 21 3e
       0.02611513 0.08238917 -0.15514107 0.15748551
000120 73 55 6c 3e 95 2f 8c 3d 27 3f 15 be 3f 5a 8e 3e
       0.23079471 0.06845013 -0.14574872 0.27803227
000130 af 7f 1a 3e d0 ad 61 bd 3f 4e 8b be d2 5e 5d 3e
       0.1508777 -0.0550974 -0.27208135 0.21618202
000140 e9 95 8e 3d 8b 87 72 bd a7 3e 26 be d8 46 a2 be
       0.06962187 -0.059211295 -0.16234837 -0.31694674
000150 66 8b 43 bd d3 3e 81 be 27 66 81 3d 85 1d aa 3e
       -0.047740363 -0.25243244 0.06318312 0.33225647
000160 d8 57 b0 3e dd 19 f0 3d 91 d9 a6 3e 4c 57 32 3e
       0.3444202 0.11723683 0.32587865 0.17416114
000170 dc a9 56 bd 61 2b 8a bd f3 6f 1e bd fd 2d 23 be
       -0.052408084 -0.06746555 -0.03868098 -0.15935512
000180 76 9b c1 3d bc 8d 17 be c7 e3 48 bc 0f 8a 07 3d
       0.0945348 -0.14800161 -0.012261338 0.033090647
000190 b0 9d ef 3d 94 b6 e1 3d 77 47 24 be 46 a8 6d bc
       0.116999984 0.11021152 -0.16042887 -0.014505452
0001a0 15 a1 11 be 1f 86 d6 3b 00 c8 a8 3e f1 13 4c 3d
       -0.14221604 0.00654675 0.32965088 0.049823705
0001b0 79 61 8c be 45 b7 ad 3e 69 ba ae 3e 84 0d 5f 3e
       -0.27418116 0.33928886 0.34126595 0.217825
0001c0 de c4 94 3d 42 5d 9e bd b6 d4 8a be 5b 49 93 be
       0.07264112 -0.07732631 -0.2711541 -0.28766903
0001d0 bc 4c 62 be cc 38 08 be ae 5f ab be 48 de 15 be
       -0.22099584 -0.13302916 -0.33471435 -0.14635575
0001e0 07 cb a2 be 95 33 8b 3e e9 1a 43 3d 90 cf 2e be
       -0.31795523 0.2718779 0.047633085 -0.17071366
0001f0 5d f3 62 3e 63 e4 4f 3e 32 ce b2 3d 1b 28 12 3e
       0.22163148 0.20301966 0.08730735 0.14273112
000200 6b 22 88 3d 13 de 3c 3e dd 90 a0 be 49 74 08 3e
       0.0664719 0.1844409 -0.31360522 0.1332561
000210 e9 18 74 3e 82 37 66 bd c1 5c 7e 3d a1 66 9d 3e
       0.23837627 -0.05620528 0.062100176 0.30742362
000220 0c 70 16 be ee ed 72 3e 5e 87 e7 3d c9 7c e1 3c
       -0.1469118 0.23723575 0.11305116 0.027525323
000230 40 ed a6 3e 69 a8 94 be 66 67 99 be 08 73 9e bd
       0.32602882 -0.29034737 -0.299617 -0.07736784
000240 1f 1f 6d bc 79 66 80 be 4a 3f 41 be 88 23 9d bb
       -0.014472752 -0.2507818 -0.18871799 -0.0047954954
000250 2b 52 80 3d f1 6e a2 be a8 40 ef bd 42 2b 24 3e
       0.06265672 -0.31725267 -0.11682254 0.16032127
000260 45 89 98 3d 88 82 1e 3d 11 c8 16 bc 75 d7 2b bd
       0.07448057 0.038698703 -0.009202973 -0.041953523
000270 22 92 d8 3d 40 2d a7 be 59 62 95 3e d2 31 b5 3d
       0.105747476 -0.3265171 0.29176596 0.08847393
000280 4c c1 51 be 3a dc cc bc 63 f1 d9 bd 3d 0e c5 3d
       -0.20483893 -0.025007356 -0.10641744 0.09621856
000290 99 14 f9 3d 14 87 c7 3d 7a 62 1b be a8 1a 98 be
       0.12162132 0.09742561 -0.15174285 -0.29707837
0002a0 e7 c5 60 be 18 54 fc bd 52 3e 6c be aa f9 d0 bd
       -0.21950494 -0.12320727 -0.23070648 -0.1020387
0002b0 db ba 96 3e aa c6 82 3e bf 77 33 3b 73 21 96 3e
       0.29439434 0.25542194 0.0027384607 0.29322395
0002c0 9f 6f 7f be 3f 31 20 be b9 84 3a be ee 5c a6 be
       -0.24944924 -0.15643786 -0.18214692 -0.32492775
0002d0 95 a8 a6 be 00 73 27 bd 7d 29 71 be c9 4b 01 3e
       -0.32550493 -0.040881157 -0.23550983 0.12626566
0002e0 44 89 3c 3e 9f 66 96 3e 33 8b b5 3e 09 a5 a7 3e
       0.18411738 0.2937517 0.35457763 0.327431
0002f0 4b f3 0f 3e b4 a3 63 be 25 99 01 3e c2 f9 a2 3e
       0.14057653 -0.22230417 0.12656076 0.31831175
000300 d5 e7 b1 3d 68 66 86 3e 7a c0 8e bc c6 a9 12 3d
       0.086867966 0.26250005 -0.017425764 0.03580644
000310 bb a8 96 be 6a a8 e6 3d 3d 94 60 3e 5c c7 8a be
       -0.29425606 0.11262591 0.21931548 -0.27105224
000320 4a 19 dc 3d 3f 76 6f ba e7 4d 98 3e 85 fd f0 3d
       0.10747011 -0.00091347465 0.29746935 0.11767105
000330 43 46 58 be a8 e0 2f be 15 52 b4 be ab 3a e0 3c
       -0.21120553 -0.17175543 -0.35218874 0.027371725
000340 a0 ad 05 be d8 00 93 3e dd 9b 7c be 75 34 5c 3e
       -0.13054514 0.2871158 -0.24668832 0.21504386
000350 61 49 66 bd bb 66 8a 3e c5 cf ab 3e b4 79 b4 3e
       -0.056222323 0.27031502 0.33556953 0.35249102
000360 a8 de 22 3e 45 66 d9 3d b9 1e 71 3e 10 13 bf bd
       0.15905249 0.106152095 0.23546876 -0.09329808
000370 8d 92 97 3e 59 28 02 3c dd 6e 08 3e af a8 e4 3d
       0.29603997 0.00794419 0.13323541 0.11164986
000380 16 29 3c 3d a8 bb bc bd fb 02 a8 bd 0a 69 a4 be
       0.04593762 -0.0921548 -0.082036935 -0.32111388
000390 08 5d 10 be 29 b2 ae be c5 a4 11 be 16 c6 65 bd
       -0.14097989 -0.341203 -0.14223011 -0.056097113
0003a0 fc f1 ac 3e 70 8f 79 3e da 16 42 3e 2f 38 c0 bd
       0.3377837 0.24371123 0.1895403 -0.09385716
0003b0 e8 d8 b3 bd 37 d6 94 be 98 89 9e 3d 0b 03 96 3e
       -0.08781606 -0.29069683 0.07741088 0.29299197
0003c0 c7 1f a8 be a7 76 5d 3e 2f a9 65 3e 75 72 95 3e
       -0.32836744 0.21627294 0.2242782 0.29188886
0003d0 28 9f 90 3d c9 fc a5 bd b2 e1 cd bd d4 84 85 3d
       0.07061607 -0.081048556 -0.100528136 0.065194756
0003e0 df 76 ad 3e 1e a8 52 be 4b 5b 7e bd f9 72 1d be
       0.33879754 -0.20571944 -0.062098783 -0.1537589
0003f0 de cd 5d bd db 60 5f bc ab c4 81 3e e5 54 88 3e
       -0.05415141 -0.013633932 0.25345358 0.2662727

encoder.actor_encoder.net.mlp.2.weight f4 [256, 256]
000000 25 fe 17 bd 65 81 42 bd 23 89 22 bd 35 d7 7b 3c
       -0.037107605 -0.04748668 -0.039681565 0.015371134
000010 a3 d5 b6 3a 72 40 91 3c 32 c0 a5 3c 93 58 8e 3c
       0.0013949167 0.017730925 0.020233247 0.01737622
000020 a9 9b b7 3c be 8c 4c bd 69 e6 f3 bc d6 75 8a 3c
       0.022413092 -0.04993891 -0.029772954 0.016901892
000030 13 62 c7 bc c9 de 26 bd 14 24 9a bd b8 41 40 3d
       -0.024338758 -0.04073981 -0.075264126 0.046937674
000040 03 5b 7c 3d 20 dd 8c bd e6 2f 75 3c 11 3c 39 3d
       0.061610233 -0.06878114 0.014965033 0.0452233
000050 5e df 48 3d a3 56 c1 bc 9d 8a 0d bd f6 b4 34 bd
       0.049041145 -0.023600882 -0.03455602 -0.04411789
000060 3b e9 6c bd 5e 55 b5 bc 97 c6 2c bd 28 5b a9 bc
       -0.057839613 -0.022135433 -0.042181578 -0.02067335
000070 de 8d 42 bb 9f 14 68 3d 83 39 62 bd b6 ac 80 3d
       -0.002968661 0.05666029 -0.05523063 0.06282942
000080 69 4a 8c 3c fc 62 f9 3c 3e ae bc 3c 0b 4b 5a 3d
       0.017125325 0.030442707 0.023032304 0.053294223
000090 bf df c2 3c b6 61 2c bd d5 1d 80 bd ee ca 32 bd
       0.023788331 -0.042085372 -0.0625569 -0.04365056
0000a0 78 c0 5e bd 1b 44 84 bd de 23 1d bc 29 13 74 3d
       -0.05438277 -0.064583026 -0.009591071 0.059588585
0000b0 d1 b9 0e 3d 1e 7d 18 bb 75 40 cb ba da dd a3 3c
       0.034845177 -0.0023267935 -0.0015506881 0.020003248
0000c0 8c 7b a5 bc af d0 04 3d e2 83 8e bd ef 65 50 bd
       -0.020200513 0.03242558 -0.069587484 -0.05087846
0000d0 b3 cf 6a 3c 82 f2 90 3c ea a9 69 3d 3c df 12 bd
       0.014331746 0.017693762 0.05704681 -0.035857424
0000e0 14 11 26 bd a2 ae 81 3d 1d 34 06 bd a9 c6 16 3c
       -0.04054363 0.06332137 -0.032764543 0.009202638
0000f0 79 8e 8c 3c 41 52 1b bd a6 12 a0 3c c7 9a 0f bd
       0.01715778 -0.03792024 0.019540142 -0.035059717
000100 5b 4c 4f 3d 7c b8 b7 bc 7c c9 b6 3b 82 f0 ab bc
       0.050609928 -0.022426836 0.005578218 -0.020988706
000110 98 64 f4 3b b4 23 50 3d b1 d5 44 bd dd 9f 19 bd
       0.007458281 0.0508153 -0.048055355 -0.037505973
000120 3c 8d 03 bd 4a b3 79 3b ba f6 85 3c 1c ce 56 3d
       -0.032117113 0.003810125 0.016353 0.052442655
000130 e2 13 0a 3c 75 26 1f bd e4 cb cb bc 5e 35 7e bd
       0.008427592 -0.038855035 -0.024877496 -0.062062614
000140 f3 85 a5 3c e3 b7 1f bc 8f e1 98 bc 4a 0e 90 bd
       0.020205474 -0.009748432 -0.018662242 -0.070339754
000150 66 f6 f6 bb 85 73 94 3d 2f 85 78 3d 4f 91 79 3c
       -0.007536697 0.07248596 0.06067389 0.015232398
000160 b6 73 2e bd 47 60 3d 3d 4b f7 cd 3a be 71 5e bd
       -0.04259082 0.046234395 0.0015713958 -0.05430769
000170 19 c7 56 3d 68 98 5b bd b6 c9 27 3c 74 f4 4d 3d
       0.052435968 -0.053612143 0.010240963 0.050281957
000180 1e 11 53 3d 22 2c df 3c 44 29 07 3d 78 6f 4f bd
       0.051529996 0.027242724 0.03299834 -0.050643414
000190 94 31 b1 3c fc fe 98 3c 37 67 ab 3c ca c9 75 bc
       0.021630086 0.018676274 0.02092324 -0.015001724
0001a0 fd 8a 6c 3c 52 41 90 ba 91 f3 fa bc 04 09 0c bd
       0.014437434 -0.0011005795 -0.03063372 -0.034188285
0001b0 38 3e c8 ba 18 86 8d bd 5f 8d 82 bd 1d b1 fd 3b
       -0.0015277332 -0.06910342 -0.06374621 0.007742061
0001c0 c7 b0 81 bc 72 e1 2b 3d 98 c1 4d bd fa b6 50 3d
       -0.015831364 0.04196305 -0.050233454 0.05095575
0001d0 a8 06 bf bc 2e 03 82 bb f6 0f 27 3d 37 95 12 bd
       -0.023318604 -0.003967664 0.040786706 -0.035786834
0001e0 a8 7a 09 bd 43 d7 2f bd ed c2 63 3c e1 e6 d7 ba
       -0.03356424 -0.0429299 0.013901454 -0.0016472006
0001f0 5a b8 2f bd 31 f3 4c bd d1 9d 39 bd ad 32 19 bd
       -0.04290042 -0.050036613 -0.04531652 -0.037401844
000200 5e 34 1e 3d 75 ca 2e 3d a3 03 02 3d a2 ad 69 bd
       0.03862416 0.042673547 0.03174175 -0.057050355
000210 52 8b 23 bd 94 59 10 bd 5a b1 b4 3d 31 91 b8 3c
       -0.039927788 -0.03524168 0.088228896 0.02253017
000220 4e a4 3c 3d 9f a4 1c bd 71 42 1a bd 9b 6c 51 bd
       0.04605513 -0.038242932 -0.03766102 -0.051128965
000230 c6 24 45 3c 69 a7 35 3d e2 6c 3a 3d dc ff 5b 3c
       0.012032693 0.044349108 0.045513995 0.013427701
000240 59 ca 2d bd d0 04 07 3c 89 d6 e5 bc ee 0e 24 39
       -0.042429302 0.0082408935 -0.0280564 0.0001564582
000250 bd 46 01 3d 4c 02 5f bd 02 fc ae 3c 64 ed b0 bc
       0.031561602 -0.05444555 0.021360401 -0.021597572
000260 56 e5 50 bd 2e dd 53 bd 5c 84 80 bd 9a bb 1e bd
       -0.05099996 -0.051724605 -0.062752455 -0.03875313
000270 6a 0b 65 bd c1 ed 44 3c 14 62 cc bc 72 a7 4b bd
       -0.05591909 0.012019576 -0.024949111 -0.049720235
000280 88 42 38 3d f1 4a 10 bc 22 c6 86 3d 7e 53 65 3d
       0.044985324 -0.00880693 0.065807596 0.055987827
000290 ba 63 9b bc 0b fd 1c bd ea ad a1 bc 1f e4 7d bb
       -0.018968452 -0.038327258 -0.019736249 -0.0038740707
0002a0 7e 04 67 bd ae 25 0f bd 3a 76 79 bc ac 41 21 bd
       -0.05640077 -0.034948044 -0.015225941 -0.03936927
0002b0 19 8e 54 bd 40 eb 95 3c 97 e7 6b bc ad d4 98 bd
       -0.051893327 0.018300653 -0.014398477 -0.0746244
0002c0 7b 57 ba 3c 1b 42 81 3d bd 89 e2 bb b0 a4 7e 3b
       0.022746792 0.06311437 -0.0069133923 0.0038855486
0002d0 b6 9e 32 3d ac d2 2b bd 10 af 99 bc 00 76 9c bd
       0.04360839 -0.04194896 -0.018760234 -0.07639694
0002e0 0d af af bc cf 1e d5 bc a8 35 a5 3c 91 34 ae bc
       -0.021445775 -0.026015667 0.020167187 -0.0212653
0002f0 bf 67 88 bd 04 3c e6 bb ce 73 f0 3b 4e d0 a0 3c
       -0.06660413 -0.0070261974 0.0073380237 0.019630577
000300 c6 85 86 3d a8 4e 9c bd 26 32 cd bc 04 f6 8c bd
       0.06568484 -0.0763219 -0.025048327 -0.06882861
000310 b0 08 8b 3c 4e db 54 3d 38 ef b8 bc 08 75 5d bc
       0.016971916 0.051966958 -0.022575006 -0.013516672
000320 a2 b3 66 3d a7 40 7f bd 18 7e 61 3c f1 54 5d 3d
       0.056323655 -0.062317517 0.013762973 0.054036085
000330 b2 f0 9f 3c 5f 39 e7 3c f3 13 09 3c 65 33 d9 3c
       0.019523952 0.028225599 0.008366573 0.026513765
000340 34 0f 16 bd 11 a7 94 3c 0e e5 ea bc 69 b3 12 3d
       -0.036635593 0.01814607 -0.028673675 0.03581563
000350 34 4f 91 bc ca 14 82 3d cd de ae 3d ec 1c 28 3d
       -0.017737962 0.063516214 0.085385896 0.041043207
000360 4e 5b 1e 3d a2 ae 61 bc 5d e5 62 3d aa 9b 58 3d
       0.038661294 -0.013774546 0.05539452 0.052882828
000370 0e 65 81 3b 87 d5 8d 3d 97 f9 7c bd 2a 0f 6c 3d
       0.0039488142 0.06925493 -0.061761465 0.05763165
000380 50 0e 76 bd 28 78 10 bd 95 d2 8e bb b8 db 79 3a
       -0.060072243 -0.03527084 -0.0043585994 0.0009531337
000390 45 b8 0e bd 29 8a 87 3c 1f 02 84 3d b9 b5 2c bc
       -0.034843702 0.016545372 0.06445717 -0.010541373
0003a0 d0 6c 56 bc 35 4e 64 3d 1d ad 11 3d 12 17 0f bd
       -0.013087466 0.055738647 0.035565484 -0.03493411
0003b0 30 df e1 bc f4 0c 62 3c 40 9f 34 3d c3 af ad bc
       -0.027572244 0.013797034 0.044097185 -0.021201974
0003c0 d6 21 b0 bb 29 6b 52 bd 3c 24 dc 3a 6a ec 18 3c
       -0.0053751273 -0.051371727 0.0016795467 0.009333709
0003d0 85 5d 04 3d f7 ef 6a bc b3 ae e3 bc 78 e4 89 bc
       0.03231575 -0.014339439 -0.027793264 -0.016832575
0003e0 cf 6d 26 3d 19 ee 84 3d 1d fc f6 bc bd de 36 bc
       0.040632065 0.06490726 -0.030149514 -0.011161503
0003f0 7e 43 10 bc 91 f4 51 bd d8 66 03 bd 7e 13 83 3d
       -0.008805154 -0.051258627 -0.0320805 0.06400202

encoder.actor_encoder.net.mlp.2.bias f4 [256]
000000 6d c3 53 3d e0 fc 95 3c e8 4b 47 3c f3 77 1d bc
       0.051700044 0.018309057 0.012164094 -0.009611118
000010 1d 8a 9c 3c 2d 29 ba 3c 01 0c a8 3c 50 bf 5f 3d
       0.019108826 0.022724712 0.020513536 0.05462581
000020 0f 98 e9 3c ab cc 4d bc 86 b1 6c 3c fb 07 59 3d
       0.02851489 -0.012561004 0.014446622 0.052986126
000030 0c 83 8a 3a 36 73 f2 3b f1 a7 51 bd 23 9b 48 bd
       0.001056762 0.007398988 -0.051185552 -0.048976075
000040 03 ad 0c 3b ae 89 6e 3c 1f 5b 84 3d 91 77 63 3d
       0.0021465428 0.014559193 0.064626925 0.05553395
000050 ac 37 3e bd b0 1e 25 3c 97 fd f5 bc 35 7a c9 3b
       -0.04643981 0.010078117 -0.030028148 0.0061486014
000060 76 aa 97 bc bd 0a 86 bd b6 97 7d 3d b6 6b 21 3d
       -0.0185139 -0.06545017 0.06191226 0.03940936
000070 cc 23 26 3d ba 3a ff bc 71 3d 11 3d 6f bc 75 bc
       0.040561482 -0.031155933 0.035458986 -0.014998539
000080 b0 b7 69 bd 46 46 1a bd b6 8f 65 3c 4f cc 45 bc
       -0.057059944 -0.037664674 0.014011314 -0.012072637
000090 21 6d 9b bc 0a 0a c0 bc 3c 62 a9 3c 60 5d 17 3d
       -0.018972935 -0.023442287 0.020676725 0.036954284
0000a0 18 26 25 bd 03 b5 86 bc 6d 30 6f 3d 38 b2 89 ba
       -0.040319532 -0.016443735 0.05839579 -0.0010505384
0000b0 39 a5 b1 bc 85 ef 0d bd 58 63 3e bd 59 43 0b 3c
       -0.02168523 -0.03465225 -0.04648146 0.008499944
0000c0 4c 60 57 bc ef 13 07 bd ec 77 0e bd 8b 2b 27 3b
       -0.013145518 -0.032977995 -0.034782335 0.0025508131
0000d0 12 0b 13 bd b1 4b 5b bd 6a 60 3f 3b 2c 2d 73 bd
       -0.03589923 -0.05353898 0.0029201754 -0.05936925
0000e0 ca ec cc 3a 3b 26 c7 bc 4d 9f 45 3d 33 a4 cf bc
       0.0015634533 -0.024310222 0.048247624 -0.025346851
0000f0 56 f0 8a bc 26 f3 87 3d 6d 07 04 bc f8 95 2f 3c
       -0.016960304 0.06638174 -0.008058411 0.010716908
000100 3d 6e f2 3c 6b fe 51 3d 1d ed e5 3b 6e 62 61 3d
       0.029593581 0.051268023 0.0070167915 0.05502551
000110 14 a3 f7 3c 22 9f f8 bc 6b 47 cd 37 65 2f 18 3d
       0.030229129 -0.030349318 2.4471161e-05 0.037154574
000120 0d 55 8c 3b fb 0c 08 3b c1 94 27 3d 76 5e 70 bd
       0.0042826 0.002075969 0.040913347 -0.058683835
000130 a1 f3 71 bd 0d 0d 65 bd bd 7b 54 3d 27 9a 06 3c
       -0.059070233 -0.05592065 0.05187582 0.008215464
000140 ad 6b 3f bd 34 0d 54 3a 43 26 6d bd 9b ce 54 bd
       -0.046733547 0.00080891256 -0.057897817 -0.051954847
000150 e2 37 41 3d 35 9a 41 bd c7 9a 8a 3c c3 10 86 3d
       0.047172435 -0.047266204 0.016919507 0.06546166
000160 b9 f0 09 3d 2f 56 1c bd 1d 26 1e 3d 30 31 11 3d
       0.033676837 -0.03816813 0.038610566 0.0354473
000170 c2 97 01 3d 8a 6f 92 3c e2 9d 16 bc 12 d3 38 3d
       0.03163887 0.017875452 -0.009192916 0.045123167
000180 33 27 6b 3d bb 22 41 3d 14 1b e4 bc 92 56 3a 3d
       0.05741043 0.047152262 -0.027844943 0.045492716
000190 1e 8e f5 bc 4e 29 9c 3c 63 d5 6c 3d 2a ad a0 3c
       -0.029974993 0.019062664 0.05782069 0.019613821
0001a0 5f d1 fe bb e3 72 24 3d 0f 2f 56 3c 5c e1 0d bc
       -0.007776424 0.040148627 0.013072743 -0.008659687
0001b0 2a 20 f7 bb c2 ab 0d 3d a2 9f 33 3d f0 00 b0 bc
       -0.007541676 0.03458763 0.04385341 -0.021484822
0001c0 52 25 68 3c 07 95 17 3d 7c 49 04 3d ca 61 89 3d
       0.014169054 0.037007358 0.032296643 0.06708105
0001d0 fc f0 0a bd 82 4b 10 bc 5c 2a c0 bc 4f ea 47 3d
       -0.033921227 -0.008807065 -0.023457699 0.04880744
0001e0 92 d4 13 bd 53 cb 61 3c 5e d8 25 bd d4 04 1d 3d
       -0.036091395 0.013781386 -0.040489547 0.038334683
0001f0 aa 91 97 3c 1c a8 4d 3c b8 e0 71 bd 5e 0f 4c bd
       0.018502075 0.012552287 -0.0590522 -0.049819343
000200 44 68 56 bc a1 a0 58 3d 3e 92 42 3d 9d b6 47 bd
       -0.013086382 0.052887563 0.04750275 -0.048758138
000210 9e ed 37 3d e8 c2 dc 3c 5c b3 e9 3c 26 02 3c 3b
       0.044904344 0.026948407 0.028527908 0.0028687804
000220 7c 6a 67 3d ba ca 1b 3c cc 4b 6c 3d 41 9e 50 bd
       0.056498036 0.009508783 0.057689473 -0.050932173
000230 22 28 20 3d 5c 03 69 3d 5e 78 27 3d 3d 79 09 3d
       0.039100774 0.05688797 0.040886275 0.033562887
000240 7a b4 37 bc e7 ba 6f bd c6 ef af 3c 6b 15 e7 bc
       -0.011212463 -0.058527853 0.021476638 -0.028208455
000250 68 95 cd 3b 81 e0 7b 3d a2 46 3a bd 42 2f 2c bb
       0.006273914 0.0614934 -0.045477517 -0.0026273285
000260 3a 80 1c bd f4 76 7a bc 80 5d c7 bc 9b 0d 01 bd
       -0.038208224 -0.01528715 -0.024336576 -0.031507116
000270 d2 e4 b7 bb 0a ba 89 bc 82 6f ba b9 57 d5 d1 bc
       -0.0056119943 -0.016812343 -0.00035559764 -0.025614424
000280 58 f2 66 3d ea 30 cf bc ed 91 d4 b9 9e 8f c6 bb
       0.05638346 -0.025291879 -0.00040544514 -0.006059601
000290 cd 2f ce 3b e9 f3 b3 3b 95 52 8d 3c 58 ad 6f 3d
       0.0062923194 0.005491723 0.017251292 0.058514923
0002a0 9c a4 54 3c c6 87 56 bc c5 a6 20 3d 0e 6f ff bc
       0.012978699 -0.013093894 0.039221544 -0.031180885
0002b0 3a 2c 15 bb ec 02 df 3c e9 fe 64 bd 06 85 23 bd
       -0.0022761957 0.027223073 -0.055907164 -0.039921783
0002c0 a7 30 87 bc 92 06 5d 3d f5 34 f6 3b 06 93 28 ba
       -0.016502691 0.053961344 0.007513637 -0.00064305996
0002d0 be c9 34 bd fb 2a 76 bd 2a 0e e5 bc f6 f6 5c 3d
       -0.04413771 -0.060099583 -0.027960856 0.053946458
0002e0 37 1c 78 bb 12 48 35 bc 70 71 53 bd 5f b5 5b bd
       -0.0037858614 -0.011064546 -0.051621854 -0.053639766
0002f0 9f bf 8b bc da 93 60 3d 79 0b 51 3d 0b ea 25 bd
       -0.017059145 0.054828502 0.05103633 -0.040506404
000300 bc d2 f3 bb 9c a0 53 3c 0e 6c e0 3a 5c 53 52 bd
       -0.007440893 0.01291671 0.0017122047 -0.05134903
000310 ed d7 2b bd fb 0a 46 bc 11 f9 31 3c 13 62 22 bd
       -0.04195397 -0.012087579 0.010862605 -0.039644312
000320 80 45 5c bc ba 8c 2f 3c c6 8f ac 3c 16 ae 73 bc
       -0.0134443045 0.010714704 0.02106465 -0.014873048
000330 c8 3a 5a 3d 1b 39 0e 3c 5e 89 26 3d 69 a8 2a bd
       0.053278714 0.008680607 0.040658347 -0.041664515
000340 63 99 74 3d 0b ff 0b bd 12 df 8d 3c b4 ac bf bc
       0.059716593 -0.034178775 0.017318282 -0.023397781
000350 10 50 47 bc a6 f2 fc 3c 30 da 83 3c 4a ad 03 bd
       -0.0121650845 0.030877423 0.01609525 -0.032147683
000360 15 79 33 3d 7c d5 cc ba cf b5 69 bd 1e ac 9c bc
       0.043816645 -0.0015627588 -0.05705815 -0.01912504
000370 af ae 30 3c d1 19 82 bc 8a f3 c5 bb 10 d3 db 3c
       0.010783835 -0.01588145 -0.006040995 0.02683404
000380 ad 7b 35 bd 92 85 19 bd 50 22 16 3d 6b b4 1d 3d
       -0.0443074 -0.0374809 0.036653817 0.038502138
000390 be c0 3a 3c 74 6a 51 bb 4a 61 6c bd 4a e5 54 3d
       0.011398492 -0.003195432 -0.05770997 0.05197648
0003a0 65 d3 76 3d 2f 3e 52 bd 11 33 98 bc 9d b3 cd bb
       0.060260195 -0.051328834 -0.018579038 -0.006277515
0003b0 63 a1 05 bd 78 54 46 bc db a8 04 bc 49 e0 74 3c
       -0.032624613 -0.0121051 -0.008096899 0.014946052
0003c0 0e 94 ea 3b df 25 12 bc bb 1d eb bc f4 6d 11 bd
       0.007158763 -0.008920162 -0.0287007 -0.03550525
0003d0 0c e4 4b bd 42 40 d0 3b ba c1 e5 3c 8e 89 7a bd
       -0.04977803 0.0063553164 0.028046478 -0.06116634
0003e0 9d 35 83 3d 03 79 38 3d 98 0c 54 bd 3e ec 69 bd
       0.0640671 0.04503728 -0.051769823 -0.057110064
0003f0 87 78 5c bd b4 2f 8b bb d6 d6 fd bc da 4d ba bc
       -0.05382588 -0.00424763 -0.03098623 -0.0227422

encoder.critic_encoder.net.mlp.0.weight f4 [256, 8]
000000 6c 4d 67 3e d0 71 a3 bd 4f 7e 9a be e4 5c a1 3e
       0.22588128 -0.079806924 -0.3017449 0.31516182
000010 ef cb 6a 3e 79 ba 90 bd ac 43 51 be 09 e2 33 3e
       0.22929357 -0.07066817 -0.20435971 0.17566694
000020 1b c0 a5 3e 4d d3 86 be 4d 16 56 bd 5b bc 7a 3e
       0.32373127 -0.26333085 -0.05226736 0.24485914
000030 62 b1 b2 be bd cf ef 3d 55 02 76 3e bc 21 21 3e
       -0.34900957 0.11709545 0.24024327 0.15735525
000040 a1 52 29 3d 71 b1 ce 3d a1 f6 22 3e 2d 82 8f bd
       0.041338567 0.10092438 0.15914394 -0.07007251
000050 76 9e 63 3e a0 b4 9b bd 55 9d 16 be c7 c1 b6 3d
       0.22228417 -0.07602811 -0.14708455 0.08923679
000060 de 48 06 bd c9 b4 64 3e 31 5b 49 3e b8 27 2d 3e
       -0.032784335 0.22334589 0.19663693 0.16909683
000070 5d c6 77 be 2b 94 6f be 0c 29 35 3e 15 b2 19 3e
       -0.24196763 -0.23396365 0.1769144 0.15009339
000080 85 fb 5f 3e 1f 4d c5 bd 1e b5 76 3e 0f 30 6a be
       0.21873291 -0.0963385 0.24092528 -0.22869895
000090 d7 02 89 3e 90 b1 1b 3d 73 a5 55 bd 26 74 11 bd
       0.2675998 0.038011134 -0.052159738 -0.03551116
0000a0 53 be 6a 3e 36 3a c9 bd 07 96 ab 3d 19 32 62 be
       0.22924165 -0.09825556 0.08378225 -0.22089423
0000b0 69 95 1d be b2 24 2a 3e 95 bd 16 3e 7f 46 71 be
       -0.15389027 0.1661556 0.14720757 -0.23562048
0000c0 e8 96 dd 3c e0 60 55 be aa 0f 3a be b2 d6 42 3e
       0.027049497 -0.20837736 -0.18170038 0.19027212
0000d0 e8 4d cd 3d 28 ba 51 3d 49 51 0a bc a2 a3 9f be
       0.10024625 0.051202923 -0.008442231 -0.3117953
0000e0 20 da d6 3c 23 68 6b 3e ed e7 5e be e7 51 90 3e
       0.026227057 0.22988944 -0.2176816 0.28187487
0000f0 c8 fe 0f be 93 16 b0 3e 13 ef e6 3c 19 a6 6b 3e
       -0.14062035 0.34392223 0.028190171 0.2301258
000100 e6 2c 82 3e 45 f7 06 3e e6 29 58 be 51 51 4f be
       0.2542488 0.13180263 -0.21109733 -0.20245863
000110 9f a1 0d be d7 c2 3b 3e 47 95 41 be d5 bb 07 be
       -0.13831185 0.18336044 -0.18904601 -0.13255246
000120 8c 5e 9b be 06 e6 97 be 0a 23 c7 3c aa 9a 77 3e
       -0.3034557 -0.2966768 0.0243087 0.24180093
000130 15 da b3 3e 5f cf 97 3e 76 c4 21 3d 7c d9 9d 3e
       0.3512732 0.296504 0.039494 0.3082999
000140 9f f8 40 be 9f 9a e5 bd a8 98 a7 be a4 6e d1 bb
       -0.18844841 -0.11211132 -0.32733655 -0.006391363
000150 fe 72 1c be aa 4a 0a bd 1c e4 29 bd 3c 37 6d 3e
       -0.15278241 -0.03376261 -0.041477308 0.23165601
000160 78 3e 80 be 19 2e c9 bd 77 5f 2a 3e c3 56 0f be
       -0.2504766 -0.098232456 0.1663798 -0.1399794
000170 d8 c7 2d 3e dc 9a a6 3d aa 7d 58 be 80 2d bf 3d
       0.16970766 0.08135006 -0.21141687 0.0933485
000180 db 9b dc 3d f2 e4 a2 be 76 e1 1e be 42 42 8a 3e
       0.107719146 -0.31815296 -0.15515694 0.27003676
000190 62 c4 90 3d b9 0f 8a be ad 92 7f 3e 31 32 4b 3e
       0.07068707 -0.2696512 0.24958296 0.19843365
0001a0 85 b1 00 bd e7 ce ff 3d cf 9e 2b 3e a8 16 de bc
       -0.031419296 0.12490635 0.167598 -0.027110413
0001b0 74 20 8c 3e 78 e1 96 3e 35 e2 df 3d 24 e4 07 3e
       0.2736851 0.29468894 0.109318174 0.13270622
0001c0 ed 78 85 bd 61 e5 ae 3e c6 f1 2e 3d 3f 3c a0 be
       -0.065172054 0.34159377 0.042711042 -0.31295964
0001d0 23 56 87 be fd 4d a3 3e 04 b1 88 3e 39 f3 94 bd
       -0.26432905 0.31895438 0.26697552 -0.072729535
0001e0 1b 6b cf bd 09 4b f0 3d 0a 9e 74 bd 01 71 77 3e
       -0.101278506 0.11733062 -0.05972103 0.24164201
0001f0 ab 7a 95 3d 0d 01 85 bd 2d 4f ac be ce 9a fe bd
       0.07298788 -0.06494341 -0.33654156 -0.124318704
000200 80 19 db 3d 30 1f 42 be 0f 59 97 bd e0 d7 9c bd
       0.10698223 -0.1895721 -0.073900335 -0.076583624
000210 a2 17 02 be ab 40 61 be f9 78 4e 3e 77 e9 8e be
       -0.12704328 -0.21997325 0.20163335 -0.27912495
000220 e9 ef 84 3e 65 0e 13 bc 77 2f 25 3e 74 f1 74 bd
       0.25964287 -0.0089756 0.16131388 -0.05980058
000230 e0 7f 33 3e d2 18 86 be 49 3b 04 3e e1 50 d1 39
       0.17529249 -0.2619081 0.1291324 0.00039923846
000240 95 5b 9c 3e 2e 23 88 be f4 f5 45 be 7b 27 1e be
       0.30538622 -0.2658934 -0.19332105 -0.15444748
000250 81 19 9c 3e 49 9b 4f be 45 ab 9b 3e aa c1 d2 bc
       0.30488208 -0.2027408 0.30404106 -0.025727112
000260 0e 6c ce bd dd a5 a5 3e dd 97 80 3e 0e c9 1b bd
       -0.100792035 0.32353106 0.25115862 -0.038033538
000270 96 4a 2c be 04 c8 20 bd 0b 13 85 be 82 4c 47 be
       -0.16825327 -0.03925325 -0.2599109 -0.19462779
000280 49 65 c3 3d a0 57 42 3e e6 9f 39 be b3 ea 50 be
       0.09540803 0.18978739 -0.18127403 -0.2040203
000290 91 55 9c be 80 c7 a0 bd ec d0 f2 3d cc a1 f1 bd
       -0.30534032 -0.078505516 0.11856255 -0.117984384
0002a0 fb 76 9e 3e 54 8b eb 3d 46 d2 b4 3d 59 5f 93 3e
       0.3095015 0.11501184 0.08829169 0.28783682
0002b0 b8 b5 78 be 4d 42 a1 3d 79 57 c7 bd 60 d1 d1 3d
       -0.2428807 0.07873974 -0.09733481 0.10245013
0002c0 ea 4d 9d 3d e1 0b 26 be ce cb 38 3c 8e cd 9a bd
       0.076808766 -0.16215469 0.01127906 -0.07558738
0002d0 e9 7c 93 be 91 a2 fc bc bd 9c f0 3d 99 41 91 3d
       -0.28806236 -0.030839236 0.117486455 0.0709259
0002e0 ed dd b8 bd 15 28 01 3e ec 5d b3 3c 3d e6 aa 3e
       -0.09026704 0.12612946 0.021895371 0.33378783
0002f0 46 5f cc 3c 24 a6 85 3e c9 87 1c bd 7c 1b a9 bd
       0.024947774 0.26103318 -0.038215432 -0.08257195
000300 90 22 52 3e 40 e3 de 3d 91 2e 12 bd e9 f2 6e 3e
       0.20520997 0.10883188 -0.03568894 0.2333485
000310 54 07 c7 bd 98 fc 63 3e 93 64 09 3e 21 f5 29 be
       -0.097181946 0.22264326 0.13417272 -0.16597416
000320 f5 fd 91 be 50 9d 67 be 3a 68 21 3e 48 c1 b0 3d
       -0.28514066 -0.22618604 0.15762416 0.086306155
000330 8b aa 8c be 08 7e 4e be 48 cd e9 3d bd b6 16 3e
       -0.27473864 -0.20165265 0.114161074 0.14718147
000340 b3 f6 96 3e ac d0 fe bd 28 a8 29 3e 4b 94 3f 3c
       0.29485092 -0.12442145 0.16568053 0.011693071
000350 80 81 0a be 11 cb 66 3d 0a 21 c7 bc a0 58 7a bc
       -0.13525963 0.056346003 -0.024307746 -0.015279919
000360 ed e1 29 be 00 00 a5 3e 89 d1 8e 3e 9f 3e d6 3d
       -0.1659009 0.32226562 0.27894238 0.10461163
000370 c7 25 13 3e 6f 2f 80 be 61 6b a8 be f0 08 b2 be
       0.1436988 -0.2503619 -0.32894424 -0.34772444
000380 a6 8e a0 3e bb 66 9b 3e e8 d3 a6 bd 29 9d af 3e
       0.31358832 0.30351815 -0.08145887 0.3429959
000390 3f f9 58 be b5 dd 78 3e 50 3d 77 be 66 32 10 3e
       -0.2118883 0.24303325 -0.24144483 0.14081725
0003a0 4b 02 4b 3e b9 68 49 3e c2 38 94 3e f6 f7 35 3e
       0.19825093 0.19668855 0.28949553 0.17770371
0003b0 95 d9 82 3e 3f a4 48 3e aa 08 82 3d 27 98 6b be
       0.25556627 0.19593905 0.06349309 -0.2300726
0003c0 68 4b 7b 3e 0f f7 e6 3d 97 1f bd bc f6 14 48 be
       0.24540484 0.112775914 -0.023086352 -0.19539246
0003d0 0d 4a 69 be 02 d5 06 3e 96 29 1e 3e 46 65 4a 3e
       -0.22782154 0.13167194 0.15445551 0.19765195
0003e0 11 a3 97 3e c9 cb 16 3b 44 96 b0 3e 22 f0 9f 3e
       0.29616597 0.002300965 0.34489644 0.31237894
0003f0 dc 1c ca bc 23 e7 3b 3e 01 66 c9 bd 32 ad 31 3e
       -0.024671964 0.1834989 -0.09833909 0.17351225

encoder.critic_encoder.net.mlp.0.bias f4 [256]
000000 44 56 21 3e b9 03 61 3e 4f fe f8 3d 6f 63 88 3e
       0.15755564 0.21974076 0.121578805 0.26638362
000010 9f 14 b4 bd e7 b1 6a 3d bb f6 f3 bd bf 7c b3 be
       -0.08792996 0.057298567 -0.119122945 -0.3505611
000020 8c e6 5a bd c5 49 16 bd 54 6d ab 3d 3c 16 28 3e
       -0.053442523 -0.036691446 0.08370462 0.16414732
000030 cf f5 91 be 85 f8 04 be cc a2 ad be f0 4c 8b be
       -0.2850785 -0.12985428 -0.33913267 -0.27207136
000040 71 32 b4 bd 22 c1 37 3e 6e 8c 77 3e c1 2e b1 be
       -0.087986834 0.17944768 0.24174663 -0.34605983
000050 2d 41 79 be f5 e6 0d 3d 8f 22 b0 bd d0 0f 76 be
       -0.24341269 0.034644086 -0.086003415 -0.2402947
000060 a6 23 01 3e af c7 12 be 9f 57 4c be 80 00 7a be
       0.12611255 -0.14333986 -0.199553 -0.24414253
000070 8f 4e c8 3d ac 70 b0 be d7 98 97 be 17 32 82 be
       0.09780609 -0.34460962 -0.29608795 -0.2542884
000080 dd a4 3a be bc 36 07 3e e4 82 19 be 27 57 9a 3e
       -0.18226953 0.13204473 -0.14991337 0.30144617
000090 47 fc b1 be 99 b2 b0 3e 7b 60 0e bd 64 06 4f bd
       -0.34762785 0.3451126 -0.03475998 -0.050543204
0000a0 2b 46 af 38 a7 48 23 be 1f 3c 3e be c8 75 2c be
       8.35772e-05 -0.15945683 -0.18577622 -0.16841805
0000b0 c0 f3 91 3e 2b 6b 2d bc 4b b5 3b 3e 05 06 70 bd
       0.2850628 -0.010584633 0.18330877 -0.05859949
0000c0 9b 0b 8e 3e 44 19 6a be 04 fe 9b 3d 6b 50 e9 bd
       0.2774323 -0.228612 0.07616809 -0.11392292
0000d0 21 09 d2 bd f5 9f ad 3e 4d 66 18 3d fc 13 9a be
       -0.102556475 0.339111 0.037206937 -0.30093372
0000e0 c1 91 81 3e 63 a4 29 3e 7b 08 5b be 7e b6 b7 bd
       0.25306514 0.16566615 -0.21389954 -0.089703545
0000f0 b2 8d 90 bd 8a 24 84 be 24 09 8d 3e 7f f0 08 be
       -0.07058276 -0.25809127 0.27546036 -0.13372992
000100 0f 8a 5d 3d 45 74 44 bd e9 02 a5 3c 82 34 97 be
       0.05408674 -0.047962446 0.02014299 -0.29532248
000110 96 89 8d 3d b5 9c 47 bd 6d 48 b4 3d 78 25 8d be
       0.06911008 -0.04873343 0.088028766 -0.2756765
000120 86 70 15 3e 8b 4f 19 be a5 01 53 be a4 37 8a be
       0.14593706 -0.1497175 -0.20606096 -0.26995575
000130 c2 4a 25 be 83 d7 84 3e 27 00 c5 3d ce 93 f4 3d
       -0.16141799 0.25945672 0.0961917 0.11942254
000140 dc 3f d9 3d b1 c5 50 bd 60 4d 9d bb ff 1c a7 3e
       0.10607883 -0.050969783 -0.0048004836 0.3263931
000150 3a aa 5e 3e a2 5a 98 3e 1a 14 3a bd 93 e6 78 3e
       0.21744624 0.29756647 -0.045429327 0.24306707
000160 4d c8 5c be b2 51 96 3e 72 af ab 3c 3d ca 53 3e
       -0.21560784 0.29359204 0.020957682 0.20682617
000170 93 0a 3d 3e cf 75 44 3e ac 6d 93 bd 55 36 12 3e
       0.18461065 0.19185565 -0.071986526 0.14278539
000180 59 d7 53 bd 8a 7f 8c be b4 ba f3 3d c1 83 8c be
       -0.051719043 -0.27441055 0.11900845 -0.2744427
000190 cf d8 39 bd 97 f9 30 3e 6b ca 20 3d 70 5a 5e 3e
       -0.04537278 0.17282711 0.03925554 0.21714187
0001a0 b8 ff 4a be 1a 10 8c 3e 6a 9e 69 be 1c 31 b3 bc
       -0.19824111 0.27356035 -0.22814336 -0.021874003
0001b0 48 04 1d 3d c1 25 3c 3e 22 8f 6a be 0e cc 32 be
       0.03833416 0.18373777 -0.22906163 -0.17460653
0001c0 03 f5 6e 3e 45 a4 fa 3d 7f a1 98 be 90 13 23 3e
       0.23335652 0.12238363 -0.29810712 0.15925431
0001d0 78 82 76 be 08 7f 04 3d d0 a5 89 bd 62 e2 37 be
       -0.24073207 0.03234771 -0.06721079 -0.17957452
0001e0 47 52 5e 3e 90 44 a7 be 3c af c5 3d cf b9 8d be
       0.21711074 -0.32669497 0.09652564 -0.27680823
0001f0 8f fb a6 3e ec b6 ef 3d cb 3f 8d be 07 60 30 bc
       0.326138 0.117048115 -0.27587733 -0.010765082
000200 2a 06 4c 3e d4 44 2d be 1f d3 9c bd 22 69 91 bb
       0.19924226 -0.16920787 -0.07657456 -0.0044375816
000210 cc 78 04 bd 77 4f 41 3e 7b ec b4 3e e5 e3 92 bd
       -0.032341763 0.1887797 0.3533667 -0.07172374
000220 4a 20 84 bd 2d 3f 1f be 57 97 04 bd db 9c 86 3d
       -0.06451471 -0.15551443 -0.03237089 0.065728866
000230 22 a2 a1 3d db f5 35 3e ad b6 1c be ca cf 8c 3e
       0.078922525 0.17769568 -0.1530406 0.2750228
000240 ec 3f 23 3e 8b bd 09 3e d4 3c 60 be 2a a9 a2 3e
       0.15942353 0.13451211 -0.21898204 0.31769687
000250 b8 da ac 3e 32 e9 55 be e9 c6 14 be ed 5d cf 3d
       0.3376062 -0.20889738 -0.14529003 0.10125337
000260 4d 67 79 be 5d 53 28 be 88 f4 82 3e 36 71 38 3e
       -0.24355812 -0.1643805 0.25577188 0.18011937
000270 3d 68 76 3c f6 6f d3 3d 92 97 fa 3d 07 2d 90 be
       0.015039501 0.10324089 0.12235941 -0.28159353
000280 4a 08 da bd 3d d5 bd 3d e7 d8 9d be 10 bf 06 be
       -0.10646112 0.092691876 -0.30829546 -0.13158822
000290 82 a0 94 3e 45 56 1b 3b a2 0d a1 be 8a 1f a6 be
       0.29028708 0.0023702544 -0.31455714 -0.32445937
0002a0 99 ab aa bd 3f 4a 96 3d da 67 17 3e cc b2 ed 3b
       -0.08333511 0.0733838 0.1478571 0.0072539803
0002b0 3f 9c 94 3e fa 75 b0 bd 93 e9 fc bd 01 5a 3b 3e
       0.29025456 -0.08616252 -0.12349238 0.18296053
0002c0 85 43 74 be 2a 24 aa bd d4 0a ac 3e 05 9b 8f be
       -0.23853882 -0.08307679 0.3360201 -0.28047958
0002d0 e9 04 74 bd 88 18 f0 bd 47 5b f0 bd a9 88 e5 bd
       -0.059574995 -0.11723429 -0.1173616 -0.112077065
0002e0 b4 7f 8a 3e 7b c3 89 be 74 02 b4 3e 27 a3 d5 3d
       0.27050555 -0.26906952 0.35158122 0.104315095
0002f0 ff 3d b1 3e b4 14 81 3e b8 82 3e be 82 4b f9 3d
       0.34617612 0.25211108 -0.18604553 0.12172605
000300 ee eb 96 be f0 a0 98 be 31 0a 41 3e 23 81 96 be
       -0.29476875 -0.29810286 0.18851544 -0.29395398
000310 12 b5 95 be 42 0b c7 bd aa d1 b8 3d 68 dc 4e 3e
       -0.29239708 -0.09718944 0.09024365 0.20201266
000320 f9 b4 1f 3e 19 e0 a6 3e 6d 34 6e 3d a9 45 7c be
       0.1559638 0.32592848 0.058155466 -0.24635948
000330 f3 a4 a7 3d 8c 99 82 be 14 ee 0c 3e 5b ce aa 3d
       0.081857584 -0.25507772 0.13762695 0.083401404
000340 37 ad 64 3e b2 8b d3 bd 44 08 b5 3d 4f 39 9b 3e
       0.22331701 -0.10329379 0.08839467 0.3031716
000350 96 57 67 3e e0 dc fe bd 63 85 88 3e 17 db 12 bd
       0.22592005 -0.12444472 0.26664266 -0.03585347
000360 90 b3 65 be 3d fc 94 3e e7 83 5e be 32 6d 6c 3e
       -0.22431779 0.29098693 -0.21730004 0.2308853
000370 c5 97 4b 3e 86 4e 02 3e d4 d7 24 be b7 fd 82 be
       0.19882114 0.12725267 -0.16097957 -0.25584194
000380 22 73 64 be 9d 00 5f be 52 6a a0 be ff 4b 41 3d
       -0.22309545 -0.21777578 -0.31331116 0.047191616
000390 0f 6b dd 3d 79 50 45 be 2a 10 cf 3d a0 32 a5 3e
       0.108114354 -0.19268979 0.10110505 0.32265186
0003a0 be 70 b3 be 87 5a 6a be 2d cd b4 be 9e f6 a7 3d
       -0.35046953 -0.22886096 -0.35312787 0.08201335
0003b0 95 86 ab bc ac 21 e0 bd ee bc f5 3d 10 ae 0a 3e
       -0.020938197 -0.109439224 0.11998926 0.13542962
0003c0 d6 95 4b bd d0 5c 9c 3d a8 12 46 be 8c 5d 02 be
       -0.04970344 0.0763489 -0.19343054 -0.12730998
0003d0 1c 6d e4 bd 7c e8 fc bd 92 c3 2c 3e 70 95 77 3e
       -0.111536235 -0.123490304 0.16871479 0.241781
0003e0 03 9c 2d be 2c 21 92 bd 7b 4b 68 3e f9 e1 80 be
       -0.16954045 -0.07135233 0.22685044 -0.25172403
0003f0 10 d3 36 3e f3 89 9c 3d e5 4b 90 be 0f 71 72 3c
       0.17853951 0.07643499 -0.28182903 0.014797463

encoder.critic_encoder.net.mlp.2.weight f4 [256, 256]
000000 d0 8c cf bc a0 53 48 3c 96 b1 3c 3c b9 9c 28 bd
       -0.0253357 0.012226969 0.011516949 -0.041165087
000010 6b 8b 00 bc 62 c1 5f 3d e1 42 02 3d de 24 eb bc
       -0.00784574 0.054627784 0.031802062 -0.028704103
000020 c3 0e b4 bc d9 3f 5c 3d d9 96 3b 3d a6 45 87 3c
       -0.021979695 0.053771827 0.045798156 0.016512703
000030 9a cb b4 3c 7a 23 af bc 2f 0c e3 bb 8b 6a 61 3d
       0.022069741 -0.021379221 -0.0069289426 0.055033248
000040 11 7e 2e bd b7 f4 94 3c 3e d9 58 bd 3a fd 75 bd
       -0.042600695 0.018183095 -0.052941553 -0.06005595
000050 b8 d6 4f bc df af 57 bd 29 58 48 bd 79 40 00 bb
       -0.01268547 -0.052657958 -0.0489122 -0.0019569679
000060 e6 8f 9c bb ca 71 05 bd af 3d 68 3b f7 46 91 bb
       -0.004777896 -0.03257922 0.0035437157 -0.0044335085
000070 f9 5e 5c 3d c1 8b 5e bd 0f 95 e8 3c 3f 4b 49 bd
       0.05380151 -0.0543325 0.02839139 -0.049144026
000080 a5 53 4a 3d 08 d4 5a bc c1 da 75 ba 5a 6e e7 bb
       0.049396176 -0.013356216 -0.0009378605 -0.0070627155
000090 78 a2 9b 3c 9d e6 96 bc 89 09 49 bd 88 72 00 bd
       0.01899837 -0.018420512 -0.04908136 -0.031359226
0000a0 00 0a 4c 3c ab 36 34 3c f2 66 d5 3c 5a 48 44 3d
       0.012453556 0.010999362 0.026050065 0.047920562
0000b0 f8 45 2b 3d d6 9f f4 bc 2d bf 6e bd 70 e2 57 bd
       0.041814774 -0.029861372 -0.05828779 -0.052706182
0000c0 85 7e 3e bd c3 93 08 3c 5f 95 e4 3b ec aa c1 bb
       -0.046507377 0.00833601 0.0069758142 -0.005910268
0000d0 f6 61 bd bb e7 3d 13 3d 29 4d 4a 3d 30 e5 4f bc
       -0.0057795 0.035947707 0.049389992 -0.01268892
0000e0 d9 d5 5d bc a6 72 42 3b c9 05 2a bd 7a f0 d5 3c
       -0.013539755 0.0029670387 -0.041509423 0.026115645
0000f0 23 f7 20 bb 87 de 14 bd 9a a6 86 3b 7a 3c 3c 3d
       -0.0024561367 -0.03634503 0.004109216 0.045956112
000100 bd c8 e2 3c 54 8f 41 3d 53 9d 4f bd 95 da 48 3d
       0.02768361 0.04725583 -0.050687145 0.04903658
000110 fc ad 79 3c eb 72 53 3d ff bf 76 bd 1f bb 35 3c
       0.015239235 0.051623266 -0.060241695 0.011091976
000120 c5 cd 54 3d 6b ae 62 3d 0f e1 43 bd 9b 85 20 bd
       0.05195405 0.05534212 -0.047822054 -0.039189916
000130 8a 8b 7f 3c 6a b3 4b 3d 19 ef 62 bd 99 a4 fb bc
       0.015597234 0.04973165 -0.055403803 -0.030718135
000140 9f 26 0d bd b7 f2 57 3d a2 07 d8 bc bf 95 46 3c
       -0.03446066 0.052721705 -0.026370827 0.012120663
000150 cc 7c b3 3c 90 73 e4 bb 58 b8 7e bd d6 14 ea 3c
       0.021910094 -0.006971784 -0.062187523 0.028574388
000160 4d 8d 2e bc 8a 0a 7c 3d 6c d8 07 3c 3e 83 30 bc
       -0.010653806 0.06153349 0.008291345 -0.010773478
000170 37 da 35 3d 9f 73 1c bd d9 75 62 bc d8 47 6c bd
       0.04439756 -0.038196202 -0.013822042 -0.057685703
000180 f7 f3 8a bc 94 3e 2d 3d e1 ce d8 3c 6f cc 0a 3d
       -0.016962035 0.042296007 0.026465835 0.03388637
000190 fc e0 00 3c 1c 9c 2f 3d ef 27 2f bd 63 c4 60 bd
       0.00786614 0.042873487 -0.042762693 -0.05487479
0001a0 cb d8 61 bd 9b 43 71 3d 5a 0f d4 3c 31 46 66 3d
       -0.05513839 0.058902364 0.025886226 0.056219283
0001b0 35 34 71 bd 27 18 2e bd 52 b2 60 3c c3 2f 8b 3c
       -0.05888768 -0.042503502 0.01371439 0.016990548
0001c0 9a 87 5f bd 1e c7 20 bc bd 14 a6 3c bf db 4c 3d
       -0.05457268 -0.009813098 0.02027356 0.050014254
0001d0 f5 2c 3b bd f0 ef 90 ba 46 e8 8f bc c7 e8 a4 36
       -0.04569717 -0.0011057835 -0.017566811 4.9146797e-06
0001e0 37 4f 27 bd b2 c2 e4 bc 8d ab ea bb 94 f9 c1 bc
       -0.04084703 -0.02792487 -0.0071615637 -0.023678578
0001f0 0b 35 2a 3d 0e 5b 0a bc 97 87 3a 3d 7f 84 83 3c
       0.041554492 -0.008444561 0.045539465 0.01605439
000200 3e 05 db 3c d9 79 b4 bb 45 73 8b bc 2e bf 53 bd
       0.026735898 -0.0055076894 -0.017022738 -0.051695995
000210 ba 83 00 3b 2f 6d 02 3d d2 ee b5 bc bd 4d 2e bd
       0.0019609765 0.031842407 -0.022208605 -0.042554606
000220 96 38 aa bb ce 09 13 3c e4 04 1a bd 01 03 f8 3c
       -0.005194734 0.008974506 -0.03760232 0.03027487
000230 dc 65 25 bd 45 bc a1 3b 58 bc 35 3b 0a 9a 0c 3d
       -0.040380344 0.0049357736 0.002773067 0.03432659
000240 dd c3 4a 3d 02 44 11 bb 99 0d 8e 3b f5 87 5f 3c
       0.049503196 -0.002216578 0.004335117 0.0136432545
000250 c6 0d 36 3d 57 87 8b bb 6d 7b 71 bd 2d 3a e2 3c
       0.04444673 -0.004258077 -0.0589556 0.027615631
000260 da a4 7f 3d 83 e0 45 bd 28 a0 0e bd 35 1f 9f 3c
       0.062413074 -0.048309814 -0.034820706 0.01942406
000270 8b 1b 4a bd 18 6a 59 3c bb 60 70 bd f5 29 47 bd
       -0.049342673 0.013269924 -0.058686 -0.048623998
000280 60 c8 44 bc 5b f4 08 3d 9d 28 02 3c 22 e8 87 3c
       -0.012010664 0.03343616 0.007944253 0.016590182
000290 97 4b 00 bd d7 d6 10 bd 26 97 87 3c 9f fb 77 3c
       -0.031322088 -0.035361137 0.016551565 0.015135675
0002a0 06 23 c3 3c 2b cc 33 3d 96 29 86 3c d9 55 ad 3c
       0.023820411 0.04389588 0.016377252 0.0211591
0002b0 02 6c ea 3c 83 d5 41 bd 25 fc 11 3b c9 9c 17 bb
       0.028615955 -0.04732276 0.0022275534 -0.0023134223
0002c0 b5 fe 03 bb 90 5f 3e 3d 60 79 7c bc a1 56 f2 bc
       -0.002014083 0.046477854 -0.015409797 -0.029582324
0002d0 f7 5e 40 bc f9 e9 09 3d ac 0d e5 3c 50 c0 ab 3a
       -0.011741391 0.0336704 0.02796062 0.0013103578
0002e0 4d 75 34 bd 27 98 17 3d 15 4f 53 3d 44 a7 02 3d
       -0.04405718 0.03701034 0.05158909 0.0318978
0002f0 d2 d0 ac bc 5f 49 6a bd 67 c7 eb 3c 8b d7 92 3b
       -0.021095667 -0.05719888 0.028781606 0.004481261
000300 bb 7e 79 3d 58 18 24 3c fc 53 6a 3d 86 22 35 3c
       0.060911875 0.01001557 0.057209 0.011055594
000310 63 b6 66 3d ee 79 a1 bb 81 d3 4e bd 60 5a 19 bc
       0.05632628 -0.004927865 -0.050494675 -0.009359926
000320 5e d8 4b 3d 3d 4a 3c bd 39 c3 17 3d c0 e0 a5 3c
       0.04976689 -0.045969237 0.037051413 0.02024877
000330 bb de 6a bd 15 cc e2 3c 78 5a 31 bc 61 37 75 bd
       -0.05734132 0.027685205 -0.010824792 -0.059867267
000340 bb 31 46 bd 40 28 5a bc 01 27 fd 3c 63 11 27 3d
       -0.04838727 -0.01331526 0.030902388 0.040788066
000350 9f 88 3d bd 3b 75 16 bd 57 fe 28 bd a5 d2 78 bb
       -0.04627287 -0.036732893 -0.041258182 -0.003796735
000360 a8 38 2d bb 66 2f dc bc 24 03 f5 3c 01 eb 6e bd
       -0.0026431475 -0.02687807 0.029908724 -0.058329586
000370 e9 ab fe 3b 3e a5 cc 3a 64 23 96 bc 01 43 32 bd
       0.007771958 0.0015613211 -0.018327422 -0.04352093
000380 5e c7 bd 3c 87 99 5b 3c b2 db aa bc cf 50 77 3c
       0.023166355 0.013403303 -0.020856712 0.01509495
000390 41 30 26 bd 92 3e 32 3d e6 0a db ba 44 7d 69 3d
       -0.040573362 0.043516703 -0.0016711622 0.05700423
0003a0 65 9e f8 3b b0 4a 65 bc ed e7 68 bd b6 12 ff 3b
       0.0075872415 -0.013994858 -0.056861807 0.007784213
0003b0 1c 55 c9 3c 19 ee 55 bd 06 8f 02 bd b1 4c b7 3b
       0.024576716 -0.05222902 -0.03187468 0.005593859
0003c0 48 9d 26 3c 6a 7b 16 3b 86 71 13 3d 39 2b 7d bd
       0.010169335 0.0022961744 0.035996936 -0.0618088
0003d0 7f aa 7b 3d 87 db 5e bd 45 33 40 bd 4d 48 2b 3d
       0.061441895 -0.054408576 -0.046923894 0.041817
0003e0 31 2a af 3c 83 05 7b 3d 73 9a c2 bc 09 c2 1a 3d
       0.021382423 0.061284553 -0.023755288 0.037782703
0003f0 52 6c f5 bc ad 41 52 bd 7b 3f 56 bc 5d 8c 3c 3d
       -0.029958878 -0.051332165 -0.013076658 0.0460323
