results/PokerCheckpoints/PPO_CardGameEnv_2b391_00000_0_2024-05-12_16-27-16/checkpoint_000004/learner/module_state/default_policy/module_state_dir/module_state.pt (torch, 815815 bytes, 11 tensors)

encoder.actor_encoder.net.mlp.0.weight f4 [256, 8]
00000000: a6be 943e e703 e23b 57c3 8bbd 421c 943d
00000010: d1f2 ff3c 94fe 07be 5f08 753d 46ee 6a3d
00000020: e8d2 2ebd f216 a83c 6bb6 d0bd 8291 443e
00000030: 6fb0 493e ec34 853e 3fe8 293d 6b46 b83c
00000040: 66cc c2bd 0636 fa3d 9212 913e 503c 033e
00000050: 8002 9ebe 7b7d 59ba 6f71 233e da55 88be
00000060: dc25 113e 1b94 833e 81a3 80be 3304 813e
00000070: 1a85 c0be 3247 803e 3940 f53d 3241 c53d
00000080: 749e 1abe f123 b63e 6eff bc3d ee5d 51be
00000090: 938d 933e 680e 1ebe 0fdb 283e cf3d aebe
000000a0: 575c 4a3e 3127 4bbe 7cad 64be efa3 49bd
000000b0: 580e a73e ce35 98bc db5b 263e 77cc ba3d
000000c0: 78d6 5a3d b0e2 383e e335 293e a011 95be
000000d0: b34f 983e 0e0d 923b e0db 60be 72ad 8ebe
000000e0: ab34 753d 7d27 70bc 9224 e23b 88c7 b3be
000000f0: 728c aabc 22d0 083e 049a 803e e12b c33d
00000100: a0d6 0fbe b002 60be 9725 853e b013 8cbe
00000110: 8bea 323e be8c 85be 0a5a 6fbe 0ba9 9a3e
00000120: ab85 85be 7178 8d3e 9d91 f03d ffa9 11bd
00000130: e4ab 91be 310b 8bbe d350 cfbd f88a a13e
00000140: 8260 97be 0257 a2be 068c 763d 9a7a a33e
00000150: bd45 7a3c 8004 bc3d 2764 223e d548 2bbd
00000160: 6ca5 573e f158 bb3e acc3 153e eb34 e6bd
00000170: 51d8 053d f988 60be 864b 2d3e e7fa 2f3e
00000180: 3948 a8bd 22c7 98be ec13 89be 3417 353e
00000190: 6edb 4c3d 956e 5c3e 0947 033d ac25 a1bd
000001a0: 72e1 473d 2654 573e e026 a93e f10c 72be
000001b0: d843 57bc c4f1 8dbe f9c6 14be 32af 10be
000001c0: c62b 7cbe 86ef 47be dbb3 b93e 114e 51be
000001d0: 8230 f3bc 6506 42be e49e 543e 2221 573e
000001e0: 16f1 8dbe ffc9 33be 9d2d 0dbe 4519 0bbe
000001f0: 2f87 1c3e 5e99 d93d 86f3 d3bd 29c3 5bbe
00000200: 2eb7 b33e 0da2 c53d e69e acbe a283 ebbd
00000210: ed15 98be 9c37 11be 25f9 a0be f533 af3e
00000220: 131d 933d d316 ab3d e19d 43be cb71 653d
00000230: ee50 b5bc f716 0f3e 7ab5 8ebe 7805 733e
00000240: 81a9 a83e f09b c1be 7bbe 733e dffb 97be
00000250: 27a9 77be 1a97 6e3e ed55 963e 1435 813e
00000260: 485b c83b 8ea7 a0be ee1f 5e3e b57c 883e
00000270: 6985 10bd f7b6 323e 3159 7a3e cd07 94be
00000280: 7a42 983d 2cfb 773e 872c d93d 541e b1bc
00000290: e2ff 203e dbcd ea3d 259c 92be 1ce2 5d3e
000002a0: 497e 5fbe e89d 9e3e 4f4e 91bd 9c99 1fbe
000002b0: 91a8 9a3e 06c7 87be d221 29be e92e 1cbe
000002c0: be9b e1b9 c7c4 c63d b359 cdbd 9676 753e
000002d0: 2c4b 993e bada 353e 2b78 ee3c fd76 103e
000002e0: 9753 2bbe 21fb 10be 2731 353e 9899 583e
000002f0: d9df ca3c 28ab 183d f416 adbe 5e39 e6bd
00000300: f6c5 9dbe 04be a0be 271f 8c3e 0e25 5e3e
00000310: e314 50be 7ce3 963e 8317 683d 3571 44bc
00000320: 4a70 eb3b 8023 853e 2fde 083e 047b e93c
00000330: fe9b b0be fd7c 013c a641 92be c7ea f23d
00000340: 7821 8fbe 085a b43e 645e f5bd e1ca b2be
00000350: 18b6 51be 2fb0 b93e f9b9 41be ebc0 38be
00000360: d8a3 903e 4bd0 7dbe 5c34 933e fa48 80be
00000370: 932f 4abe 2f19 cbbd f6fa 513c c509 b2be
00000380: dc7c 01be 847e 983d e5f6 da3d 164b 85be
00000390: fce1 2d3e ad1c d33d 14c0 803e a426 87be
000003a0: f567 ac3e d745 643e fcee 36be c4bf 1fbd
000003b0: 48d3 9abe 1f75 47be a1fb 563c e135 8dbd
000003c0: d8db 323e ca48 c33e 87f9 28be 8d65 eb3c
000003d0: 3618 9f3d 03d1 223d 36e0 8b3e 2231 963d
000003e0: 943c 6e3e a548 013e edf2 803e 313a 47be
000003f0: e43e 973e 523c 8dbc dd9f 9f3e 2114 ab3d
0.29051703 0.006897438 -0.068243675 0.07231952 0.031243714 -0.13280708 0.059822436 0.05735614
-0.042681605 0.020518754 -0.101910435 0.19196132 0.1969621 0.2601694 0.041481253 0.022494515
-0.09511642 0.122173354 0.2833448 0.12815976 -0.30861282 -0.0008296591 0.1596124 -0.26628
0.14174598 0.25698933 -0.25124744 0.25198516 -0.37601548 0.25054318 0.1197514 0.09631576
-0.15099508 0.35574296 0.09228407 -0.20445988 0.2881895 -0.15435183 0.16489814 -0.3403153
0.19761787 -0.19839169 -0.22331804 -0.049228605 0.3262813 -0.018580344 0.16245978 0.0912103
0.05342719 0.18055224 0.16524462 -0.2911501 0.29748306 0.0044571226 -0.21958876 -0.27866703
0.05986468 -0.014657852 0.006901332 -0.35113168 -0.020818923 0.13360646 0.25117505 0.095298536
-0.14046717 -0.21876025 0.2600524 -0.2735877 0.17472284 -0.2608394 -0.23374191 0.30207095
-0.26078543 0.27630952 0.117465235 -0.03556251 -0.28451455 -0.27156976 -0.10122838 0.31551337
-0.29565817 -0.31707007 0.06019213 0.31929475 0.015275416 0.09180546 0.15858518 -0.041817505
0.21059197 0.36591294 0.14625424 -0.11240562 0.032677 -0.21927251 0.16923341 0.17185555
-0.082169004 -0.29839426 -0.26773012 0.17684633 0.050013952 0.21526559 0.032050166 -0.078685135
0.048798986 0.21028194 0.33037472 -0.23637749 -0.013138734 -0.27723515 -0.14529027 -0.14129332
-0.24626073 -0.19524965 0.3627003 -0.20439936 -0.029686216 -0.18947752 0.20763737 0.21008733
-0.27722996 -0.17557524 -0.13786931 -0.13583858 0.15285943 0.106249556 -0.10349183 -0.21461166
0.35100693 0.09650049 -0.3371498 -0.11499716 -0.29704228 -0.1418137 -0.31440082 0.34219328
0.0718328 0.08353963 -0.19103195 0.056016725 -0.022133317 0.13973604 -0.2787283 0.23732555
0.3294182 -0.37814283 0.23803131 -0.2968435 -0.2418562 0.23299828 0.2936243 0.25235808
0.006114397 -0.31377834 0.21691868 0.26657644 -0.03528348 0.17452608 0.24448086 -0.28912202
0.074345544 0.24216908 0.10604196 -0.021620907 0.15722612 0.11465045 -0.28634754 0.21668285
-0.21825518 0.30979848 -0.07095014 -0.15585941 0.3020673 -0.2651903 -0.16516808 -0.1525227
-0.0004303138 0.09705501 -0.100268744 0.23971018 0.29940164 0.17759219 0.029110035 0.1410789
-0.16731106 -0.14158298 0.17694531 0.21152341 0.024764942 0.037272602 -0.33806574 -0.11241411
-0.30815095 -0.3139497 0.27367517 0.21693823 -0.20320468 0.29470432 0.056663048 -0.011989881
0.0071850168 0.26003647 0.13366006 0.028501041 -0.34494013 0.007903335 -0.2856571 0.118611865
-0.27955222 0.35224938 -0.11980894 -0.3492041 -0.2047962 0.3626723 -0.18918599 -0.18042342
0.28250003 -0.24786489 0.28750885 -0.25055677 -0.1974471 -0.09916913 0.012816181 -0.3477308
-0.12645286 0.07446006 0.10691623 -0.2603385 0.16980737 0.10308204 0.25146544 -0.26396668
0.33673063 0.22292267 -0.17864603 -0.03900124 -0.3023932 -0.19478272 0.013121516 -0.06895042
0.17466676 0.3814147 -0.16501437 0.028734947 0.0776829 0.03975011 0.27319497 0.0733359
0.23265296 0.12625368 0.25185338 -0.19455792 0.2954017 -0.017240677 0.31176654 0.08353449

encoder.actor_encoder.net.mlp.0.bias f4 [256]
00000000: 4eb8 84be 1e05 783e b396 73bd 5d8f 0c3e
00000010: d7e1 803e 85d0 98be fbdb d03c bc9c 09be
00000020: 325e d2bc 6979 383e ac79 d5bd 3f78 ebbd
00000030: e989 65bd 52d0 62be b4c1 30be 89a6 32bc
00000040: 140b dabc f544 a5be bdc4 02be 291d 9a3e
00000050: b8da 77be 1e86 9ebd 2a83 313d b7cc 16be
00000060: 1c28 83be 09a5 c73d 7e9d 6fbe 66c1 87be
00000070: 9828 673e 92c5 f43d fbae 283e 7052 913d
00000080: d64d 29bd d565 483e e476 a1bd ffaa d3bd
00000090: ab09 283d 2278 23be d1e0 89be f155 0cbd
000000a0: e1d5 01be a6f7 b5bd 84ec 703e b35f b4bc
000000b0: e96a 52be da51 bdbd 0d26 c3bd 3773 2b3d
000000c0: 1bff dc3d 0f5a ad3e 832e 033d f7e7 30be
000000d0: 5ad2 88bb 4e60 a8be 0291 15be 46b8 293d
000000e0: b6f0 94be f400 16be 82d8 37be 01e3 1fbe
000000f0: 4e09 cdbd 94c7 183d 09dc 9e3d b811 803c
00000100: b8f5 683c faf8 e1bc 1c06 f0bd 3e67 e3bd
00000110: 7311 d437 ea65 b73d 436c 1dbe a3a1 0d3e
00000120: 4fe2 503e cdce 593d 0ed3 32be cf1f 7a3e
00000130: 49b7 363e c2f2 55bd d06b 87be f7ad 553e
00000140: 4b07 9e3d 4f9d 2fbd 2f41 31be 03f8 b0be
00000150: fd7a 00bd 6261 7ebe a2f9 893d 5739 ac3e
00000160: 1083 b13e 9013 d63d 55c8 9f3e bc8d 593e
00000170: bb52 85bd 89a8 9fbd 3581 3ebd eb55 3cbe
00000180: 9d02 c33d 63e1 e3bd 21dc 0f3d 6c36 6d3d
00000190: 0643 ea3d 2022 f33d cdba 30be 8932 00bd
000001a0: df57 25be 0e2e 4f3b 6747 a53e 8593 5c3d
000001b0: 3b41 86be 6a5a ac3e c254 b73e eb93 823e
000001c0: a3e8 933d eab8 bbbd df8e 87be 5c26 a0be
000001d0: 97da 38be 1df8 0bbe c846 b1be be67 13be
000001e0: 49db a0be dc14 963e aad7 0a3d 6cfa 35be
000001f0: 63e3 5d3e 12df 453e 63d5 893d c5f8 173e
00000200: 91ba 3d3d fd42 563e 0633 98be 9048 033e
00000210: 555c 773e 6579 53bd fad8 893d ad45 9f3e
00000220: 1b4d 08be 3f91 6d3e 5e87 e73d 4eb1 e03c
00000230: 6657 b03e bfb9 84be f270 92be e730 b6bd
00000240: 4852 0dbc 7afd 73be 98a1 4abe fa03 9bba
00000250: 4223 7b3d 7691 9cbe a170 16be 2f32 2b3e
00000260: 72c2 8c3d 3498 7b3d 14cd a1ba 31ed 19bd
00000270: 951d 3f3e 6794 a7be c8cb 8d3e 8aeb d63d
00000280: e7b9 6abe 3798 163c 8193 a6bd e26c 8a3d
00000290: 4f60 1f3e 7a63 b03d 9db8 f6bd 252f a5be
000002a0: f5a3 61be 96df f7bd cf1e 51be 2172 f7bd
000002b0: ea4f a93e 034e 803e 2725 3bbd a9df a13e
000002c0: 2150 64be d2a1 13be 4b77 38be a8e3 a8be
000002d0: d6d4 a2be 63e9 24bd 5ca5 7bbe 3842 023e
000002e0: 3ceb 363e 0d7e 8a3e 0af3 aa3e 74c4 b23e
000002f0: 4ca7 e33d 28b5 69be 7a70 003e c541 9c3e
00000300: 2881 a93d fa73 813e 5f56 733b c6c8 143d
00000310: e663 99be 9eed e53d 7466 643e 8e71 8ebe
00000320: ac0c 043e a044 2ab9 c616 9c3e 7979 fc3d
00000330: 24db 61be 53f1 31be 7e87 afbe 4bb4 573c
00000340: 1bd2 fdbd a347 943e 0f78 7ebe ca27 513e
00000350: e8da 59bd 722a 843e 124b aa3e 648b af3e
00000360: 7338 3b3e e0c9 eb3d fc9f 6f3e 5b2c bebd
00000370: 29f5 993e 562d 30bc dd6e 083e e052 df3d
00000380: 60d7 ea3c 4705 e6bd 201f 97bd d59b a5be
00000390: a5e0 eebd b9ac b0be b41d eabd a2aa 46bd
000003a0: 56af a73e 6c8a 803e fbcf 3c3e 8a52 d2bd
000003b0: 9af4 a0bd 5008 95be 5dd0 8f3d 38d8 9e3e
000003c0: 67ad a3be 4663 523e 87b4 6e3e 0a1f 963e
000003d0: 8ca5 b53d 8fa6 98bd a646 d1bd 0d0a 5b3d
000003e0: 0b6d ba3e c110 52be 2a38 97bd b6f6 09be
000003f0: 4d53 82bd 5deb 56bc 1f83 8a3e df36 813e
-0.25921863 0.24220702 -0.05946989 0.13726564 0.25172302 -0.29846588 0.02549552 -0.13438696
-0.025679681 0.18015064 -0.10423598 -0.114975445 -0.056039724 -0.2214978 -0.17261392 -0.010903963
-0.02661661 -0.32279173 -0.12770362 0.30100372 -0.24204528 -0.077404246 0.04333798 -0.1472653
-0.2561654 0.09748275 -0.23399922 -0.2651474 0.22574079 0.11951746 0.16473 0.07095802
-0.041333996 0.19570096 -0.07884005 -0.10335349 0.041024845 -0.15963796 -0.26929334 -0.034261648
-0.12679245 -0.08885126 0.23527724 -0.02201829 -0.20548595 -0.092441276 -0.09528742 0.041857924
0.10790845 0.33857772 0.03202678 -0.17275988 -0.0041754665 -0.32885975 -0.14606097 0.041435502
-0.29089898 -0.14648801 -0.17953685 -0.15613939 -0.1001154 0.037299708 0.07756812 0.015633449
0.01421874 -0.027584542 -0.11719915 -0.11103676 2.5280495e-05 0.089549854 -0.1537333 0.13831191
0.2039883 0.053175736 -0.17463323 0.24426197 0.17843355 -0.052233465 -0.26449442 0.20867144
0.07716235 -0.04287463 -0.17310022 -0.34564218 -0.03136729 -0.24841836 0.06737067 0.33637497
0.34670305 0.1045295 0.3120753 0.21245474 -0.0650992 -0.077958174 -0.04650994 -0.1839215
0.09521983 -0.111269735 0.03512204 0.05791323 0.11438565 0.11871743 -0.17258759 -0.031298194
-0.16146801 0.0031613144 0.32281038 0.053851623 -0.26221642 0.3366273 0.35806853 0.25503477
0.07222106 -0.09166129 -0.2647619 -0.31279266 -0.18052135 -0.13668866 -0.34624314 -0.14395043
-0.314173 0.2931279 0.03389708 -0.1777131 0.21668772 0.19323376 0.067301534 0.14840992
0.0463205 0.20923992 -0.29726428 0.12820649 0.24156316 -0.051629443 0.06730838 0.31107846
-0.13310663 0.23199938 0.11305116 0.027428295 0.3444168 -0.25922963 -0.28601795 -0.08896046
-0.008625574 -0.23827162 -0.19788206 -0.0011826747 0.06131292 -0.30579728 -0.14691402 0.16718362
0.06873025 0.06142445 -0.0012344443 -0.03757972 0.18663628 -0.3273041 0.27694535 0.10494144
-0.22922479 0.009191564 -0.08133603 0.06759049 0.15564083 0.08612724 -0.12046931 -0.3226253
-0.22035201 -0.121031925 -0.20421909 -0.12082315 0.33068782 0.25059518 -0.045689728 0.31615952
-0.22296192 -0.14417198 -0.18014257 -0.32986188 -0.31803006 -0.040261637 -0.24574798 0.12720573
0.17863172 0.27049294 0.3338855 0.34915507 0.11115894 -0.22823012 0.12542906 0.30518928
0.08276588 0.25283796 0.0037130339 0.036324285 -0.2995903 0.112269625 0.22304708 -0.2782101
0.12895459 -0.00016238028 0.30486125 0.123278566 -0.22056252 -0.17377214 -0.3428306 0.013165544
-0.1239359 0.28960904 -0.24850486 0.20425335 -0.05318728 0.25813633 0.332604 0.34286034
0.18283252 0.11513114 0.23400873 -0.09285804 0.30069855 -0.010752996 0.13323541 0.10904479
0.028667152 -0.11231475 -0.073789835 -0.32345453 -0.11663941 -0.34506777 -0.11431447 -0.048502572
0.32750958 0.25105608 0.18438713 -0.10269649 -0.07859154 -0.29107904 0.07022164 0.31024337
-0.31968233 0.20545682 0.23311053 0.29320556 0.08869466 -0.074536435 -0.10218553 0.053476382
0.36411318 -0.20514204 -0.07383759 -0.13473019 -0.063635446 -0.013117638 0.27053162 0.25237176

encoder.actor_encoder.net.mlp.2.weight f4 [256, 256]
00000000: 1695 07bd b4ac 24bd f03d 27bd 03fc 203c
00000010: 043b 47bc f3ee 893c 5f7a 103d c830 e5bb
00000020: 24e5 fb3c a1cf 8fbd eb4d 26bc b33f c73c
00000030: 70b4 adbc 1cff b6bb ac79 94bd 5e96 123d
00000040: 374e 803d de94 c0bd 4367 063c dc9c 613d
00000050: fe3c 753d 3cf7 d23b 9300 d4bc ad55 ffbc
00000060: 4c18 abbd 6dca 1abd 0fb0 37bd e473 e3bc
00000070: ec8f 62bc a1fa 933d 17c0 3dbd 75ab 913d
00000080: d4f8 ca3c 7ac5 1e3d 0245 433d f56d 6b3d
00000090: ca90 0c3d 12a4 d8bc e872 7bbd 9e9e d8bc
000000a0: 1859 3dbd 489f babd 4957 bb3b 5e26 863d
000000b0: bed7 293d 363a 38bc 9911 f23b fa06 4a3d
000000c0: 6b37 fcbb a1c9 2f3c 8561 78bd f8eb 9ebc
000000d0: a0b9 073d dda2 1c3c 7d58 9f3d be65 2fbd
000000e0: 0d2f 62bd b1b7 e63d f983 3abd 8962 a23a
000000f0: 5dcc ad3c 7d60 00bd 1ebc e93c d23b a2bc
00000100: 6f58 803d 378b 46bd b8e1 e3bb 1889 38bc
00000110: 20ee 303c f241 cd3c 1b7d 5bbd 67a1 4abd
00000120: e865 cabc ea34 4c3c dae1 c63c 033d 323d
00000130: dd08 a63c 5ca4 0ebd 271e 02bd e8b1 8fbd
00000140: 0a32 9c3c 8174 60bc c13f fcbb bb6b a5bd
00000150: 2aa7 75bb b83c ba3d 7242 f83d bfe1 a63c
00000160: 2ab0 e1bc ff65 333d 8cba 0d3c 6564 80bd
00000170: 7d39 8f3d 189a 89bd 7058 a03c 4c2d 7e3d
00000180: e72d 8c3d b274 9f3c ef76 f73c c23a 2abd
00000190: 5426 0b3d 8538 083d a22f 0b3c fd7d a0bc
000001a0: 8f7e c2bc 41f0 f83b ecf4 14bd a654 febc
000001b0: e2d1 41bc 8322 bbbd ad1a 99bd 526f 7c3c
000001c0: 6f38 72bc bf72 023d c3ea f7bc 6332 843d
000001d0: 2e6f 14bd ea87 46bc 3ee2 503d 3700 29bd
000001e0: e89e 3bbd 69d7 adbd ee83 b7bb dbdd 323b
000001f0: 665e 17bd b9bb 6dbd a01d 36bd d8eb 52bc
00000200: 9ed5 603d eb6b 4c3d d907 ee3c ce2e 56bd
00000210: 03c0 5ebd db09 c7bc b5c8 9b3d 657b a23a
00000220: a5ba 603d 62d9 d8bc 9ede 3ebd c808 76bd
00000230: cbf3 413b 3c12 163d 7b7a 093d 9a0f 6b3c
00000240: d54c 06bd 37be 2abc dafa 19bd fa61 3e3a
00000250: e73b d43b 52bf 85bd b204 b23c 3626 29bd
00000260: 265d 72bd b70e 30bd 67e6 a0bd fb9f 8fbd
00000270: e141 80bd b895 683b 9d58 93bc 52fc 2bbd
00000280: 999a 803d b270 89bc de04 7f3d bace 3f3d
00000290: 8576 11bd dd8c d9bc 1be6 0cbd 9018 83bc
000002a0: 4507 6fbd 27c7 e2bc 9f1e 7abc 929e 6abd
000002b0: f728 8cbd db33 403c 2627 f9bb 1ae9 9fbd
000002c0: f8ad c93c c4b8 c03d 6751 01bc 89fb 473b
000002d0: 28b9 2f3d 7ea6 6abd 6f6d e0bc 71d2 bebd
000002e0: 1fe9 9a3c 4260 49bd 3040 b03c cf2f 16bd
000002f0: 0f52 a4bd f7b8 0c3b 2350 97bb 5f19 09bc
00000300: f9bf 613d dfbd aabd 046a eebc 1850 70bd
00000310: 9630 0d3d 1c9d 813d f9ae 96bc 7e37 d7bc
00000320: 5fc6 423d 264e 61bd d028 093d 5265 7a3d
00000330: 3b77 5b3c 1fba da3c 9afb c938 6372 183d
00000340: 6b2a 0abd 75a9 d13c bf00 edbc 28f4 043d
00000350: f1ae febc e9fb 8c3d fcce 883d 4779 043d
00000360: 815d 433d bc51 1ebd bfa2 833d b4fa 853d
00000370: 1bec a5bc bbbd 723d e2ca 90bd 9efe 833d
00000380: 225f 7dbd e228 e1bc 764d b93c 0970 b0bc
00000390: 4859 12bd 1725 acba 28bd 983d 9e33 7bbc
000003a0: ba99 c0bb 7f4a 883d 0149 e0b8 4165 47bd
000003b0: 093e 86bd 4704 b53c fea7 c73c bc83 373c
000003c0: 77ff 0bb8 c35a 83bd 380d 023d fc49 303c
000003d0: 4a01 f53c 9ff0 febc 6a72 c3bc 5794 2b3c
000003e0: d39f eb3c 8369 783d 2b27 50bb 8035 9cbc
000003f0: 4007 9abc 2c01 7abd 6ad1 3abc 6657 713d
-0.033101164 -0.040203765 -0.040830553 0.009825709 -0.0121600665 0.016837573 0.035272952 -0.0069943406
0.030748911 -0.07022024 -0.010150413 0.024322366 -0.021204203 -0.0055846106 -0.072497696 0.035787933
0.06264918 -0.09403394 0.00820333 0.055081233 0.05987262 0.006438164 -0.02587918 -0.031168783
-0.08354244 -0.037790705 -0.044845637 -0.027765222 -0.013828259 0.07225538 -0.04632577 0.07112781
0.024776854 0.038762547 0.047673233 0.05747791 0.03431777 -0.026445422 -0.06138888 -0.026442822
-0.046227545 -0.09112412 0.0057171923 0.06550287 0.041465513 -0.011244347 0.0073873517 0.04932306
-0.007697036 0.010729224 -0.060639877 -0.019399628 0.03313601 0.009560314 0.0778055 -0.04282164
-0.055220652 0.11265505 -0.045536015 0.0012388985 0.021215612 -0.03134202 0.028532084 -0.019803915
0.06266867 -0.04847261 -0.006954398 -0.011263154 0.010798961 0.02505586 -0.053586107 -0.04947033
-0.024706796 0.012463788 0.024277616 0.043515217 0.020267898 -0.034824714 -0.031767037 -0.07016355
0.01906683 -0.013699652 -0.0076980297 -0.080771886 -0.003748367 0.090936124 0.121220484 0.020371316
-0.027549822 0.043798443 0.008650433 -0.06269149 0.06993387 -0.06718844 0.01957342 0.062054917
0.06844693 0.019464824 0.03020808 -0.041559942 0.0339721 0.033257026 0.008495243 -0.019591326
-0.023741988 0.007597 -0.03636639 -0.031046223 -0.011829825 -0.09137442 -0.07475791 0.0154074
-0.014783963 0.03184771 -0.03026331 0.06454923 -0.03623884 -0.012117365 0.05099701 -0.04125997
-0.04580584 -0.08488352 -0.005600444 0.002729288 -0.03695526 -0.058040354 -0.044461846 -0.012873612
0.05489122 0.049907606 0.029056476 -0.05229073 -0.054382335 -0.024296692 0.07606641 0.0012396394
0.054865498 -0.026470844 -0.046599023 -0.06006697 0.0029594775 0.036638483 0.033564072 0.014346981
-0.032788116 -0.010421327 -0.037592746 0.00072625245 0.0064768675 -0.06530632 0.021730755 -0.041296206
-0.059170865 -0.042982783 -0.07856446 -0.07012936 -0.062625654 0.003548963 -0.01798659 -0.04198868
0.06279487 -0.01677737 0.0622605 0.04682801 -0.03551342 -0.026556427 -0.034399133 -0.016002923
-0.058356542 -0.027682854 -0.01526609 -0.05728013 -0.06843751 0.011731113 -0.007603544 -0.078081325
0.024619088 0.09410241 -0.007892943 0.0030514917 0.042901188 -0.057287686 -0.027395932 -0.09317482
0.018909989 -0.049164064 0.021514982 -0.036666688 -0.08023464 0.0021472552 -0.0046177073 -0.008367865
0.05511472 -0.08336996 -0.029103287 -0.058670133 0.034470163 0.06328794 -0.01839398 -0.026271578
0.047552463 -0.05500617 0.033486187 0.061131783 0.013395126 0.026700078 9.631291e-05 0.037218463
-0.03373186 0.025593499 -0.02893102 0.032459408 -0.031089278 0.068839855 0.06680104 0.03234222
0.047696594 -0.038652167 0.06427526 0.065419585 -0.020254185 0.059262972 -0.07069947 0.06445049
-0.061858304 -0.027485315 0.022619944 -0.021537798 -0.035729676 -0.0013133612 0.07457954 -0.015332131
-0.0058777006 0.06654834 -0.000106947504 -0.048680548 -0.06554801 0.022096766 0.024372097 0.0112008415
-3.3378103e-05 -0.06413796 0.031750888 0.010759827 0.029907841 -0.031120596 -0.023858268 0.010472379
0.028762734 0.0606475 -0.0031761627 -0.01906848 -0.018802285 -0.061036274 -0.011402467 0.05892124

encoder.actor_encoder.net.mlp.2.bias f4 [256]
00000000: 995f 783d fdd5 9e3c c2e9 f03b 5f18 4fbc
00000010: d224 b53c 3445 b83c 2bcb 8c3c cd4a 3e3d
00000020: 7223 f93c dcfa 46bc 1c35 9a3c 7576 503d
00000030: bb34 bcbb cc73 683c 0138 44bd ea53 4fbd
00000040: ed80 35bc 838d 193c f246 8c3d fc58 7e3d
00000050: 7997 67bd cd83 da3b 38c3 16bd 6488 7b3b
00000060: 4d0b 9cbc 8918 76bd 62a6 853d 80a2 153d
00000070: bffd 183d 8e41 f4bc e1d3 fb3c 2978 96bc
00000080: 3e59 74bd 14c3 0abd 2702 1a3c a82d 99bc
00000090: b056 58bc 3635 c8bc 4db1 ab3c ab71 3f3d
000000a0: a387 1cbd 7b4d 61bc 2c4d 583d 0a1d f0bb
000000b0: 83b0 01bd 54e5 0fbd a943 40bd 4788 d53b
000000c0: 5c2a fdbb 5729 1cbd d2da 13bd 7c08 a33b
000000d0: d785 0ebd ea81 6dbd 70c9 8b3b 444b 89bd
000000e0: 223b dcba 2f40 b7bc f4ac 433d 11ef c3bc
000000f0: 0111 6ebc a370 8e3d 4c4b a5bb 3498 653c
00000100: 6a53 013d 1ea9 4d3d 5c0a 413c d441 553d
00000110: 07c8 f23c 471f e4bc 3238 edb9 a0fd 043d
00000120: 4da7 f23b 174e ea3b cd3a 1b3d 92a4 83bd
00000130: 0d5a 75bd 62bd 60bd df43 503d 65f5 dc3b
00000140: 2f03 34bd ab9a 2d3a e162 68bd 587c 4dbd
00000150: 9d9e 313d dd92 45bd 0f59 af3c befb 8e3d
00000160: f3e4 013d 6012 2cbd 4612 1d3d 1a44 0d3d
00000170: 2b38 f63c 53a5 a83c 0c47 e6bb 9262 513d
00000180: 08af 613d 77dd 203d caa7 eabc 5302 4e3d
00000190: 4bca febc 4421 723c e090 633d ca69 913c
000001a0: 0a4a 13bc 3ad8 103d 3a22 713c 0632 0abc
000001b0: 7c2a 38bc 0893 1d3d 3b8a 573d d38f c3bc
000001c0: de5b 503c e63f 013d 560f 133d c899 8f3d
000001d0: 55db 03bd eca8 33bc 7d92 e6bc 43fc 7b3d
000001e0: 8d72 00bd 9309 2f3b a32a 1ebd 4271 343d
000001f0: acf3 c43c 69cb a63c c0da 72bd 6945 50bd
00000200: 0fb8 93bc 0897 673d f3ab 5e3d d212 5dbd
00000210: e093 1c3d f4ab 9b3c 70be c93c 0ea3 c33a
00000220: e0d5 523d fedb a13a 9ee7 813d ec35 4fbd
00000230: 3062 353d fc61 7a3d 3b33 0b3d 2f24 ff3c
00000240: c50a 51bc d04a 6ebd ba11 b43c 075a cebc
00000250: 3f5a 0f3c d9ab 823d c449 3abd c7bd fbb9
00000260: ebf4 0dbd 9dd3 84bc 80ec 8ebc ad37 dcbc
00000270: 6582 be3b 683e cabc 7175 343b ea00 dbbc
00000280: 840e 623d cfdf efbc 339a 7fbb 114d 08bc
00000290: 90b1 153c bf60 eb3b 8713 823c c832 823d
000002a0: 2c6f 8a3c 27d3 42bc e451 1f3d ea9b 18bd
000002b0: 97e8 32bb c48b 9d3c 373f 61bd 431e 2ebd
000002c0: 6bc4 b6bc 9dde 793d b592 2a3c 2998 98ba
000002d0: ea90 4dbd 013b 8cbd a436 dbbc 6098 423d
000002e0: 1b53 2b3a 70ab 16bc 3fee 42bd 48fc 64bd
000002f0: 2596 72bc 14bb 633d 5217 5a3d b387 11bd
00000300: a13d 4dbc 8106 0a3c 384e e13b ed5c 6ebd
00000310: 4c1e 21bd 83fd 0cbc 540f dd3b 3604 3abd
00000320: d541 52bc 6d76 8b3c 6bdc aa3c 7d3c 6dbc
00000330: 3e19 623d 9228 183c 5b1c 323d 77b7 34bd
00000340: b5da 7c3d 989b 13bd c8e0 813c 6670 c2bc
00000350: e141 aabc a99b f03c 060b 633c 5266 15bd
00000360: f9d8 333d 6a0f 10ba eaf4 73bd f03b afbc
00000370: 1314 973c 0bed 99bc 5182 82bb fbf5 c33c
00000380: b517 4fbd 86ec 13bd 8d08 263d 7b62 333d
00000390: 1edd 293c 4316 0d3b 6c26 63bd 4f72 3c3d
000003a0: 9327 793d ca70 5bbd c9cc a3bc 55a9 8fba
000003b0: 964d 05bd c636 48bc 65f9 fbbb 36af 803c
000003c0: ac3e 7d3b c4a2 8dbc 1ff5 ccbc 9776 19bd
000003d0: 92e0 3fbd 1f3f 0c3a f3d0 dd3c 5ac4 7dbd
000003e0: 22b1 5e3d 07d3 3b3d 7910 55bd f189 45bd
000003f0: 2345 42bd 56b3 58bb 58d7 aebc ebe1 c3bc
0.060638044 0.019389147 0.007352085 -0.012640088 0.022112284 0.022493936 0.017186722 0.046458054
0.03041241 -0.0121447705 0.018824153 0.05089422 -0.0057435906 0.014187764 -0.047904972 -0.050617136
-0.011078102 0.009372118 0.06849469 0.06209658 -0.05654094 0.006668544 -0.03680727 0.0038380856
-0.019048357 -0.060081992 0.06525876 0.036531925 0.037351366 -0.029816415 0.03074068 -0.018367844
-0.05965542 -0.033877447 0.009399927 -0.018698528 -0.013204262 -0.024439435 0.020958567 0.04673926
-0.03821529 -0.013751383 0.05280797 -0.0073276805 -0.031662475 -0.035130814 -0.046939526 0.0065164897
-0.007725997 -0.038125362 -0.036097355 0.0049753767 -0.03479561 -0.057985224 0.0042659566 -0.06703809
-0.0016802291 -0.022369472 0.047772363 -0.023917707 -0.014530421 0.069550775 -0.0050443765 0.014013339
0.03157369 0.05021011 0.011782255 0.05206473 0.029636396 -0.027846945 -0.0004524603 0.03246844
0.0074051977 0.0071504223 0.037897874 -0.06427874 -0.059900332 -0.05486811 0.050845977 0.0067431205
-0.04394835 0.00066224736 -0.056734923 -0.05016741 0.043364156 -0.048235763 0.021404771 0.0698161
0.031712484 -0.04200971 0.038347505 0.034488775 0.03005608 0.020586645 -0.0070275124 0.051119395
0.055098563 0.039273705 -0.028644461 0.050295185 -0.03110232 0.014778439 0.055558085 0.01775064
-0.00898982 0.03536246 0.014717633 -0.008434778 -0.011240598 0.038470298 0.05262206 -0.023872292
0.012717215 0.03155508 0.035903297 0.07011753 -0.032191593 -0.010965567 -0.028146023 0.061519872
-0.031359244 0.0026708588 -0.03861488 0.044053324 0.024041973 0.020360665 -0.059290648 -0.050847445
-0.018032102 0.05654052 0.054363202 -0.053973027 0.038226962 0.019002892 0.02462694 0.0014925913
0.0514735 0.0012348888 0.063430056 -0.050588533 0.044283092 0.0611286 0.033984404 0.031145183
-0.012758915 -0.058176816 0.021981109 -0.025189413 0.008749544 0.063804336 -0.045480505 -0.00048015846
-0.0346574 -0.016214186 -0.017446756 -0.026882017 0.005813884 -0.02468796 0.002753582 -0.026733834
0.055189624 -0.029281525 -0.0039001822 -0.008319155 0.0091365725 0.007183164 0.015878452 0.06357342
0.016898714 -0.011891163 0.038896456 -0.037258066 -0.002729928 0.019231685 -0.054991927 -0.04250933
-0.022310456 0.061003316 0.010410954 -0.0011642027 -0.05018703 -0.068471916 -0.026759453 0.047508597
0.0006535516 -0.009196147 -0.04759049 -0.055904657 -0.014806305 0.055598333 0.053244896 -0.035529803
-0.0125269005 0.008424402 0.0068757795 -0.05819409 -0.039335534 -0.008605364 0.006746212 -0.045414172
-0.012833078 0.017024243 0.020857057 -0.014479754 0.055199854 0.0092870165 0.043484073 -0.04412028
0.061732013 -0.036037058 0.015854254 -0.023735236 -0.020783367 0.0293711 0.013857609 -0.036474533
0.043908093 -0.0005495461 -0.05955974 -0.021390885 0.01844219 -0.018789789 -0.00398282 0.023921004
-0.05055972 -0.03611424 0.0405355 0.04379509 0.01036766 0.0021528162 -0.055456564 0.04600745
0.060828757 -0.05357436 -0.01999511 -0.0010960499 -0.032544695 -0.01222009 -0.0076896423 0.015708547
0.0038642092 -0.017289527 -0.025019227 -0.03746661 -0.046845026 0.0005349982 0.027077174 -0.061954834
0.054368146 0.04585555 -0.052017663 -0.048227254 -0.047429215 -0.0033065877 -0.021342918 -0.023911437

encoder.critic_encoder.net.mlp.0.weight f4 [256, 8]
00000000: 9853 683e 4a0c a1bd 02f9 99be 89bc a13e
00000010: 76f8 6b3e 2d79 8ebd c35a 50be c3f5 343e
00000020: e929 a63e fe68 86be 81c6 52bd 9d8a 7b3e
00000030: 2b47 b2be 7d78 f13d 15d5 763e cbf5 213e
00000040: a152 293d 71b1 ce3d a1f6 223e 2d82 8fbd
00000050: 769e 633e a0b4 9bbd 559d 16be c7c1 b63d
00000060: 95ce 04bd 5c62 653e bbbe 493e 1e40 2d3e
00000070: e902 77be 52e0 6ebe 4627 353e 0e05 1a3e
00000080: 85fb 5f3e 1f4d c5bd 1eb5 763e 0f30 6abe
00000090: d702 893e 90b1 1b3d 73a5 55bd 2674 11bd
000000a0: 34a5 6c3e 4c7b c6bd 279c af3d a17b 61be
000000b0: 7e06 1cbe 1903 2c3e 9532 173e 9a35 6fbe
000000c0: 12b7 dd3c ba5a 55be b10e 3abe ded6 423e
000000d0: 4356 cd3d 11c3 513d 4951 0abc e1a2 9fbe
000000e0: 20da d63c 2368 6b3e ede7 5ebe e751 903e
000000f0: c8fe 0fbe 9316 b03e 13ef e63c 19a6 6b3e
00000100: 91e6 813e 683c 063e 08b5 58be 8492 4fbe
00000110: 2d81 0ebe f7f3 3a3e e4f6 40be 3c34 08be
00000120: 8c5e 9bbe 06e6 97be 0a23 c73c aa9a 773e
00000130: 15da b33e 5fcf 973e 76c4 213d 7cd9 9d3e
00000140: 9ff8 40be 9f9a e5bd a898 a7be a46e d1bb
00000150: fe72 1cbe aa4a 0abd 1ce4 29bd 3c37 6d3e
00000160: 3e7d 7fbe 627c c7bd a351 2b3e e278 0ebe
00000170: 2eb9 2e3e e2f2 a73d 4574 57be cd38 c13d
00000180: db9b dc3d f2e4 a2be 76e1 1ebe 4242 8a3e
00000190: 62c4 903d b90f 8abe ad92 7f3e 3132 4b3e
000001a0: 85b1 00bd e7ce ff3d cf9e 2b3e a816 debc
000001b0: 7420 8c3e 78e1 963e 35e2 df3d 24e4 073e
000001c0: 1707 86bd e3c1 ae3e 84d5 2d3d b75f a0be
000001d0: ad79 87be a62a a33e 7c8d 883e 6881 95bd
000001e0: b504 d1bd 3fae ee3d 64d5 77bd 46bc 763e
000001f0: 96dd 933d 0f9e 86bd 214f acbe 081a 00be
00000200: 8019 db3d 301f 42be 0f59 97bd e0d7 9cbd
00000210: a217 02be ab40 61be f978 4e3e 77e9 8ebe
00000220: b10e 853e 48de 12bc 1f69 253e f094 73bd
00000230: cd74 333e 3d19 86be 493b 043e e574 2e3a
00000240: 9a7c 9b3e b190 88be 0ac1 47be 89e9 1fbe
00000250: d8a4 9b3e 5ed7 50be 7202 9b3e c6f1 dbbc
00000260: b641 d3bd 3155 a43e c6cd 7e3e af67 24bd
00000270: 800d 2fbe 09a4 2bbd accd 84be f886 49be
00000280: 4965 c33d a057 423e e69f 39be b3ea 50be
00000290: 9155 9cbe 80c7 a0bd ecd0 f23d cca1 f1bd
000002a0: 764b 9d3e 39c9 e53d 900b b03d f7cd 923e
000002b0: d6b1 7bbe 3371 9b3d 7957 c7bd 5d5c cd3d
000002c0: c560 9d3d 940b 26be 5bcd 383c 7acd 9abd
000002d0: cc7c 93be 62a2 fcbc da9c f03d 2f42 913d
000002e0: 30e6 bdbd 9d07 fe3d 53bc a03c c8f8 a93e
000002f0: f5af b73c 5217 853e d971 26bd c93e aebd
00000300: 1522 523e 10e1 de3d 8330 12bd cdf2 6e3e
00000310: 040a c7bd 6cfb 633e 9364 093e 8af5 29be
00000320: f5fd 91be 509d 67be 3a68 213e 48c1 b03d
00000330: 8baa 8cbe 087e 4ebe 48cd e93d bdb6 163e
00000340: e225 973e 5bb9 fdbd e82d 2a3e d41a 453c
00000350: 4cf3 09be 0f01 693d 1b28 c8bc 8040 72bc
00000360: e926 27be 1c1f a63e 8129 903e b07c dc3d
00000370: 2446 153e a824 7ebe 46d5 a6be 6ba8 b0be
00000380: a68e a03e bb66 9b3e e8d3 a6bd 299d af3e
00000390: 3ff9 58be b5dd 783e 503d 77be 6632 103e
000003a0: 4b02 4b3e b968 493e c238 943e f6f7 353e
000003b0: 95d9 823e 3fa4 483e aa08 823d 2798 6bbe
000003c0: 0f0b 7c3e bba4 e83d 3b6c b7bc 8e07 48be
000003d0: 3f70 68be 54aa 073e 9629 1e3e 6c1b 4b3e
000003e0: 11a3 973e c9cb 163b 4496 b03e 22f0 9f3e
000003f0: dc1c cabc 23e7 3b3e 0166 c9bd 32ad 313e
0.22688138 -0.07863672 -0.3007279 0.31589153 0.23043999 -0.06956706 -0.20347123 0.17671876
0.3245385 -0.26251978 -0.05145884 0.24564596 -0.34819922 0.117905594 0.24104722 0.15816419
0.041338567 0.10092438 0.15914394 -0.07007251 0.22228417 -0.07602811 -0.14708455 0.08923679
-0.032423574 0.22400802 0.19701664 0.1691899 -0.24122204 -0.23327759 0.17690763 0.1504099
0.21873291 -0.0963385 0.24092528 -0.22869895 0.2675998 0.038011134 -0.052159738 -0.03551116
0.23109895 -0.09691486 0.085747056 -0.22019817 -0.15236852 0.16798057 0.1476539 -0.23360291
0.027064834 -0.2083539 -0.18169667 0.19027278 0.10026219 0.05121142 -0.008442231 -0.31178954
0.026227057 0.22988944 -0.2176816 0.28187487 -0.14062035 0.34392223 0.028190171 0.2301258
0.2537122 0.1310898 -0.21162808 -0.20270735 -0.13916464 0.18257128 -0.18844181 -0.13301176
-0.3034557 -0.2966768 0.0243087 0.24180093 0.3512732 0.296504 0.039494 0.3082999
-0.18844841 -0.11211132 -0.32733655 -0.006391363 -0.15278241 -0.03376261 -0.041477308 0.23165601
-0.2495012 -0.09740521 0.1673036 -0.139133 0.17062828 0.08200623 -0.21040447 0.09434662
0.107719146 -0.31815296 -0.15515694 0.27003676 0.07068707 -0.2696512 0.24958296 0.19843365
-0.031419296 0.12490635 0.167598 -0.027110413 0.2736851 0.29468894 0.109318174 0.13270622
-0.06544321 0.341323 0.042439952 -0.31323025 -0.2646002 0.31868476 0.26670444 -0.07300073
-0.10205976 0.116543286 -0.06050624 0.24095258 0.072199985 -0.06573116 -0.3365412 -0.1250993
0.10698223 -0.1895721 -0.073900335 -0.076583624 -0.12704328 -0.21997325 0.20163335 -0.27912495
0.2598777 -0.008964129 0.16153382 -0.05946821 0.17525025 -0.2619113 0.1291324 0.0006654992
0.303685 -0.2667289 -0.19507232 -0.1561643 0.30399203 -0.20394656 0.30275303 -0.026848685
-0.10315268 0.32096246 0.24883184 -0.040137943 -0.17094994 -0.041904483 -0.25938165 -0.19680393
0.09540803 0.18978739 -0.18127403 -0.2040203 -0.30534032 -0.078505516 0.11856255 -0.117984384
0.30721635 0.11220021 0.08595955 0.28672764 -0.24579558 0.075899504 -0.09733481 0.100273825
0.07684473 -0.16215354 0.011279429 -0.07558723 -0.2880615 -0.030839149 0.11748667 0.07092702
-0.092724204 0.12403796 0.01962105 0.33197618 0.02242277 0.25994354 -0.040635917 -0.08508069
0.20520814 0.10882771 -0.035690796 0.23334809 -0.09718707 0.22263879 0.13417272 -0.16597572
-0.28514066 -0.22618604 0.15762416 0.086306155 -0.27473864 -0.20165265 0.114161074 0.14718147
0.2952109 -0.123888694 0.16619074 0.012030322 -0.13471717 0.056885775 -0.024433186 -0.014785886
-0.16323437 0.3244561 0.28156665 0.1076597 0.14577538 -0.24818671 -0.3258459 -0.34503493
0.31358832 0.30351815 -0.08145887 0.3429959 -0.2118883 0.24303325 -0.24144483 0.14081725
0.19825093 0.19668855 0.28949553 0.17770371 0.25556627 0.19593905 0.06349309 -0.2300726
0.24613594 0.11359545 -0.022390475 -0.19534132 -0.22699068 0.13248569 0.15445551 0.1983468
0.29616597 0.002300965 0.34489644 0.31237894 -0.024671964 0.1834989 -0.09833909 0.17351225

encoder.critic_encoder.net.mlp.0.bias f4 [256]
00000000: b7d5 213e 189e 613e 4ffe f83d bf67 883e
00000010: 9f14 b4bd 4cd0 6f3d eaf5 f3bd bf7c b3be
00000020: 053c 5dbd c549 16bd 546d ab3d d39d 283e
00000030: cff5 91be 85f8 04be b3c4 adbe 91ac 8bbe
00000040: 7132 b4bd 17f4 373e da49 763e 0c77 b2be
00000050: 2d41 79be 83ea 0b3d 7922 b0bd da43 76be
00000060: a023 013e afc7 12be 23d3 4bbe b0e1 77be
00000070: 8f4e c83d ac70 b0be 0589 97be 1732 82be
00000080: dda4 3abe c530 073e f273 19be 2757 9a3e
00000090: 0fd7 afbe e032 b13e 5d18 0dbd 6406 4fbd
000000a0: 2b46 af38 2744 23be 5549 3ebe 9574 2cbe
000000b0: bb64 903e 2b6b 2dbc 6fb5 3b3e eb6a 74bd
000000c0: 80ee 8d3e 4419 6abe 12fe 9b3d 6b50 e9bd
000000d0: 2109 d2bd f59f ad3e 9eaf 143d 570a 9abe
000000e0: 548a 813e 1323 2a3e 623f 5bbe 4ea6 b7bd
000000f0: b28d 90bd 8a24 84be 6ec8 8c3e 7ff0 08be
00000100: 68cc 5a3d 4574 44bd e902 a53c 8234 97be
00000110: ac5d 8c3d b59c 47bd 1d65 b83d df25 8dbe
00000120: af5a 163e 19e2 19be e4a1 52be 1137 8abe
00000130: c24a 25be 8ad7 843e 2700 c53d 5ae3 f33d
00000140: 5292 dd3d b1c5 50bd cf45 9dbb 2f32 a73e
00000150: 3aaa 5e3e e19a 983e f05d 3bbd b5e6 783e
00000160: c4b0 5cbe b251 963e 88bb ab3c cc78 523e
00000170: f559 3d3e cf75 443e ac6d 93bd 6836 123e
00000180: c228 55bd 945e 8fbe 4197 f23d c183 8cbe
00000190: 5535 3abd b32e 313e 6bca 203d 705a 5e3e
000001a0: 4802 4bbe 1a10 8c3e a400 69be 1c31 b3bc
000001b0: ca5b 1a3d c125 3c3e 228f 6abe f1d8 32be
000001c0: f0d3 6e3e 9939 fb3d 7fa1 98be 8513 233e
000001d0: 7882 76be cf5c 043d 878c 89bd 62e2 37be
000001e0: 2e52 5e3e 7e07 a9be e20c c03d 582d 8dbe
000001f0: e54a a63e b772 f03d ab3f 8dbe 8759 30bc
00000200: 2a06 4c3e f949 2dbe 1fd3 9cbd 2269 91bb
00000210: 1e17 04bd 774f 413e 7bec b43e d526 94bd
00000220: b117 86bd 8d92 1ebe 03a2 04bd 6008 883d
00000230: 825c a13d b6eb 353e adb6 1cbe 8bcf 8c3e
00000240: ec3f 233e 22e9 093e 4e06 61be 3ac5 a23e
00000250: f563 ad3e 32e9 55be ba38 17be 4e69 cf3d
00000260: dabf 7abe 5d53 28be f910 833e 3671 383e
00000270: d85f 703c f66f d33d 6da5 fa3d 072d 90be
00000280: 16bd d9bd 49ba bd3d e7d8 9dbe 01bd 06be
00000290: 3499 943e 49f6 1a3b a20d a1be 8a1f a6be
000002a0: 99ab aabd 7a29 8f3d aeba 163e 2c74 f73b
000002b0: 00b3 943e e55a b2bd 93e9 fcbd 985a 3b3e
000002c0: a2d5 6fbe 2a24 aabd 7002 ac3e 059b 8fbe
000002d0: 16da 74bd 93e8 efbd 475b f0bd 2591 e5bd
000002e0: 1285 8a3e 78c3 89be 9aa6 b33e 54d8 d83d
000002f0: e93e b13e 3abc 803e 8ec3 3dbe c1a7 f83d
00000300: eeeb 96be f0a0 98be f8c7 3f3e 9063 96be
00000310: d44b 96be 7009 c7bd aad1 b83d 68dc 4e3e
00000320: 61b4 1f3e 8e19 a73e ee47 6e3d 7845 7cbe
00000330: f0be a13d 8c99 82be 14ee 0c3e 1222 ab3d
00000340: ab32 643e e993 d3bd 860b b33d 4f39 9b3e
00000350: a91c 663e 0059 ffbd 6385 883e 39dc 12bd
00000360: 90b3 65be b68d 943e ef5b 5bbe dc6c 6c3e
00000370: 9898 4b3e 8b3e 053e 2537 25be b7fd 82be
00000380: 2273 64be c557 62be 526a a0be ff4b 413d
00000390: 0f6b dd3d 3e72 44be 2010 cf3d 5b30 a53e
000003a0: af70 b3be 875a 6abe 9017 b5be b6f6 a73d
000003b0: 9586 abbc d786 e0bd babd f53d ad96 0a3e
000003c0: d695 4bbd d05c 9c3d a21c 46be e560 02be
000003d0: 1c6d e4bd a8e8 fcbd 92c3 2c3e 7095 773e
000003e0: 039c 2dbe 903c 8fbd c50e 683e 1bd1 80be
000003f0: 4804 373e f3ca 9e3d 7871 90be 0f71 723c
0.15804182 0.22032964 0.121578805 0.26641652 -0.08792996 0.058548257 -0.11912139 -0.3505611
-0.054012317 -0.036691446 0.08370462 0.16466455 -0.2850785 -0.12985428 -0.33939132 -0.27280095
-0.087986834 0.17964207 0.2405161 -0.3485645 -0.24341269 0.034159195 -0.08600325 -0.24049321
0.12611246 -0.14333986 -0.19904761 -0.24207187 0.09780609 -0.34460962 -0.29596725 -0.2542884
-0.18226953 0.13202198 -0.14985636 0.30144617 -0.34343764 0.34609127 -0.034447063 -0.050543204
8.35772e-05 -0.15943967 -0.18582661 -0.16841348 0.2820185 -0.010584633 0.1833093 -0.059672277
0.27721024 -0.228612 0.076168194 -0.11392292 -0.102556475 0.339111 0.036300294 -0.30086014
0.25300848 0.16614942 -0.21410897 -0.08967267 -0.07058276 -0.25809127 0.27496666 -0.13372992
0.053417593 -0.047962446 0.02014299 -0.29532248 0.06853804 -0.04873343 0.09003661 -0.27567956
0.1468303 -0.15027656 -0.20569569 -0.26995137 -0.16141799 0.25945693 0.0961917 0.11908598
0.10818924 -0.050969783 -0.0047995816 0.32655475 0.21744624 0.29805663 -0.045743883 0.24306758
-0.21551806 0.29359204 0.020963445 0.20553893 0.18491347 0.19185565 -0.071986526 0.14278567
-0.052040823 -0.28001845 0.11845256 -0.2744427 -0.045461018 0.1730297 0.03925554 0.21714187
-0.19825089 0.27356035 -0.2275415 -0.021874003 0.037685193 0.18373777 -0.22906163 -0.17465569
0.23323035 0.12266845 -0.29810712 0.15925415 -0.24073207 0.03231507 -0.067162566 -0.17957452
0.21711037 -0.3301353 0.09377457 -0.27573657 0.32479015 0.1174063 -0.27587637 -0.0107635325
0.19924226 -0.1692275 -0.07657456 -0.0044375816 -0.03224861 0.1887797 0.3533667 -0.07233969
-0.065474875 -0.15485592 -0.03238107 0.066422224 0.078789726 0.17765698 -0.1530406 0.27502093
0.15942353 0.1346784 -0.21975061 0.31791097 0.33865324 -0.20889738 -0.14767733 0.10127507
-0.24487248 -0.1643805 0.25598887 0.18011937 0.014671288 0.10324089 0.12238584 -0.28159353
-0.106317684 0.09264047 -0.30829546 -0.13158037 0.29023135 0.0023645333 -0.31455714 -0.32445937
-0.08333511 0.06990333 0.1471965 0.0075516906 0.29042816 -0.08708743 -0.12349238 0.18296278
-0.23421338 -0.08307679 0.3359561 -0.28047958 -0.059778295 -0.11714282 -0.1173616 -0.11209325
0.2705465 -0.26906943 0.35088044 0.10588136 0.3461831 0.25143605 -0.1853163 0.121413715
-0.29476875 -0.29810286 0.18728626 -0.29372835 -0.29354727 -0.09718597 0.09024365 0.20201266
0.15596153 0.32636684 0.058174066 -0.24635875 0.078977466 -0.25507772 0.13762695 0.08356108
0.22284953 -0.10330946 0.08742432 0.3031716 0.2247187 -0.12468147 0.26664266 -0.035854552
-0.22431779 0.29014367 -0.21421789 0.23088402 0.19882429 0.1301214 -0.16134317 -0.25584194
-0.22309545 -0.22103794 -0.31331116 0.047191616 0.108114354 -0.19184205 0.101104975 0.32263455
-0.35046908 -0.22886096 -0.3536954 0.08201353 -0.020938197 -0.10963219 0.11999078 0.13534041
-0.04970344 0.0763489 -0.1934686 -0.12732275 -0.111536235 -0.12349063 0.16871479 0.241781
-0.16954045 -0.06993973 0.22661884 -0.25159535 0.17872727 0.07753553 -0.2821157 0.014797463

encoder.critic_encoder.net.mlp.2.weight f4 [256, 256]
00000000: f591 d0bc 971c 4c3c b0a5 3a3c e036 29bd
00000010: 5b88 02bc ac2d 603d 7fbc 023d 302b ecbc
00000020: 4fb5 b2bc b4bc 5b3d fe19 3c3d 32d5 863c
00000030: 5985 b53c cc29 b0bc 738b e4bb 95d7 613d
00000040: effa 2dbd 7eee 933c 98ab 58bd 4c20 75bd
00000050: 0aca 4dbc 2633 58bd 2bd9 47bd a671 08bb
00000060: 00a9 a0bb e3ee 04bd 2028 603b 787e 8cbb
00000070: f0db 5b3d e60e 5fbd 578d e73c 64ce 49bd
00000080: cad6 4a3d b8e0 5cbc 5785 76ba 3d55 e3bb
00000090: 9e96 9c3c a282 96bc 0a62 49bd a5f5 00bd
000000a0: ae16 4e3c 45ce 313c 6c6d d63c 7fcb 443d
000000b0: 5d5a 2b3d 8499 f3bc 393c 6ebd 3dc1 57bd
000000c0: c1c6 3dbd 857f 0a3c 8f75 e83b 45c3 c5bb
000000d0: 107b c1bb 0cc1 133d b056 4a3d fb04 50bc
000000e0: 2cc9 5bbc 07bf 3a3b e07f 2abd 2723 d63c
000000f0: 5411 19bb 625b 14bd beaf 463b f2bf 3b3d
00000100: cd9e e23c 340c 413d 2e1a 4fbd 7157 483d
00000110: 5f1a 733c c6ef 523d 26c4 76bd 4cb2 353c
00000120: dced 563d e797 683d 4ecd 3dbd a862 21bd
00000130: 90a7 803c 4730 4b3d 3e72 63bd 0238 fcbc
00000140: e094 0cbd 926f 573d f13b d9bc 91cf 483c
00000150: 8476 b23c cb5e e0bb 8a3b 7fbd 6914 eb3c
00000160: 3b30 2bbc 938d 7c3d 0b69 053c cd90 1cbc
00000170: 8542 353d 7af0 1bbd 306c 60bc e1c7 6bbd
00000180: 2c72 91bc c366 2a3d cb73 da3c 4a49 0a3d
00000190: b8b6 fe3b 766a 353d 6ea9 2fbd 3e41 60bd
000001a0: 755a 62bd 76c0 703d 4383 d53c 56c9 663d
000001b0: 0d97 70bd 429b 2ebd 00bf 623c e78c 8a3c
000001c0: 4514 5fbd e923 23bc 101b a73c 9a58 4c3d
000001d0: 19b0 3bbd a5a7 90ba 9629 8fbc e242 0839
000001e0: 5acc 26bd afd0 e4bc 84fb e9bb e090 c2bc
000001f0: 7774 2a3d 1824 08bc 5d37 3a3d c27f 823c
00000200: 900b dc3c 8467 b4bb 9479 8cbc 113c 53bd
00000210: 12b6 083b 17ea 013d 24f5 b6bc 695e 2dbd
00000220: 258e a7bb 75f9 143c 1e8b 19bd 9768 f73c
00000230: 78a7 25bd 7c7a 9f3b 54ee 3d3b e516 0c3d
00000240: 0247 4b3d b869 11bb 4519 9a3b 9a79 563c
00000250: 3180 353d ca9e 8fbb 8a38 71bd 1b8a e13c
00000260: 953c 803d a863 46bd 3fd6 0dbd e218 9e3c
00000270: ba66 49bd 6a5d 573c 9823 70bd 1aad 47bd
00000280: 0cd5 46bc 2c71 083d 8c1f 023c 6d2d 863c
00000290: c0ce 00bd fd59 11bd 7a9d 883c efee 753c
000002a0: b41c c23c 6dfa 333d 0763 863c 795b ae3c
000002b0: 4973 eb3c 4a46 42bd cf4a 0a3b 5dd1 0fbb
000002c0: 1e8e 03bb aae2 3e3d 820c 7dbc 3b5c f3bc
000002d0: 34f1 3cbc 6590 093d 7465 e43c 8160 9b3a
000002e0: 4695 35bd 4c1b 183d e329 543d 32e3 023d
000002f0: 0616 abbc b09a 69bd 01c3 ea3c 0d27 8f3b
00000300: ddfb 783d 0625 263c 73d4 693d 59d2 363c
00000310: 5088 673d 0388 a1bb a656 4fbd b24d 17bc
00000320: a37f 4b3d b9f1 3bbd 2677 173d f5de a43c
00000330: 50da 6ebd f5c4 e33c 2667 33bc 8bba 75bd
00000340: a59b 45bd bfbf 57bc 2221 fd3c 8794 273d
00000350: 71b4 3cbd c1f1 15bd 7c81 29bd 6582 80bb
00000360: ac06 25bb 442a dbbc 5ec2 f43c 8b6d 6fbd
00000370: d092 fa3b 73d0 c63a 3932 95bc 26c6 32bd
00000380: 80c4 bd3c ac89 463c 04e2 abbc 9959 773c
00000390: 1dad 25bd 5e7b 323d 44c6 daba 7b7a 693d
000003a0: 80b7 fc3b 5e57 67bc 5c3d 69bd 05f2 003c
000003b0: 5c5b ca3c 73ac 59bd ea0b 02bd 2713 b63b
000003c0: 9a90 243c 7149 0e3b 94da 123d 60de 7cbd
000003d0: a42d 7c3d 054f 5fbd 6ab6 40bd 72cb 2b3d
000003e0: cc2f b03c 5a16 7c3d 3fca c3bc ed27 1a3d
000003f0: 40e6 e1bc fce4 51bd c9db 58bc 3809 3c3d
-0.025460223 0.012457988 0.011392042 -0.0413121 -0.00796708 0.054731056 0.031918045 -0.028829187
-0.02181497 0.05364676 0.045923226 0.016459081 0.022158312 -0.021504305 -0.0069746315 0.055137236
-0.042475637 0.018058058 -0.05289802 -0.059845254 -0.012560377 -0.052783154 -0.048791092 -0.0020819693
-0.004902959 -0.032454383 0.0034203604 -0.004287537 0.053676546 -0.054457568 0.028265638 -0.049269095
0.049521245 -0.0134813115 -0.00094040245 -0.0069376514 0.019114789 -0.018372837 -0.049165763 -0.031484265
0.012578649 0.010852401 0.026175223 0.04804563 0.041834224 -0.029736288 -0.0581629 -0.05267452
-0.046332125 0.008453255 0.007094092 -0.006035241 -0.005904563 0.036072776 0.049399078 -0.0126965
-0.013414662 0.0028495209 -0.041625857 0.026139809 -0.0023356276 -0.036219962 0.0030317153 0.04583735
0.027663613 0.04713078 -0.050562076 0.048911516 0.01483783 0.051498197 -0.060245655 0.011089873
0.052472934 0.05678549 -0.046338372 -0.039400727 0.0157049 0.049606588 -0.05552887 -0.030788425
-0.034321666 0.052596636 -0.02651784 0.012256519 0.021785028 -0.0068472377 -0.06231264 0.028696256
-0.010448511 0.061658453 0.00814272 -0.009556008 0.04425289 -0.038071133 -0.013697669 -0.057563666
-0.017754637 0.041601907 0.026666543 0.0337613 0.0077732466 0.044290982 -0.04288619 -0.05474972
-0.055262048 0.058777295 0.026063567 0.056344353 -0.058737803 -0.042628534 0.013839483 0.01691289
-0.05446269 -0.009957292 0.020398647 0.049889185 -0.045822237 -0.001103629 -0.017475884 0.00012994886
-0.04072223 -0.02793154 -0.0071405787 -0.023750722 0.041614976 -0.008309387 0.045462955 0.01593006
0.026860982 -0.005505504 -0.017147817 -0.051570956 0.0020860475 0.031717386 -0.022333689 -0.042326365
-0.0051133805 0.009092678 -0.037486188 0.03020124 -0.040442914 0.004866896 0.0028981166 0.03420152
0.049628265 -0.0022188257 0.0047027194 0.0130905155 0.044311706 -0.004382943 -0.05889181 0.027531674
0.06261555 -0.048434883 -0.03462815 0.019298974 -0.049170233 0.01314483 -0.058627695 -0.048749067
-0.012135755 0.033311054 0.007942092 0.016379083 -0.031447172 -0.03548621 0.016676653 0.0150105795
0.023695327 0.043939997 0.016404642 0.021283852 0.028741496 -0.047430314 0.0021101718 -0.0021944859
-0.0020073722 0.046602882 -0.015444877 -0.029707065 -0.011532117 0.03358497 0.027880408 0.0011854322
-0.04433181 0.037135407 0.05179776 0.03195495 -0.020884525 -0.057032287 0.028657438 0.004368669
0.06078707 0.010140663 0.057087373 0.011158549 0.056526482 -0.004929544 -0.050619744 -0.009234833
0.04968227 -0.04588482 0.036978863 0.020125845 -0.058313668 0.027803877 -0.0109498855 -0.059992354
-0.048244137 -0.013168274 0.030899588 0.04091313 -0.04607052 -0.036607508 -0.04138325 -0.0039217942
-0.0025180979 -0.026753552 0.029877838 -0.058454078 0.007646896 0.0015168324 -0.018212425 -0.043646
0.023164988 0.0121177845 -0.020981796 0.015097045 -0.040448297 0.043574683 -0.0016691168 0.057001572
0.0077123046 -0.014119951 -0.056943282 0.007870202 0.024701767 -0.053142976 -0.031749643 0.0055564824
0.010044241 0.0021711255 0.035852984 -0.06173551 0.061566964 -0.05451872 -0.047048964 0.041942067
0.021507166 0.061544754 -0.02390015 0.037635732 -0.027575612 -0.051243767 -0.013235995 0.04590723
