results/PokerCheckpoints/PPO_CardGameEnv_2b391_00000_0_2024-05-12_16-27-16/checkpoint_000003/learner/module_state/default_policy/module_state_dir/module_state.pt (torch, 815815 bytes, 11 tensors)

encoder.actor_encoder.net.mlp.0.weight f4 [256, 8]
00000000: d09d 9a3e 50c3 5c3c 4518 74bd 3bbe 873d
00000010: 0214 f33c 1b8c 02be 1f16 653d bc99 823d
00000020: 4c14 4dbd e47d f13b f114 ddbd aa79 413e
00000030: 89b6 453e d6d6 813e 12fb 0c3d 6d4f 433c
00000040: eff7 babd f605 0e3e 222b 973e 6973 0f3e
00000050: 086e 94be fbb2 853c 1040 2e3e 4e9b 82be
00000060: 3ea1 0f3e 2856 7e3e 6fe1 82be 7802 7a3e
00000070: 4dc3 bfbe 7e34 853e 28b1 f43d 895a d33d
00000080: 8a01 0dbe a557 bc3e e463 c43d 69fb 53be
00000090: 5d5f 933e 9499 1cbe ef52 273e 6f14 aabe
000000a0: cc31 393e de23 56be 7104 73be bddc 74bd
000000b0: cda2 a13e bc02 acbc 21b5 203e 8a79 9d3d
000000c0: 1d88 503d 0826 383e a0eb 233e 8569 99be
000000d0: b64a 913e ce50 06bb e7be 5fbe 5a59 94be
000000e0: 47e4 443d bb7e cdbc c922 c9bb cb25 b5be
000000f0: 1d75 8fbc ab06 063e 60bd 813e a2cb ae3d
00000100: 32ef 0bbe 6bc2 63be c710 873e a55a 84be
00000110: 991c 323e 1322 83be c807 78be fdf2 9b3e
00000120: 1756 8bbe e19b 863e 4ed5 f23d 6acc d6bc
00000130: 047e 97be ab39 86be f729 cfbd 2b41 a23e
00000140: b776 97be 8b6b 9ebe aafe 6b3d e968 a73e
00000150: 03c4 b63c 1cb4 c53d c2ed 173e a21e 35bd
00000160: afa5 633e c7e2 c03e b6a6 263e c350 bdbd
00000170: f4ed 503d c9d5 53be d121 393e c2c2 353e
00000180: a157 86bd 885d 93be 9b93 86be d842 443e
00000190: 8756 3c3d acab 603e f8f5 103d 7843 a3bd
000001a0: 1e68 4b3d 3aac 5a3e 6221 a53e cb98 75be
000001b0: 0516 cfbc b634 8bbe eb32 17be 6ee2 19be
000001c0: 2372 7ebe 8fcc 47be d535 b63e 2b99 55be
000001d0: f3d9 28bd 15f7 42be 72b6 613e 87fc 4a3e
000001e0: c359 84be 6e98 2cbe 340f 0bbe 8cb9 edbd
000001f0: 183a 303e 419b f73d fdc2 c3bd d91a 3fbe
00000200: b7c5 b03e 89a4 ae3d 58a6 aebe 1216 07be
00000210: 383b 9bbe 8a23 18be ba41 a0be 53fc ac3e
00000220: 30d0 913d 904f 9a3d 3f4c 46be fe0c 863d
00000230: d771 87bc c008 103e 1c68 8ebe 3ee9 6e3e
00000240: 0ba9 ad3e 43a4 bdbe 3cf5 823e 2c20 93be
00000250: 7b03 7abe 2d65 613e 0480 9c3e 5219 813e
00000260: 326e 543c c645 9ebe c5fd 5d3e 0cfe 883e
00000270: 7684 f6bc dbef 2f3e 690a 823e 6f10 94be
00000280: e138 af3d ba39 843e 9ce4 ce3d 3a9d 7dbc
00000290: a9e5 2a3e 206b eb3d ad7d 8bbe 705a 6d3e
000002a0: 5ad4 55be 2283 a33e b919 69bd e6e5 0dbe
000002b0: 3da1 9e3e 7368 87be 86bd 1ebe 7663 16be
000002c0: 87ce d139 7369 cb3d 1f4f d2bd 4259 603e
000002d0: c28b 983e 9e3a 343e b5dd f53c 29b4 0a3e
000002e0: bacc 3dbe 68e6 17be a27b 283e 424d 4f3e
000002f0: 285b cd3b 112b e73c 65e0 aebe 55d1 fabd
00000300: 98d8 9dbe a066 a4be c3ce 873e 5421 5c3e
00000310: a568 58be c8c5 933e 2753 6d3d ecac b1bb
00000320: 5265 0abc 062d 813e ec40 083e a6c9 9c3c
00000330: c9b7 b3be 561f 503b dac6 94be 5ecf e33d
00000340: 87ca 95be 8d47 ad3e 8372 01be d06c b2be
00000350: 2949 5cbe 5e5d b33e d39e 57be 85fe 4abe
00000360: 49ec 8c3e c0d1 81be 973b 8c3e 6cab 88be
00000370: d319 45be e6f6 ddbd cf4e 08bb f6ee b8be
00000380: b0e6 0bbe 1aed 7d3d ba0e bc3d 2d19 90be
00000390: 5759 283e b935 a73d 3741 703e 92b7 8bbe
000003a0: 311d b03e 55bf 603e aab3 3dbe f87a 0cbd
000003b0: 6984 93be 6992 49be 5e53 133c 21bc 60bd
000003c0: 4afe 1f3e 2599 b93e d580 3cbe 26e0 303c
000003d0: 527a 853d becd 033d fa08 893e 2d60 7a3d
000003e0: a47e 573e 3d80 d63d 1f62 6f3e 3f88 5bbe
000003f0: 66ba 973e 5a64 a7bc 3584 973e 9eb4 853d
0.30198526 0.0134743005 -0.059593458 0.066280805 0.029672626 -0.12748758 0.0559293 0.06376979
-0.050068185 0.0073697437 -0.1079501 0.18894067 0.19307913 0.2535922 0.034419127 0.011920792
-0.09129321 0.13869461 0.29525095 0.14008869 -0.28990197 0.016320696 0.17016625 -0.25509113
0.14026353 0.24837554 -0.25562617 0.24415004 -0.3745369 0.2601661 0.119478524 0.103200026
-0.13770118 0.36785617 0.09589365 -0.20701374 0.28783694 -0.1529296 0.1634023 -0.33218715
0.18085402 -0.2091212 -0.23732163 -0.059780825 0.3156952 -0.020997398 0.15694095 0.07689197
0.050911058 0.17983258 0.16007853 -0.29963318 0.28377312 -0.002049494 -0.21850167 -0.2897442
0.048069265 -0.025084844 -0.00613818 -0.35380396 -0.017511899 0.13088481 0.25339794 0.085349336
-0.13665465 -0.22242133 0.26379988 -0.25850406 0.17393722 -0.25611934 -0.24221718 0.30458823
-0.2721412 0.262908 0.11857091 -0.02622052 -0.2958833 -0.26215872 -0.10115426 0.31690344
-0.2958276 -0.30941424 0.057615913 0.32697228 0.022310263 0.09653494 0.14836791 -0.044218667
0.22231172 0.37673017 0.16274533 -0.0924392 0.05100818 -0.20687021 0.18079306 0.17750075
-0.06559683 -0.28782296 -0.2628449 0.19166124 0.045980956 0.21940488 0.035390824 -0.07971853
0.04965984 0.21354762 0.32252032 -0.23984067 -0.025279054 -0.27188653 -0.14765517 -0.15027782
-0.24848227 -0.19511627 0.35587946 -0.2085921 -0.041223478 -0.19039567 0.22042254 0.19822894
-0.25849733 -0.16855022 -0.13580018 -0.11607656 0.17209661 0.12090159 -0.095586754 -0.18662585
0.34525844 0.08527476 -0.34111285 -0.13192013 -0.30318618 -0.14857307 -0.31300145 0.33786258
0.07119787 0.075347066 -0.19365023 0.06545447 -0.016533775 0.14065838 -0.27813804 0.23331162
0.33918032 -0.37039384 0.25577724 -0.28735483 -0.2441539 0.22011252 0.30566418 0.2521463
0.012965726 -0.30912608 0.21678837 0.26756322 -0.03009246 0.17181341 0.25398567 -0.28918788
0.08555771 0.25825292 0.101021975 -0.01547938 0.16689171 0.11495042 -0.2724432 0.2317903
-0.20881787 0.31935984 -0.056909297 -0.1385723 0.3098239 -0.26446876 -0.15501985 -0.14686379
0.0004001746 0.09932222 -0.102689974 0.21909049 0.29794127 0.17600486 0.030012945 0.13545288
-0.18535128 -0.14833987 0.16453412 0.20244315 0.00626697 0.028218778 -0.34155574 -0.12246958
-0.3082931 -0.32109547 0.26524934 0.21497089 -0.21133669 0.28861833 0.05794063 -0.005422225
-0.008447008 0.25229663 0.13306016 0.019139122 -0.35101154 0.003175696 -0.29057962 0.111235365
-0.2925608 0.3384365 -0.12641339 -0.34848642 -0.21512283 0.3503217 -0.2105668 -0.19823654
0.2752402 -0.2535534 0.27389213 -0.26693285 -0.19248132 -0.10838108 -0.0020798927 -0.36119813
-0.13662219 0.061993696 0.09182496 -0.28144208 0.1644033 0.08164544 0.23462377 -0.2728849
0.3439727 0.21947987 -0.18525568 -0.03429696 -0.28811958 -0.19684757 0.008992044 -0.054866914
0.15624347 0.36249653 -0.1840852 0.010795629 0.065174714 0.032178633 0.2676466 0.061126877
0.21044403 0.10473678 0.23377274 -0.21438693 0.29634398 -0.020433594 0.29593053 0.065285906

encoder.actor_encoder.net.mlp.0.bias f4 [256]
00000000: 433c 85be 00cb 6c3e 1852 39bd 17ac 093e
00000010: c210 833e 3098 9fbe a9f5 913c 3429 13be
00000020: a662 c8bc 45f3 383e 4f29 cfbd e7bb cfbd
00000030: 0a05 43bd 0d78 61be 5181 37be 2bee 873b
00000040: 261e 0bbd f54d a8be a6e1 f8bd 0489 9a3e
00000050: 8bc5 6ebe 8091 84bd 761e 263d 1be5 1dbe
00000060: 4081 85be c630 c13d 64f6 7ebe 4484 8fbe
00000070: 510f 583e cd85 fb3d a923 133e 4545 503d
00000080: c6a9 3abd e5bd 423e be58 9cbd 6fbf e6bd
00000090: 7e25 5c3d 953c 18be 680b 89be 26c9 b7bc
000000a0: 75d9 10be c9e7 b8bd c2ac 763e 2d59 d6bc
000000b0: aed3 53be 0bb4 bbbd 0729 c3bd 862e f33c
000000c0: b9a4 d03d 7a6a a73e 5351 0d3d 9104 38be
000000d0: 41d6 16bc a518 a6be 7c1c 18be bd35 e93c
000000e0: b505 9cbe 5185 11be 7862 38be 25a3 1dbe
000000f0: ff08 ddbd 31a9 063d 5c5d 833d f7b8 953c
00000100: 26d8 6a3c 826f 05bd ca56 fdbd a68e e7bd
00000110: aa7e 2f3c a73c b23d 0c13 20be 47a0 183e
00000120: fa17 593e 96a1 613d 9600 2cbe a622 7a3e
00000130: 49ee 2a3e 2bfe 68bd 0051 88be d5f8 543e
00000140: 16ef 983d c3a3 22bd 650c 2abe 8c86 aabe
00000150: 4f2d f9bc 6de4 79be 3c82 883d 2393 af3e
00000160: e2ec ae3e 2ec0 c83d ab18 a33e 7aeb 483e
00000170: 3399 7dbd 003e a4bd a78d 60bd 60ec 33be
00000180: 1f78 c13d c2a2 0dbe f6e3 053d cf27 4a3d
00000190: aa12 d93d 46d5 ee3d c780 2dbe 88c1 f3bc
000001a0: 5fde 27be 6d1c 183c e04c a53e e38a 593d
000001b0: 8745 8cbe 0f38 ae3e a7d2 b13e 89b2 7b3e
000001c0: 7ead 933d 5141 aabd 8977 89be bdd6 a1be
000001d0: 3e33 36be 9737 f2bd 2c3b b1be f879 13be
000001e0: 94f5 a2be bf03 943e cee0 293d 7c09 31be
000001f0: 68f1 5b3e a6f5 413e 61ef 903d 745f 163e
00000200: 585b 533d 8073 503e 5337 9cbe 613b 053e
00000210: c990 743e 4f30 71bd ad9a 7b3d 41e9 9f3e
00000220: 8726 10be 92fb 713e 5e87 e73d 80b0 e03c
00000230: aba7 a43e 49ff 8cbe 7dad 94be a61c bbbd
00000240: e0fd 4cbc bed1 78be 4801 44be 9d71 063b
00000250: cbf0 783d 9bc5 9dbe 6dfa 0cbe 7926 2f3e
00000260: d683 953d 7b12 773d c9d3 aebb 078b 2cbd
00000270: 48aa 273e 42ac a9be e11f 8f3e 4b8d c63d
00000280: cd8c 60be f0bd c6ba 1cb0 b4bd 539a 8a3d
00000290: 1bc3 133e 9140 b93d ba73 f4bd a867 9bbe
000002a0: da38 60be 5bdb f9bd f57d 5ebe c3e3 efbd
000002b0: e04c a63e d56b 813e a46a 07bd c13e 983e
000002c0: 7227 6bbe 4e1e 17be 9b0e 43be b403 a7be
000002d0: d93d a7be 3d26 2abd 7d6c 78be 4212 063e
000002e0: 62ff 3a3e 4a90 873e ed94 ab3e 731d b13e
000002f0: 2843 fa3d aa69 6bbe cbad ee3d a018 973e
00000300: d7f9 b73d b571 823e 7cb4 a2bb 6067 fc3c
00000310: fb4d 9dbe aa75 d23d 9b12 653e 9402 8cbe
00000320: 58c7 ec3d 8585 df3b c49c 9a3e e2a9 f03d
00000330: 6a6a 5fbe 9123 2fbe 223a acbe 674c b03c
00000340: 9d1e fcbd e564 943e 7d6c 7ebe bcc3 573e
00000350: ffe4 55bd 5b72 863e 1d57 ae3e 1b91 b03e
00000360: e13a 1a3e c103 e53d 7643 783e 44af b8bd
00000370: 1ba7 963e 98c4 82bc dd6e 083e 5b14 dc3d
00000380: ea1e 103d 393c dcbd 8d0a 8fbd 4533 a7be
00000390: 7153 03be a116 b1be 13e4 f8bd b115 83bd
000003a0: f2e4 a63e 4a71 803e 0d8a 413e 8c3c d2bd
000003b0: 06c8 b0bd ea09 93be e1f5 893d eb5d 9c3e
000003c0: 9112 a2be e873 573e 83e5 673e eb6b 953e
000003d0: 2660 be3d d460 a5bd c711 d7bd d071 613d
000003e0: eb6e bb3e 0aa5 50be 269c 94bd 2e5e 0ebe
000003f0: 3b80 92bd b45f 8cbc a191 893e 2c04 793e
-0.2602254 0.23124313 -0.045244306 0.13444553 0.25598723 -0.31170797 0.017817335 -0.14371186
-0.024461102 0.1806155 -0.10115301 -0.101432614 -0.047612227 -0.22018452 -0.17920424 0.004148265
-0.0339643 -0.32871976 -0.12152414 0.3018266 -0.23317544 -0.064730644 0.040556394 -0.15419428
-0.26075172 0.09433131 -0.24898678 -0.28030598 0.21099593 0.1228138 0.14369072 0.05084731
-0.045572065 0.19017752 -0.07634114 -0.11266982 0.053746693 -0.1486686 -0.26766515 -0.022434782
-0.14145453 -0.090285845 0.2408934 -0.02616557 -0.20686218 -0.091652 -0.0952931 0.02968527
0.10187668 0.32698423 0.034501385 -0.17970492 -0.009206356 -0.32440677 -0.14854616 0.028468007
-0.30473104 -0.14211012 -0.18006313 -0.15394266 -0.107927315 0.032876197 0.06414291 0.018276675
0.01433376 -0.032577045 -0.12370069 -0.11306505 0.010711351 0.08702975 -0.15632266 0.14904891
0.21200553 0.05508574 -0.16797099 0.2442728 0.16692461 -0.05688302 -0.26624298 0.20798047
0.07467477 -0.039706957 -0.1660629 -0.33305776 -0.030417113 -0.24403544 0.06665465 0.34291944
0.34165102 0.0980228 0.31854758 0.19621077 -0.06191368 -0.08019638 -0.05482259 -0.17570639
0.094467394 -0.13831618 0.032688104 0.04935437 0.10599263 0.116617724 -0.16943656 -0.029755369
-0.16393422 0.009284121 0.32285213 0.05311097 -0.27396795 0.34027144 0.34731027 0.24579825
0.072108254 -0.08313239 -0.2684901 -0.31609145 -0.17792985 -0.11827009 -0.34615457 -0.14401996
-0.31827986 0.28909108 0.041474156 -0.17288774 0.21478808 0.18941364 0.07076908 0.1468485
0.051600784 0.2035656 -0.3051096 0.13010933 0.23883356 -0.05888396 0.061426807 0.31232646
-0.14077197 0.23631123 0.11305116 0.027427912 0.3215917 -0.27538517 -0.2903861 -0.09136324
-0.0125117 -0.2429876 -0.19141114 0.0020514496 0.060776513 -0.30814824 -0.13767405 0.1710452
0.07300536 0.06032036 -0.0053353054 -0.042124774 0.16373551 -0.33139235 0.2795401 0.09694918
-0.21928711 -0.0015162807 -0.08822653 0.06767716 0.14429896 0.09045518 -0.119361356 -0.3035252
-0.21896687 -0.12200042 -0.21727736 -0.11713364 0.32480526 0.25277582 -0.033060685 0.29735377
-0.22964266 -0.14757654 -0.1904854 -0.32620013 -0.32664374 -0.041540373 -0.24260135 0.13092902
0.18261483 0.2647727 0.3351206 0.3459278 0.1221984 -0.22989526 0.11654242 0.29510975
0.089832 0.25477377 -0.004965363 0.030811012 -0.30723557 0.10276349 0.22370379 -0.27345717
0.11561459 0.0068213367 0.30197728 0.117511526 -0.21817937 -0.17103411 -0.33638102 0.021520806
-0.123105265 0.28983226 -0.24846072 0.2107076 -0.05222034 0.2625912 0.34050837 0.34485707
0.15061523 0.111823566 0.24244484 -0.09017804 0.29424366 -0.015962884 0.13323541 0.1074607
0.035185732 -0.10753674 -0.06984434 -0.32656303 -0.12824799 -0.34587577 -0.12152877 -0.06400622
0.32596546 0.25086433 0.18900318 -0.10265455 -0.086319014 -0.287185 0.06736351 0.30540404
-0.3165479 0.21040308 0.22646146 0.29183897 0.092956826 -0.08075109 -0.10501438 0.05504018
0.3660806 -0.20375457 -0.072563455 -0.13903114 -0.07153364 -0.017135479 0.2686892 0.24317998

encoder.actor_encoder.net.mlp.2.weight f4 [256, 256]
00000000: 3aaf debc 1ab8 29bd d14d cebc 021c 673a
00000010: 9659 57bc b232 dc3c 601b 1f3d 97d5 1dbc
00000020: 995a d33c be52 a7bd f988 2dbc b1b5 b73c
00000030: 31a7 d7bc 35a8 9abc 0e92 89bd aa15 1b3d
00000040: 9417 613d 8555 bbbd d659 b53c 070a 953d
00000050: 5359 643d e31c e0bb 44f7 dcbc 332e edbc
00000060: e7d2 a1bd 4d85 20bd 162b 5bbd b5c7 07bd
00000070: ce9a 21bc f4b1 813d c3a7 40bd 4b87 913d
00000080: 46fc 863c b511 163d d066 723d 77af 8a3d
00000090: 06e2 fd3c fa33 1dbd 7476 6ebd 925b 00bd
000000a0: 9bf9 3fbd 2c47 c2bd 723e cabb 4047 923d
000000b0: 7155 2e3d 2610 26bc 6dbb cd3b abcc 253d
000000c0: 447c 13bc f238 c83b 20c4 6bbd 4b9d d1bc
000000d0: 9f26 183d 78ee c83b 090e a53d 3a28 53bd
000000e0: a838 4bbd 0548 d93d d12b 24bd acb7 32bc
000000f0: 76c3 483c acd6 1dbd 16a7 e03c bb22 69bc
00000100: 72ec 3b3d b706 53bd d88a 32ba bbd4 6ebc
00000110: 8ca9 f23b 56f8 ef3c fb80 65bd 878f 38bd
00000120: 70cd dcbc 5c89 323c 2981 913c 44c7 363d
00000130: 450a 373c 1fc4 c4bc 4252 fbbc e701 72bd
00000140: 49da d13c fc3a 69bc c37e 13bc 785f bcbd
00000150: 01b0 5cbc 2a06 923d c063 d13d 5606 ac3c
00000160: 9905 e8bc 3477 343d 3147 ee3b 29b7 6fbd
00000170: d1ec 873d fa12 84bd 1d9e 923c 6fe4 6b3d
00000180: eaad 883d b5f9 823c 9210 b93c 437c 29bd
00000190: 6038 013d e499 f63c e70a f83a 8a44 77bc
000001a0: dda8 14bd 8a51 ea3b c83f fcbc 7488 8ebc
000001b0: 1bfe 23bc 8118 b7bd ba66 96bd c3ad 6a3c
000001c0: d961 2dbc e371 043d 9f93 eebc 402d 773d
000001d0: e0b4 0bbd d10b 36bc 689a 293d 2ca1 38bd
000001e0: d42e 42bd 8cd9 96bd 1b4c 26bc 0ed2 b33b
000001f0: 6a05 e0bc d43b 57bd db6b 19bd cf10 91bc
00000200: 0a39 493d d224 463d 733c e83c 632c 60bd
00000210: 8e6a 7bbd a6df fdbc 888f 943d 9ed1 9aba
00000220: 9024 5c3d a432 38bd e353 3abd 0d7e 71bd
00000230: adf2 883b 0a5a 123d bc0b b43c d2b6 883c
00000240: 446d 0bbd b607 b0bb c285 11bd a6d0 87b9
00000250: e270 813c 9a22 69bd d072 123c bbcf 2ebd
00000260: d6f2 7fbd d9a8 34bd 331c b0bd de9b 89bd
00000270: 4232 80bd b212 3ebb 73c4 89bc 8e99 28bd
00000280: 3be2 503d c778 87bc 122b 843d 9b59 443d
00000290: baf6 edbc 633d e8bc 9b77 fabc 7e3b 69bc
000002a0: 52f0 7bbd 5ff4 eabc a0e4 b9bc 91f4 62bd
000002b0: b4ab 80bd e580 463c 0fee 70bc bdd6 a4bd
000002c0: 42eb b03c e5b8 b93d 696c 07bc 2875 13bc
000002d0: 2748 213d 3302 66bd 330b 4bbc 36b7 d3bd
000002e0: 85c3 073c 97bf 1bbd fcae e73c 3073 0ebd
000002f0: 3615 97bd 3db9 9cbb fa77 19bc d530 78bb
00000300: 1c33 873d d104 9ebd 48a6 16bd 5f5c 96bd
00000310: ddde 1b3d 0a7e 7f3d 8d76 f7bc e56f a1bc
00000320: 19ca 4a3d 97b6 7cbd abf7 dc3c 7ead 5c3d
00000330: 17b7 7d3c 8eee a53c 4156 073b 4035 cd3c
00000340: 1f3a efbc d23b 313d 7acd d6bc c06c 023d
00000350: 9773 51bc f8c4 7f3d c47d 8b3d 3405 093d
00000360: c160 403d 56a3 25bd 2c7b 813d d5d3 7c3d
00000370: 57de 8abc bdae 853d 9285 8ebd 2a46 6d3d
00000380: c220 7bbd 00c7 d9bc 25c0 593c 5710 e4bc
00000390: 2ce4 24bd 0779 2c3b aa40 6d3d 61a2 3fbc
000003a0: 4c95 bdbb 7be7 783d 55b0 2dbc 4e91 2ebd
000003b0: bc29 6fbd 1d2e 973c 37ca ca3c cf73 603c
000003c0: 4bf8 babb 7548 79bd bb74 8b3c b717 433b
000003d0: a057 f13c 0705 07bd a55f abbc e750 49bb
000003e0: 0d2f f13c dc1c 6b3d 4222 073c a577 95bc
000003f0: 36ef 60bc dead 7cbd 8080 2abc efdf 723d
-0.027183164 -0.04143534 -0.02518359 0.0008816124 -0.013143918 0.026879642 0.038844466 -0.009633443
0.025800036 -0.08170079 -0.010591739 0.022425504 -0.02632484 -0.018879035 -0.06717311 0.037862457
0.054954126 -0.09147171 0.022137564 0.07277303 0.05574925 -0.006839381 -0.026973374 -0.028952694
-0.079015546 -0.039189626 -0.053507887 -0.03314944 -0.0098635685 0.0633277 -0.04703499 0.07105883
0.016477715 0.03663798 0.05918008 0.067717485 0.030991565 -0.038379647 -0.058218434 -0.03133733
-0.0468689 -0.09486231 -0.006171995 0.07142496 0.042561952 -0.010135686 0.0062784464 0.04047839
-0.009001795 0.006110304 -0.057560086 -0.025587698 0.037146207 0.0061319433 0.080593176 -0.051552035
-0.04961458 0.1060944 -0.04008085 -0.010908049 0.012253633 -0.038534805 0.027423423 -0.014229472
0.04587979 -0.051520076 -0.00068108505 -0.014577086 0.0074054655 0.02929322 -0.05603121 -0.045058753
-0.026953429 0.010897007 0.017761784 0.04462363 0.011171882 -0.0240193 -0.030678872 -0.059083845
0.025616782 -0.014235254 -0.00900239 -0.09197897 -0.013469697 0.07130082 0.10224104 0.020999115
-0.028322982 0.044058993 0.0072716703 -0.058524285 0.06636966 -0.06448932 0.01789766 0.057590898
0.066737965 0.01598821 0.02259091 -0.04137827 0.031547904 0.030102678 0.0018924148 -0.015092025
-0.036293853 0.0071508335 -0.030792132 -0.01739905 -0.010009314 -0.089402206 -0.07343812 0.014323655
-0.010582411 0.032335173 -0.029123126 0.06034589 -0.034108043 -0.011111216 0.04140702 -0.04507558
-0.04740794 -0.073657125 -0.010149981 0.005487687 -0.027346332 -0.05254729 -0.037456375 -0.01770821
0.049126662 0.04837496 0.028349137 -0.05472983 -0.061380915 -0.030990433 0.07253939 -0.0011811738
0.053745806 -0.04497017 -0.045490157 -0.058958102 0.00417932 0.0357304 0.021978252 0.016688738
-0.03403975 -0.005372013 -0.035527952 -0.00025904662 0.015800897 -0.056917764 0.008938506 -0.042678576
-0.062487446 -0.04410634 -0.085991286 -0.067191824 -0.06259586 -0.0029002842 -0.016817307 -0.041162066
0.050997 -0.016537083 0.064535275 0.047937017 -0.029048312 -0.028349584 -0.03057461 -0.014235375
-0.061508484 -0.028680978 -0.022692025 -0.055409018 -0.0628275 0.012115692 -0.014705195 -0.080487706
0.021596555 0.09068469 -0.008265593 -0.0090001 0.03937545 -0.05615444 -0.012392807 -0.10337679
0.008286362 -0.03802451 0.028281681 -0.03477782 -0.073770925 -0.0047828243 -0.009366984 -0.0037870903
0.06601545 -0.077157624 -0.036779672 -0.07341837 0.038054336 0.06237606 -0.030207897 -0.019706676
0.04950914 -0.06169757 0.026973566 0.053876393 0.015485547 0.020255353 0.0020650777 0.025049806
-0.029202519 0.04326994 -0.026221026 0.031841993 -0.012783906 0.062443703 0.06811097 0.033452228
0.04696727 -0.040438972 0.06322321 0.061725456 -0.016951723 0.06527469 -0.0695907 0.05792824
-0.061310537 -0.026584148 0.01329044 -0.027839823 -0.040256664 0.0026317255 0.057922997 -0.011696429
-0.00578562 0.060767632 -0.010601123 -0.042619042 -0.05838941 0.018454606 0.024754627 0.013699486
-0.0057058684 -0.060860116 0.017023435 0.0029768774 0.029460728 -0.03296378 -0.02091963 -0.0030718388
0.02944138 0.05740057 0.008247914 -0.018245528 -0.013728907 -0.06168925 -0.010406613 0.05929559

encoder.actor_encoder.net.mlp.2.bias f4 [256]
00000000: ded4 733d 73a9 723c c5b2 1f3c ae5e 2bbc
00000010: fdc1 b23c 1da8 b53c 65fb 803c df93 343d
00000020: 897a d93c 4775 27bc 470d 8a3c fd86 4d3d
00000030: 85ed abbb 773e 633c f7a6 3bbd d858 60bd
00000040: bf33 04bc 1039 3b3c dcef 913d 2049 813d
00000050: c681 65bd 06f1 133c 42d7 03bd 8e52 e53b
00000060: 182d a3bc 0937 7dbd 953f 7c3d fa67 253d
00000070: d6c4 073d 657d e4bc 6934 093d be7c 97bc
00000080: 940a 74bd e1cc 12bd 9ca6 3d3c 26b5 9bbc
00000090: 585b 6fbc d302 bdbc 6cb9 9c3c 6602 233d
000000a0: ac90 1ebd 0066 5dbc 3b72 693d fdb3 a9bb
000000b0: 6c07 c8bc 2287 0dbd 6e32 3bbd ac4a 073c
000000c0: 3dbd 13bc c785 0bbd 3fd3 17bd 8bbc 683b
000000d0: f604 0fbd d499 5dbd b417 973b a20a 81bd
000000e0: c34a 703a 058c bbbc c643 443d 4d6c b3bc
000000f0: 5786 85bc d381 8c3d cd59 aebb c5a5 4e3c
00000100: 8858 073d 10d3 513d 4357 243c 7cc4 643d
00000110: 059b eb3c 0e72 efbc 192e 9c3a 8aae 083d
00000120: a28a 6d3b bd04 0b3c 77e0 273d 7519 84bd
00000130: 0f2a 77bd ad43 67bd 4311 523d 9766 ac3b
00000140: a3aa 3fbd 7454 853a f9af 60bd b2e8 50bd
00000150: e79f 393d 7794 44bd bb40 a43c cd5a 8b3d
00000160: 1e58 103d 9078 26bd bf23 213d 44d3 183d
00000170: 208f ff3c f795 8d3c 6b57 a1bb e3a4 5a3d
00000180: 193a 593d 8721 2b3d d4af 02bd 757c 473d
00000190: 88bf e8bc 79b3 983c 6804 663d 8811 953c
000001a0: 9770 24bc 39a2 133d e091 593c 06a5 e3bb
000001b0: 8291 0fbc 4fbb 203d 085e 4a3d ad69 c4bc
000001c0: a3f2 433c 2243 0b3d a9ef 1b3d 6998 893d
000001d0: ec13 14bd 0dea 2fbc 1986 ecbc 2c96 693d
000001e0: 1ad4 fbbc a737 bd3b 4279 25bd 9e04 3b3d
000001f0: 6cf6 b73c 2099 6e3c 22c9 71bd 24ca 5bbd
00000200: db22 93bc 47da 5f3d a12b 573d 31c4 52bd
00000210: a97e 1e3d e727 b93c d38f e43c c971 aa3b
00000220: f6b5 5d3d 6ccf 273b b9c6 873d 334b 48bd
00000230: db12 333d a1c7 7e3d 19b3 0d3d 8ce4 e83c
00000240: b884 24bc 49d5 6bbd 4fb3 8b3c 17c2 b8bc
00000250: 957a e03b 37eb 7a3d 4af9 40bd a5da c13a
00000260: 6fc0 14bd f948 88bc f5f3 afbc ab1e 00bd
00000270: 6f3e b43a c33a b1bc 6676 41ba edef cebc
00000280: 99b4 563d 4b88 0bbd 95c3 62bb cf8c b3bb
00000290: 9514 fa3b 4ab5 5f3b b106 903c ba94 7a3d
000002a0: ee09 583c ab3c 3bbc 2cc8 1f3d 65b0 19bd
000002b0: 9efc 16ba d317 c53c 1e1b 70bd 57c8 29bd
000002c0: 63ce 8fbc eee2 603d 3571 223c f513 4cbb
000002d0: 764e 44bd 3220 84bd 27aa e2bc 3638 4a3d
000002e0: 283a 6d3a a0f4 dfbb f04f 46bd 5199 6bbd
000002f0: 5a46 99bc 92e7 603d 9097 4c3d 87ed 34bd
00000300: 3855 47bc d284 f13b f7f3 ff3b fd0d 5ebd
00000310: a29a 20bd bf39 2fbc 0db4 a63a cbd7 2dbd
00000320: 117b 1fbc b6a0 a03c 9d71 953c 3776 2cbc
00000330: 7575 5c3d 0384 df3b aa86 283d ef6a 29bd
00000340: 9e1b 853d 7c26 03bd 5698 753c f866 a4bc
00000350: e0f6 93bc ebdb eb3c 7acc 833c fdaf 0fbd
00000360: d72f 333d c002 e838 e021 6cbd e7a8 8abc
00000370: 2c14 8c3c 4381 94bc a1c2 84bb 1c62 dc3c
00000380: fea4 50bd 66d0 0cbd 726d 1c3d cdb1 303d
00000390: a64e 7d3c 3900 803b f9e4 69bd 5602 4d3d
000003a0: 4fc1 753d aa97 4abd a5a9 96bc 2685 aaba
000003b0: 883f 07bd 1a80 5fbc 0361 14bc 1885 6a3c
000003c0: e6d5 923b 0dfa 7bbc 7dd7 cebc 1c00 1bbd
000003d0: cfc1 44bd 5c5a bf3a 40bf e53c 46e7 83bd
000003e0: c3cb 703d c2ee 493d 2b2f 5ebd 4c02 6bbd
000003f0: d773 4bbd 248d 7dbb 45d3 c2bc 1d7f b1bc
0.059529178 0.014810908 0.009747212 -0.010459585 0.021821016 0.02217489 0.015744874 0.044086333
0.026547687 -0.010220832 0.016852034 0.050177563 -0.0052468204 0.013869873 -0.045813527 -0.054772228
-0.008068978 0.011427179 0.07125828 0.063127756 -0.056031965 0.009029632 -0.032187708 0.0069983667
-0.019918963 -0.061820064 0.061584074 0.040382363 0.0331467 -0.027891824 0.033497248 -0.018492099
-0.0595804 -0.03583992 0.011575367 -0.019007277 -0.01460918 -0.023072636 0.019131385 0.03979721
-0.03871219 -0.013513088 0.056993704 -0.005178927 -0.024417602 -0.0345527 -0.04570239 0.008257549
-0.009017286 -0.034063127 -0.037066694 0.003551277 -0.03491684 -0.05410178 0.00461098 -0.06300856
0.0009166414 -0.022893915 0.047916196 -0.021902228 -0.01629941 0.068606995 -0.0053207637 0.012612765
0.033043414 0.051226676 0.01003057 0.055851445 0.028760443 -0.02922919 0.0011915594 0.03336958
0.0036245962 0.008485016 0.04098555 -0.06450168 -0.060342845 -0.056461025 0.051285993 0.005261253
-0.04679359 0.0010172264 -0.05485532 -0.051003166 0.04531851 -0.04799315 0.020050397 0.06804428
0.035240285 -0.04064232 0.03934073 0.037310854 0.031196177 0.017283423 -0.004923751 0.053379904
0.053033922 0.04178002 -0.031905964 0.048702676 -0.028411642 0.018640267 0.056156546 0.018196836
-0.010036609 0.03604338 0.013279408 -0.0069471626 -0.008762719 0.03924113 0.04940608 -0.023976171
0.011959705 0.03399957 0.038070355 0.06718523 -0.03615181 -0.010736954 -0.028872536 0.05702798
-0.030740786 0.0057744565 -0.040398844 0.0456587 0.02245637 0.014562875 -0.059029706 -0.053659573
-0.017960956 0.054651525 0.052531842 -0.051456634 0.03869501 0.022602035 0.027900612 0.0052015525
0.05412861 0.002560581 0.066297 -0.04889984 0.043719154 0.0622021 0.03459463 0.028429292
-0.010041408 -0.05757645 0.017053274 -0.022553487 0.0068505504 0.061259475 -0.04711274 0.0014789893
-0.03631633 -0.016636359 -0.021478632 -0.031279247 0.0013751517 -0.021634465 -0.00073800085 -0.02526089
0.052418325 -0.034065526 -0.003460144 -0.005479432 0.007631848 0.0034135156 0.017581316 0.061176993
0.013185961 -0.011428039 0.03900926 -0.03752174 -0.0005759689 0.024059212 -0.05861961 -0.041450825
-0.017554468 0.054903917 0.009914686 -0.0031139825 -0.04792639 -0.06451453 -0.027669026 0.049370013
0.00090494985 -0.0068345815 -0.048416078 -0.05751926 -0.018710304 0.054908343 0.04994923 -0.044171836
-0.012166314 0.0073705697 0.0078110653 -0.05421256 -0.03920997 -0.01069492 0.0012718454 -0.042442124
-0.009733931 0.019607883 0.018242652 -0.0105262315 0.053822953 0.006821157 0.04114405 -0.041361745
0.06499408 -0.032019123 0.014989933 -0.02006863 -0.018062055 0.028791388 0.016088713 -0.035079945
0.043746796 0.00011063134 -0.057649493 -0.016926242 0.017099462 -0.018128043 -0.004051522 0.026902251
-0.0509386 -0.03437843 0.038190313 0.043138314 0.015460646 0.0039062765 -0.05710313 0.050051056
0.059998807 -0.049461044 -0.01839144 -0.0013009652 -0.033019572 -0.013641382 -0.0090563325 0.014313959
0.004481065 -0.015379441 -0.025249237 -0.0378419 -0.048036393 0.0014599073 0.028045297 -0.06440596
0.058788072 0.049299963 -0.0542442 -0.057375237 -0.04967102 -0.0038688863 -0.023782382 -0.021667058

encoder.critic_encoder.net.mlp.0.weight f4 [256, 8]
00000000: 9853 683e 4a0c a1bd 02f9 99be 89bc a13e
00000010: 76f8 6b3e 2d79 8ebd c35a 50be c3f5 343e
00000020: e929 a63e fe68 86be 81c6 52bd 9d8a 7b3e
00000030: 2b47 b2be 7d78 f13d 15d5 763e cbf5 213e
00000040: a152 293d 71b1 ce3d a1f6 223e 2d82 8fbd
00000050: 769e 633e a0b4 9bbd 559d 16be c7c1 b63d
00000060: 95ce 04bd 5c62 653e bbbe 493e 1e40 2d3e
00000070: e902 77be 52e0 6ebe 4627 353e 0e05 1a3e
00000080: 85fb 5f3e 1f4d c5bd 1eb5 763e 0f30 6abe
00000090: d702 893e 90b1 1b3d 73a5 55bd 2674 11bd
000000a0: 34a5 6c3e 4c7b c6bd 279c af3d a17b 61be
000000b0: 7e06 1cbe 1903 2c3e 9532 173e 9a35 6fbe
000000c0: 12b7 dd3c ba5a 55be b10e 3abe ded6 423e
000000d0: 4356 cd3d 11c3 513d 4951 0abc e1a2 9fbe
000000e0: 20da d63c 2368 6b3e ede7 5ebe e751 903e
000000f0: c8fe 0fbe 9316 b03e 13ef e63c 19a6 6b3e
00000100: 91e6 813e 683c 063e 08b5 58be 8492 4fbe
00000110: 2d81 0ebe f7f3 3a3e e4f6 40be 3c34 08be
00000120: 8c5e 9bbe 06e6 97be 0a23 c73c aa9a 773e
00000130: 15da b33e 5fcf 973e 76c4 213d 7cd9 9d3e
00000140: 9ff8 40be 9f9a e5bd a898 a7be a46e d1bb
00000150: fe72 1cbe aa4a 0abd 1ce4 29bd 3c37 6d3e
00000160: 3e7d 7fbe 627c c7bd a351 2b3e e278 0ebe
00000170: 2eb9 2e3e e2f2 a73d 4574 57be cd38 c13d
00000180: db9b dc3d f2e4 a2be 76e1 1ebe 4242 8a3e
00000190: 62c4 903d b90f 8abe ad92 7f3e 3132 4b3e
000001a0: 85b1 00bd e7ce ff3d cf9e 2b3e a816 debc
000001b0: 7420 8c3e 78e1 963e 35e2 df3d 24e4 073e
000001c0: 1707 86bd e3c1 ae3e 84d5 2d3d b75f a0be
000001d0: ad79 87be a62a a33e 7c8d 883e 6881 95bd
000001e0: b504 d1bd 3fae ee3d 64d5 77bd 46bc 763e
000001f0: 96dd 933d 0f9e 86bd 214f acbe 081a 00be
00000200: 8019 db3d 301f 42be 0f59 97bd e0d7 9cbd
00000210: a217 02be ab40 61be f978 4e3e 77e9 8ebe
00000220: b10e 853e 48de 12bc 1f69 253e f094 73bd
00000230: cd74 333e 3d19 86be 493b 043e e574 2e3a
00000240: 9a7c 9b3e b190 88be 0ac1 47be 89e9 1fbe
00000250: d8a4 9b3e 5ed7 50be 7202 9b3e c6f1 dbbc
00000260: b641 d3bd 3155 a43e c6cd 7e3e af67 24bd
00000270: 800d 2fbe 09a4 2bbd accd 84be f886 49be
00000280: 4965 c33d a057 423e e69f 39be b3ea 50be
00000290: 9155 9cbe 80c7 a0bd ecd0 f23d cca1 f1bd
000002a0: 764b 9d3e 39c9 e53d 900b b03d f7cd 923e
000002b0: d6b1 7bbe 3371 9b3d 7957 c7bd 5d5c cd3d
000002c0: c560 9d3d 940b 26be 5bcd 383c 7acd 9abd
000002d0: cc7c 93be 62a2 fcbc da9c f03d 2f42 913d
000002e0: 30e6 bdbd 9d07 fe3d 53bc a03c c8f8 a93e
000002f0: f5af b73c 5217 853e d971 26bd c93e aebd
00000300: 1522 523e 10e1 de3d 8330 12bd cdf2 6e3e
00000310: 040a c7bd 6cfb 633e 9364 093e 8af5 29be
00000320: f5fd 91be 509d 67be 3a68 213e 48c1 b03d
00000330: 8baa 8cbe 087e 4ebe 48cd e93d bdb6 163e
00000340: e225 973e 5bb9 fdbd e82d 2a3e d41a 453c
00000350: 4cf3 09be 0f01 693d 1b28 c8bc 8040 72bc
00000360: e926 27be 1c1f a63e 8129 903e b07c dc3d
00000370: 2446 153e a824 7ebe 46d5 a6be 6ba8 b0be
00000380: a68e a03e bb66 9b3e e8d3 a6bd 299d af3e
00000390: 3ff9 58be b5dd 783e 503d 77be 6632 103e
000003a0: 4b02 4b3e b968 493e c238 943e f6f7 353e
000003b0: 95d9 823e 3fa4 483e aa08 823d 2798 6bbe
000003c0: 0f0b 7c3e bba4 e83d 3b6c b7bc 8e07 48be
000003d0: 3f70 68be 54aa 073e 9629 1e3e 6c1b 4b3e
000003e0: 11a3 973e c9cb 163b 4496 b03e 22f0 9f3e
000003f0: dc1c cabc 23e7 3b3e 0166 c9bd 32ad 313e
0.22688138 -0.07863672 -0.3007279 0.31589153 0.23043999 -0.06956706 -0.20347123 0.17671876
0.3245385 -0.26251978 -0.05145884 0.24564596 -0.34819922 0.117905594 0.24104722 0.15816419
0.041338567 0.10092438 0.15914394 -0.07007251 0.22228417 -0.07602811 -0.14708455 0.08923679
-0.032423574 0.22400802 0.19701664 0.1691899 -0.24122204 -0.23327759 0.17690763 0.1504099
0.21873291 -0.0963385 0.24092528 -0.22869895 0.2675998 0.038011134 -0.052159738 -0.03551116
0.23109895 -0.09691486 0.085747056 -0.22019817 -0.15236852 0.16798057 0.1476539 -0.23360291
0.027064834 -0.2083539 -0.18169667 0.19027278 0.10026219 0.05121142 -0.008442231 -0.31178954
0.026227057 0.22988944 -0.2176816 0.28187487 -0.14062035 0.34392223 0.028190171 0.2301258
0.2537122 0.1310898 -0.21162808 -0.20270735 -0.13916464 0.18257128 -0.18844181 -0.13301176
-0.3034557 -0.2966768 0.0243087 0.24180093 0.3512732 0.296504 0.039494 0.3082999
-0.18844841 -0.11211132 -0.32733655 -0.006391363 -0.15278241 -0.03376261 -0.041477308 0.23165601
-0.2495012 -0.09740521 0.1673036 -0.139133 0.17062828 0.08200623 -0.21040447 0.09434662
0.107719146 -0.31815296 -0.15515694 0.27003676 0.07068707 -0.2696512 0.24958296 0.19843365
-0.031419296 0.12490635 0.167598 -0.027110413 0.2736851 0.29468894 0.109318174 0.13270622
-0.06544321 0.341323 0.042439952 -0.31323025 -0.2646002 0.31868476 0.26670444 -0.07300073
-0.10205976 0.116543286 -0.06050624 0.24095258 0.072199985 -0.06573116 -0.3365412 -0.1250993
0.10698223 -0.1895721 -0.073900335 -0.076583624 -0.12704328 -0.21997325 0.20163335 -0.27912495
0.2598777 -0.008964129 0.16153382 -0.05946821 0.17525025 -0.2619113 0.1291324 0.0006654992
0.303685 -0.2667289 -0.19507232 -0.1561643 0.30399203 -0.20394656 0.30275303 -0.026848685
-0.10315268 0.32096246 0.24883184 -0.040137943 -0.17094994 -0.041904483 -0.25938165 -0.19680393
0.09540803 0.18978739 -0.18127403 -0.2040203 -0.30534032 -0.078505516 0.11856255 -0.117984384
0.30721635 0.11220021 0.08595955 0.28672764 -0.24579558 0.075899504 -0.09733481 0.100273825
0.07684473 -0.16215354 0.011279429 -0.07558723 -0.2880615 -0.030839149 0.11748667 0.07092702
-0.092724204 0.12403796 0.01962105 0.33197618 0.02242277 0.25994354 -0.040635917 -0.08508069
0.20520814 0.10882771 -0.035690796 0.23334809 -0.09718707 0.22263879 0.13417272 -0.16597572
-0.28514066 -0.22618604 0.15762416 0.086306155 -0.27473864 -0.20165265 0.114161074 0.14718147
0.2952109 -0.123888694 0.16619074 0.012030322 -0.13471717 0.056885775 -0.024433186 -0.014785886
-0.16323437 0.3244561 0.28156665 0.1076597 0.14577538 -0.24818671 -0.3258459 -0.34503493
0.31358832 0.30351815 -0.08145887 0.3429959 -0.2118883 0.24303325 -0.24144483 0.14081725
0.19825093 0.19668855 0.28949553 0.17770371 0.25556627 0.19593905 0.06349309 -0.2300726
0.24613594 0.11359545 -0.022390475 -0.19534132 -0.22699068 0.13248569 0.15445551 0.1983468
0.29616597 0.002300965 0.34489644 0.31237894 -0.024671964 0.1834989 -0.09833909 0.17351225

encoder.critic_encoder.net.mlp.0.bias f4 [256]
00000000: b7d5 213e 189e 613e 4ffe f83d bf67 883e
00000010: 9f14 b4bd 4cd0 6f3d eaf5 f3bd bf7c b3be
00000020: 053c 5dbd c549 16bd 546d ab3d d39d 283e
00000030: cff5 91be 85f8 04be b3c4 adbe 91ac 8bbe
00000040: 7132 b4bd 17f4 373e da49 763e 0c77 b2be
00000050: 2d41 79be 83ea 0b3d 7922 b0bd da43 76be
00000060: a023 013e afc7 12be 23d3 4bbe b0e1 77be
00000070: 8f4e c83d ac70 b0be 0589 97be 1732 82be
00000080: dda4 3abe c530 073e f273 19be 2757 9a3e
00000090: 0fd7 afbe e032 b13e 5d18 0dbd 6406 4fbd
000000a0: 2b46 af38 2744 23be 5549 3ebe 9574 2cbe
000000b0: bb64 903e 2b6b 2dbc 6fb5 3b3e eb6a 74bd
000000c0: 80ee 8d3e 4419 6abe 12fe 9b3d 6b50 e9bd
000000d0: 2109 d2bd f59f ad3e 9eaf 143d 570a 9abe
000000e0: 548a 813e 1323 2a3e 623f 5bbe 4ea6 b7bd
000000f0: b28d 90bd 8a24 84be 6ec8 8c3e 7ff0 08be
00000100: 68cc 5a3d 4574 44bd e902 a53c 8234 97be
00000110: ac5d 8c3d b59c 47bd 1d65 b83d df25 8dbe
00000120: af5a 163e 19e2 19be e4a1 52be 1137 8abe
00000130: c24a 25be 8ad7 843e 2700 c53d 5ae3 f33d
00000140: 5292 dd3d b1c5 50bd cf45 9dbb 2f32 a73e
00000150: 3aaa 5e3e e19a 983e f05d 3bbd b5e6 783e
00000160: c4b0 5cbe b251 963e 88bb ab3c cc78 523e
00000170: f559 3d3e cf75 443e ac6d 93bd 6836 123e
00000180: c228 55bd 945e 8fbe 4197 f23d c183 8cbe
00000190: 5535 3abd b32e 313e 6bca 203d 705a 5e3e
000001a0: 4802 4bbe 1a10 8c3e a400 69be 1c31 b3bc
000001b0: ca5b 1a3d c125 3c3e 228f 6abe f1d8 32be
000001c0: f0d3 6e3e 9939 fb3d 7fa1 98be 8513 233e
000001d0: 7882 76be cf5c 043d 878c 89bd 62e2 37be
000001e0: 2e52 5e3e 7e07 a9be e20c c03d 582d 8dbe
000001f0: e54a a63e b772 f03d ab3f 8dbe 8759 30bc
00000200: 2a06 4c3e f949 2dbe 1fd3 9cbd 2269 91bb
00000210: 1e17 04bd 774f 413e 7bec b43e d526 94bd
00000220: b117 86bd 8d92 1ebe 03a2 04bd 6008 883d
00000230: 825c a13d b6eb 353e adb6 1cbe 8bcf 8c3e
00000240: ec3f 233e 22e9 093e 4e06 61be 3ac5 a23e
00000250: f563 ad3e 32e9 55be ba38 17be 4e69 cf3d
00000260: dabf 7abe 5d53 28be f910 833e 3671 383e
00000270: d85f 703c f66f d33d 6da5 fa3d 072d 90be
00000280: 16bd d9bd 49ba bd3d e7d8 9dbe 01bd 06be
00000290: 3499 943e 49f6 1a3b a20d a1be 8a1f a6be
000002a0: 99ab aabd 7a29 8f3d aeba 163e 2c74 f73b
000002b0: 00b3 943e e55a b2bd 93e9 fcbd 985a 3b3e
000002c0: a2d5 6fbe 2a24 aabd 7002 ac3e 059b 8fbe
000002d0: 16da 74bd 93e8 efbd 475b f0bd 2591 e5bd
000002e0: 1285 8a3e 78c3 89be 9aa6 b33e 54d8 d83d
000002f0: e93e b13e 3abc 803e 8ec3 3dbe c1a7 f83d
00000300: eeeb 96be f0a0 98be f8c7 3f3e 9063 96be
00000310: d44b 96be 7009 c7bd aad1 b83d 68dc 4e3e
00000320: 61b4 1f3e 8e19 a73e ee47 6e3d 7845 7cbe
00000330: f0be a13d 8c99 82be 14ee 0c3e 1222 ab3d
00000340: ab32 643e e993 d3bd 860b b33d 4f39 9b3e
00000350: a91c 663e 0059 ffbd 6385 883e 39dc 12bd
00000360: 90b3 65be b68d 943e ef5b 5bbe dc6c 6c3e
00000370: 9898 4b3e 8b3e 053e 2537 25be b7fd 82be
00000380: 2273 64be c557 62be 526a a0be ff4b 413d
00000390: 0f6b dd3d 3e72 44be 2010 cf3d 5b30 a53e
000003a0: af70 b3be 875a 6abe 9017 b5be b6f6 a73d
000003b0: 9586 abbc d786 e0bd babd f53d ad96 0a3e
000003c0: d695 4bbd d05c 9c3d a21c 46be e560 02be
000003d0: 1c6d e4bd a8e8 fcbd 92c3 2c3e 7095 773e
000003e0: 039c 2dbe 903c 8fbd c50e 683e 1bd1 80be
000003f0: 4804 373e f3ca 9e3d 7871 90be 0f71 723c
0.15804182 0.22032964 0.121578805 0.26641652 -0.08792996 0.058548257 -0.11912139 -0.3505611
-0.054012317 -0.036691446 0.08370462 0.16466455 -0.2850785 -0.12985428 -0.33939132 -0.27280095
-0.087986834 0.17964207 0.2405161 -0.3485645 -0.24341269 0.034159195 -0.08600325 -0.24049321
0.12611246 -0.14333986 -0.19904761 -0.24207187 0.09780609 -0.34460962 -0.29596725 -0.2542884
-0.18226953 0.13202198 -0.14985636 0.30144617 -0.34343764 0.34609127 -0.034447063 -0.050543204
8.35772e-05 -0.15943967 -0.18582661 -0.16841348 0.2820185 -0.010584633 0.1833093 -0.059672277
0.27721024 -0.228612 0.076168194 -0.11392292 -0.102556475 0.339111 0.036300294 -0.30086014
0.25300848 0.16614942 -0.21410897 -0.08967267 -0.07058276 -0.25809127 0.27496666 -0.13372992
0.053417593 -0.047962446 0.02014299 -0.29532248 0.06853804 -0.04873343 0.09003661 -0.27567956
0.1468303 -0.15027656 -0.20569569 -0.26995137 -0.16141799 0.25945693 0.0961917 0.11908598
0.10818924 -0.050969783 -0.0047995816 0.32655475 0.21744624 0.29805663 -0.045743883 0.24306758
-0.21551806 0.29359204 0.020963445 0.20553893 0.18491347 0.19185565 -0.071986526 0.14278567
-0.052040823 -0.28001845 0.11845256 -0.2744427 -0.045461018 0.1730297 0.03925554 0.21714187
-0.19825089 0.27356035 -0.2275415 -0.021874003 0.037685193 0.18373777 -0.22906163 -0.17465569
0.23323035 0.12266845 -0.29810712 0.15925415 -0.24073207 0.03231507 -0.067162566 -0.17957452
0.21711037 -0.3301353 0.09377457 -0.27573657 0.32479015 0.1174063 -0.27587637 -0.0107635325
0.19924226 -0.1692275 -0.07657456 -0.0044375816 -0.03224861 0.1887797 0.3533667 -0.07233969
-0.065474875 -0.15485592 -0.03238107 0.066422224 0.078789726 0.17765698 -0.1530406 0.27502093
0.15942353 0.1346784 -0.21975061 0.31791097 0.33865324 -0.20889738 -0.14767733 0.10127507
-0.24487248 -0.1643805 0.25598887 0.18011937 0.014671288 0.10324089 0.12238584 -0.28159353
-0.106317684 0.09264047 -0.30829546 -0.13158037 0.29023135 0.0023645333 -0.31455714 -0.32445937
-0.08333511 0.06990333 0.1471965 0.0075516906 0.29042816 -0.08708743 -0.12349238 0.18296278
-0.23421338 -0.08307679 0.3359561 -0.28047958 -0.059778295 -0.11714282 -0.1173616 -0.11209325
0.2705465 -0.26906943 0.35088044 0.10588136 0.3461831 0.25143605 -0.1853163 0.121413715
-0.29476875 -0.29810286 0.18728626 -0.29372835 -0.29354727 -0.09718597 0.09024365 0.20201266
0.15596153 0.32636684 0.058174066 -0.24635875 0.078977466 -0.25507772 0.13762695 0.08356108
0.22284953 -0.10330946 0.08742432 0.3031716 0.2247187 -0.12468147 0.26664266 -0.035854552
-0.22431779 0.29014367 -0.21421789 0.23088402 0.19882429 0.1301214 -0.16134317 -0.25584194
-0.22309545 -0.22103794 -0.31331116 0.047191616 0.108114354 -0.19184205 0.101104975 0.32263455
-0.35046908 -0.22886096 -0.3536954 0.08201353 -0.020938197 -0.10963219 0.11999078 0.13534041
-0.04970344 0.0763489 -0.1934686 -0.12732275 -0.111536235 -0.12349063 0.16871479 0.241781
-0.16954045 -0.06993973 0.22661884 -0.25159535 0.17872727 0.07753553 -0.2821157 0.014797463

encoder.critic_encoder.net.mlp.2.weight f4 [256, 256]
00000000: f591 d0bc 971c 4c3c b0a5 3a3c e036 29bd
00000010: 5b88 02bc ac2d 603d 7fbc 023d 302b ecbc
00000020: 4fb5 b2bc b4bc 5b3d fe19 3c3d 32d5 863c
00000030: 5985 b53c cc29 b0bc 738b e4bb 95d7 613d
00000040: effa 2dbd 7eee 933c 98ab 58bd 4c20 75bd
00000050: 0aca 4dbc 2633 58bd 2bd9 47bd a671 08bb
00000060: 00a9 a0bb e3ee 04bd 2028 603b 787e 8cbb
00000070: f0db 5b3d e60e 5fbd 578d e73c 64ce 49bd
00000080: cad6 4a3d b8e0 5cbc 5785 76ba 3d55 e3bb
00000090: 9e96 9c3c a282 96bc 0a62 49bd a5f5 00bd
000000a0: ae16 4e3c 45ce 313c 6c6d d63c 7fcb 443d
000000b0: 5d5a 2b3d 8499 f3bc 393c 6ebd 3dc1 57bd
000000c0: c1c6 3dbd 857f 0a3c 8f75 e83b 45c3 c5bb
000000d0: 107b c1bb 0cc1 133d b056 4a3d fb04 50bc
000000e0: 2cc9 5bbc 07bf 3a3b e07f 2abd 2723 d63c
000000f0: 5411 19bb 625b 14bd beaf 463b f2bf 3b3d
00000100: cd9e e23c 340c 413d 2e1a 4fbd 7157 483d
00000110: 5f1a 733c c6ef 523d 26c4 76bd 4cb2 353c
00000120: dced 563d e797 683d 4ecd 3dbd a862 21bd
00000130: 90a7 803c 4730 4b3d 3e72 63bd 0238 fcbc
00000140: e094 0cbd 926f 573d f13b d9bc 91cf 483c
00000150: 8476 b23c cb5e e0bb 8a3b 7fbd 6914 eb3c
00000160: 3b30 2bbc 938d 7c3d 0b69 053c cd90 1cbc
00000170: 8542 353d 7af0 1bbd 306c 60bc e1c7 6bbd
00000180: 2c72 91bc c366 2a3d cb73 da3c 4a49 0a3d
00000190: b8b6 fe3b 766a 353d 6ea9 2fbd 3e41 60bd
000001a0: 755a 62bd 76c0 703d 4383 d53c 56c9 663d
000001b0: 0d97 70bd 429b 2ebd 00bf 623c e78c 8a3c
000001c0: 4514 5fbd e923 23bc 101b a73c 9a58 4c3d
000001d0: 19b0 3bbd a5a7 90ba 9629 8fbc e242 0839
000001e0: 5acc 26bd afd0 e4bc 84fb e9bb e090 c2bc
000001f0: 7774 2a3d 1824 08bc 5d37 3a3d c27f 823c
00000200: 900b dc3c 8467 b4bb 9479 8cbc 113c 53bd
00000210: 12b6 083b 17ea 013d 24f5 b6bc 695e 2dbd
00000220: 258e a7bb 75f9 143c 1e8b 19bd 9768 f73c
00000230: 78a7 25bd 7c7a 9f3b 54ee 3d3b e516 0c3d
00000240: 0247 4b3d b869 11bb 4519 9a3b 9a79 563c
00000250: 3180 353d ca9e 8fbb 8a38 71bd 1b8a e13c
00000260: 953c 803d a863 46bd 3fd6 0dbd e218 9e3c
00000270: ba66 49bd 6a5d 573c 9823 70bd 1aad 47bd
00000280: 0cd5 46bc 2c71 083d 8c1f 023c 6d2d 863c
00000290: c0ce 00bd fd59 11bd 7a9d 883c efee 753c
000002a0: b41c c23c 6dfa 333d 0763 863c 795b ae3c
000002b0: 4973 eb3c 4a46 42bd cf4a 0a3b 5dd1 0fbb
000002c0: 1e8e 03bb aae2 3e3d 820c 7dbc 3b5c f3bc
000002d0: 34f1 3cbc 6590 093d 7465 e43c 8160 9b3a
000002e0: 4695 35bd 4c1b 183d e329 543d 32e3 023d
000002f0: 0616 abbc b09a 69bd 01c3 ea3c 0d27 8f3b
00000300: ddfb 783d 0625 263c 73d4 693d 59d2 363c
00000310: 5088 673d 0388 a1bb a656 4fbd b24d 17bc
00000320: a37f 4b3d b9f1 3bbd 2677 173d f5de a43c
00000330: 50da 6ebd f5c4 e33c 2667 33bc 8bba 75bd
00000340: a59b 45bd bfbf 57bc 2221 fd3c 8794 273d
00000350: 71b4 3cbd c1f1 15bd 7c81 29bd 6582 80bb
00000360: ac06 25bb 442a dbbc 5ec2 f43c 8b6d 6fbd
00000370: d092 fa3b 73d0 c63a 3932 95bc 26c6 32bd
00000380: 80c4 bd3c ac89 463c 04e2 abbc 9959 773c
00000390: 1dad 25bd 5e7b 323d 44c6 daba 7b7a 693d
000003a0: 80b7 fc3b 5e57 67bc 5c3d 69bd 05f2 003c
000003b0: 5c5b ca3c 73ac 59bd ea0b 02bd 2713 b63b
000003c0: 9a90 243c 7149 0e3b 94da 123d 60de 7cbd
000003d0: a42d 7c3d 054f 5fbd 6ab6 40bd 72cb 2b3d
000003e0: cc2f b03c 5a16 7c3d 3fca c3bc ed27 1a3d
000003f0: 40e6 e1bc fce4 51bd c9db 58bc 3809 3c3d
-0.025460223 0.012457988 0.011392042 -0.0413121 -0.00796708 0.054731056 0.031918045 -0.028829187
-0.02181497 0.05364676 0.045923226 0.016459081 0.022158312 -0.021504305 -0.0069746315 0.055137236
-0.042475637 0.018058058 -0.05289802 -0.059845254 -0.012560377 -0.052783154 -0.048791092 -0.0020819693
-0.004902959 -0.032454383 0.0034203604 -0.004287537 0.053676546 -0.054457568 0.028265638 -0.049269095
0.049521245 -0.0134813115 -0.00094040245 -0.0069376514 0.019114789 -0.018372837 -0.049165763 -0.031484265
0.012578649 0.010852401 0.026175223 0.04804563 0.041834224 -0.029736288 -0.0581629 -0.05267452
-0.046332125 0.008453255 0.007094092 -0.006035241 -0.005904563 0.036072776 0.049399078 -0.0126965
-0.013414662 0.0028495209 -0.041625857 0.026139809 -0.0023356276 -0.036219962 0.0030317153 0.04583735
0.027663613 0.04713078 -0.050562076 0.048911516 0.01483783 0.051498197 -0.060245655 0.011089873
0.052472934 0.05678549 -0.046338372 -0.039400727 0.0157049 0.049606588 -0.05552887 -0.030788425
-0.034321666 0.052596636 -0.02651784 0.012256519 0.021785028 -0.0068472377 -0.06231264 0.028696256
-0.010448511 0.061658453 0.00814272 -0.009556008 0.04425289 -0.038071133 -0.013697669 -0.057563666
-0.017754637 0.041601907 0.026666543 0.0337613 0.0077732466 0.044290982 -0.04288619 -0.05474972
-0.055262048 0.058777295 0.026063567 0.056344353 -0.058737803 -0.042628534 0.013839483 0.01691289
-0.05446269 -0.009957292 0.020398647 0.049889185 -0.045822237 -0.001103629 -0.017475884 0.00012994886
-0.04072223 -0.02793154 -0.0071405787 -0.023750722 0.041614976 -0.008309387 0.045462955 0.01593006
0.026860982 -0.005505504 -0.017147817 -0.051570956 0.0020860475 0.031717386 -0.022333689 -0.042326365
-0.0051133805 0.009092678 -0.037486188 0.03020124 -0.040442914 0.004866896 0.0028981166 0.03420152
0.049628265 -0.0022188257 0.0047027194 0.0130905155 0.044311706 -0.004382943 -0.05889181 0.027531674
0.06261555 -0.048434883 -0.03462815 0.019298974 -0.049170233 0.01314483 -0.058627695 -0.048749067
-0.012135755 0.033311054 0.007942092 0.016379083 -0.031447172 -0.03548621 0.016676653 0.0150105795
0.023695327 0.043939997 0.016404642 0.021283852 0.028741496 -0.047430314 0.0021101718 -0.0021944859
-0.0020073722 0.046602882 -0.015444877 -0.029707065 -0.011532117 0.03358497 0.027880408 0.0011854322
-0.04433181 0.037135407 0.05179776 0.03195495 -0.020884525 -0.057032287 0.028657438 0.004368669
0.06078707 0.010140663 0.057087373 0.011158549 0.056526482 -0.004929544 -0.050619744 -0.009234833
0.04968227 -0.04588482 0.036978863 0.020125845 -0.058313668 0.027803877 -0.0109498855 -0.059992354
-0.048244137 -0.013168274 0.030899588 0.04091313 -0.04607052 -0.036607508 -0.04138325 -0.0039217942
-0.0025180979 -0.026753552 0.029877838 -0.058454078 0.007646896 0.0015168324 -0.018212425 -0.043646
0.023164988 0.0121177845 -0.020981796 0.015097045 -0.040448297 0.043574683 -0.0016691168 0.057001572
0.0077123046 -0.014119951 -0.056943282 0.007870202 0.024701767 -0.053142976 -0.031749643 0.0055564824
0.010044241 0.0021711255 0.035852984 -0.06173551 0.061566964 -0.05451872 -0.047048964 0.041942067
0.021507166 0.061544754 -0.02390015 0.037635732 -0.027575612 -0.051243767 -0.013235995 0.04590723
